training/save_ddpg_weights/DDPG_R1_actor_network_s5.pt (torch, 734843 bytes, 13 tensors)

net1.0.weight f4 [3, 1, 3, 3]
00000000: b34f 13be d0de e83d 65d8 543e b9a6 e43c
00000010: 92ef ff3c f460 863e 7ac2 503e 6a59 633e
00000020: a22b 8a3e 83a0 473e 8673 2d3e 0e76 a4be
00000030: 1ef2 41be a2d3 8e3e c2e9 a7be 8b1e 083d
00000040: 56de f7bc 5e30 203e 53fa 193e 482d 29be
00000050: 0ac9 a5be 1624 a93d 3398 4f3e 0bdc 06bd
00000060: e621 2f3e f4ad 86be 2efd 5cbe
-0.14385872 0.11370623 0.20785673 0.02791153 0.031242166 0.26245844 0.20386687 0.22202078
0.26986414 0.19494824 0.169386 -0.3212132 -0.18940017 0.27895838 -0.3279553 0.033232253
-0.030257385 0.1564345 0.15036897 -0.1652118 -0.32379943 0.08258836 0.20272903 -0.032924693
0.17102775 -0.2630459 -0.21580955

net1.0.bias f4 [3]
00000000: ee53 343e 061a 6bbe b384 21be
0.17610142 -0.22959146 -0.15773277

net1.2.weight f4 [3, 3, 2, 2]
00000000: a6af bdbd be14 5bbd 6cf4 133e c871 8fbe
00000010: b5b6 503e 7a9c 2f3e a610 113e ee35 b63d
00000020: 5cf4 c63d 6e31 69be facb bf3d 5639 603e
00000030: b8ed 83be 9b8b d93d 3d1d 803e 3471 693e
00000040: 2934 193e 8242 d2bc 15bd 82be 1c04 87be
00000050: b28c 903e 839c 29be 1fe7 1b3e d00c b5bb
00000060: d958 bebd 6a56 35be ea0a 163e f2a0 8f3e
00000070: 5561 29be d796 6dbd 7a1a 90be a0a7 89be
00000080: 4b30 2a3e fc75 6c3e d926 513d 13e2 923e
-0.09262018 -0.05348658 0.14448708 -0.28016496 0.20382197 0.17149535 0.14166507 0.08897005
0.097145766 -0.22772762 0.09365077 0.21896872 -0.25767303 0.10622331 0.25022307 0.2279709
0.14961304 -0.025666479 -0.25534883 -0.26370323 0.28232342 -0.1656361 0.15224884 -0.005525209
-0.0929429 -0.17708746 0.14652601 0.2805248 -0.16541035 -0.05800518 -0.281452 -0.268857
0.16619985 0.23091882 0.05106244 0.28688106

net1.2.bias f4 [3]
00000000: 9b39 11bd e0ea a1bd f01f 27be
-0.035455327 -0.07906127 -0.16320777

net1.4.weight f4 [1, 3, 2, 2]
00000000: a362 3d3e c9a2 263e 825e 1c3d d406 19be
00000010: 4db2 8a3e 4565 d73d 6db5 db3d dd5f cb3b
00000020: 4a8b d03d d2e8 4d3e 195a 43be 8ad7 87bc
0.18494658 0.16273035 0.038176067 -0.14944011 0.27089158 0.105173625 0.107279636 0.006206496
0.10182817 0.20108345 -0.19077338 -0.01658227

net2.0.weight f4 [256, 196]
00000000: abdb 803d 257c 43bb 0590 73bd ca82 4c3d
00000010: c0ce a3bc cea3 913c 5c0b c63b 1351 0abd
00000020: 705b 0fbd 17f1 59bd c776 153d dccd 493b
00000030: 9a10 5fbd 4ea2 fb3c 78b9 773d 4f27 92bd
00000040: 3727 93bc 3774 85bd 81ef e33c 3783 2bbc
00000050: 3e17 65bd 88ee 6a3d 2cc1 393d 4aed 14bd
00000060: a5c0 5abd 1196 2c3d dc1d 47bc 5e16 8bbd
00000070: 7311 25bd ee1c 4ebd 8118 4f3d 9371 703c
00000080: e382 65bd e8e9 753d 1c54 233d a53f 983b
00000090: b700 0bbd b726 34bc d38c 96bc d8f2 ecbc
000000a0: c1a1 5ebd 6aed 8ebc acae 7bbd 16b4 8cbd
000000b0: 33bc 5c3d 4ab1 333b 6caa 74bd 0369 85bd
000000c0: bce1 1cbd 3763 ac3c d710 09bd 842b 82bd
000000d0: dce5 b93c 1763 94bc 1cd0 05bd 21d0 ad3c
000000e0: a519 b03c 1cd0 f9bc 9526 623d ea4b 753d
000000f0: 9341 0f3c d3d8 9c3c 7ca5 90bd a839 61bd
00000100: 474d 383d b83e 65bd 0a9f f0bc 8126 e83b
00000110: 71c7 34bd 6ec4 ca3c 85e8 57bd 80bb 21bd
00000120: 21ea c9bc da87 2fbd a78f 34bd e53f 5cbc
00000130: da13 57bd 6114 f33c f335 5ebd 859c c6bc
00000140: 17e5 8fbc bcee af3c 556e 833d 6c6e 603d
00000150: 6201 923d c5ea 323d 852b c0bc 136a ad3c
00000160: a55a 7dbc ba07 173d b79f a5bc cca6 7ebd
00000170: deb8 59bd 2583 2bbd 757b 853d bcc3 65bd
00000180: ca49 b1bb fc02 ffbc b5cb 0dbd 3c4d bb3c
00000190: f4a1 8ebd 1c0a ff3c dc4d ddbc 45df e83c
000001a0: f50e 3dbd 9aeb 6f3d 350d 05bd 4587 6ebd
000001b0: dacd 66bd 2ef3 213c d451 89bd 559d 7e3d
000001c0: 93e9 68bb 1acc 263d b851 6f3c 0098 073c
000001d0: 9eb7 2f3d 4aaa 133a aeea 133d 4e9c 86bd
000001e0: 4138 f03c f78a 9b3c 1c44 1c3c 8df5 83bd
000001f0: e596 aabc 6edb a7ba 2244 8b3d 93fc a8bc
00000200: 7c77 363d e8ab 8d3d d6c8 87bd 9aec 3e3d
00000210: 471a 27bd bd73 91bd 9a50 3c3d 43c8 36bd
00000220: 0149 e93b 93ea ef3a 25c6 d9bb 3e2a 4c3d
00000230: 4a8c 7fbc a804 89bd 0131 2c3b 37dc d03b
00000240: dc6b 26bc ca48 6abd 4ead 783d b785 c13a
00000250: 6e41 dbbb 0514 5b3d a1df 52bd c8cd 5cbd
00000260: 17b2 d3bc 075f 2ebd 25f2 60bb 2755 4bbd
00000270: 1c78 2e3c e523 583d ce1b f0bc 1790 2d3d
00000280: b333 863c 7767 27bc ee79 0dbd e7ae 4dbd
00000290: 1328 89bc 839a 14bd 5a3c 153d 97c2 123d
000002a0: ae67 5dbc 0eb5 8dbc 0a59 603d 93eb ca3b
000002b0: 8a5f 063d 5366 29bc a361 203d 3317 9ebc
000002c0: 2c4a 0b3d 9e12 4f3d 3caa febc 18ff ed3c
000002d0: c377 3c3d 5c2e cabc 1787 9c3c 2acd 8a3d
000002e0: d387 173d d75e b63c 4a20 ee3a 2ed7 79bd
000002f0: 2e7c 0a3d ae7c 433c 7c59 65bd 25d9 abb9
00000300: 5c44 8bbc 2eab 45bd 45de cdbc 9c71 76bc
00000310: 4ca3 09bd 45b9 3a3d b508 10bd 379c 9a3c
00000320: 4a67 593d c5b5 8abd e188 50bd 00db 833c
00000330: f358 81bc f2bb 86bd d318 b7bc 0ef1 fc3c
00000340: 3b6a 843d 0003 9bbb 8eba e33c 233b 433d
00000350: 8302 733d e79e 533d c322 713d eac4 163d
00000360: 1ad7 723d dce3 15bc b813 e6bc d821 62bd
00000370: 45bc 6fbd b767 093c ca5b 8e3d 53fe a1bc
00000380: 21c0 e13c 9338 7dbc 45d1 b0bc f587 553d
00000390: 6eb4 023c 9eb9 003d b7ff 8abb 9e30 3ebd
000003a0: eac9 ff3c dc5f 02bd 25c7 dcbc 2ab8 61bd
000003b0: 6ef7 443b aebb bd3c e3c0 283d 6546 3c3c
000003c0: aedc 753d 1285 83bd a5a0 d63b 9355 583c
000003d0: 25fd 093c d3df a43c 1566 66bd 20cb 953c
000003e0: b01a 263d cac8 923c dc63 51bc 0194 b0ba
000003f0: 8586 4ebd 4691 91bd ce40 b83c fcff 51bd
0.06291898 -0.0029828635 -0.05946352 0.049929418 -0.019996047 0.017778303 0.0060438346 -0.033768725
-0.03499931 -0.053208437 0.036490228 0.0030792868 -0.05445919 0.030717041 0.06047961 -0.07136404
-0.017963035 -0.06516307 0.027824165 -0.010468296 -0.05593037 0.057356387 0.04535024 -0.03635911
-0.053406376 0.042135302 -0.012153115 -0.067913756 -0.040299844 -0.05032056 0.050560478 0.014675516
-0.056033026 0.060037524 0.039875135 0.004646259 -0.03393623 -0.010995558 -0.018377697 -0.02892439
-0.05435348 -0.017447192 -0.061445877 -0.06870286 0.05389042 0.0027418905 -0.05973284 -0.0651417
-0.038301215 0.021043403 -0.033463325 -0.06355956 0.022692613 -0.018113656 -0.03266917 0.021217408
0.021496603 -0.030494742 0.055212576 0.05988685 0.008743661 0.019146359 -0.07062814 -0.054986626
0.044995572 -0.055968016 -0.02937271 0.007084668 -0.044135515 0.024751868 -0.052711982 -0.039485455
-0.024647774 -0.042854168 -0.04408231 -0.013442968 -0.052509166 0.029672803 -0.05425067 -0.024244556
-0.017565293 0.021476142 0.064175285 0.054792807 0.0712917 0.043680925 -0.023458252 0.021168744
-0.015463506 0.036872603 -0.02021776 -0.06217079 -0.05315482 -0.041873116 0.06517688 -0.05609487
-0.0054104077 -0.031129353 -0.0346181 0.022863977 -0.06964484 0.03113275 -0.027014665 0.028426776
-0.046156842 0.058574297 -0.0324833 -0.05823447 -0.05634866 0.009884639 -0.067050606 0.062161762
-0.0035539612 0.04072199 0.014606886 0.008275986 0.04289972 0.000563298 0.03611248 -0.065727815
0.029323699 0.018987162 0.009537723 -0.064433195 -0.020823905 -0.0012806484 0.06800105 -0.02062825
0.044547543 0.06917554 -0.06630103 0.04661236 -0.040796544 -0.071021535 0.045975305 -0.04462458
0.0071192984 0.0018304161 -0.006645935 0.049844973 -0.015597412 -0.06690341 0.0026274326 0.006373908
-0.010157552 -0.057198323 0.06071215 0.0014764582 -0.0066911494 0.05348589 -0.0514828 -0.053907186
-0.025841756 -0.042571094 -0.0034324017 -0.049641754 0.0106487535 0.052768607 -0.029310133 0.042373743
0.016382074 -0.010217539 -0.03454011 -0.050215628 -0.016742742 -0.036280166 0.03643451 0.035830107
-0.013513489 -0.017298248 0.054772414 0.0061926334 0.032805957 -0.010339337 0.039155614 -0.019298172
0.034006283 0.050554864 -0.031087033 0.029052302 0.04601265 -0.024680309 0.019107385 0.06777413
0.036994766 0.02226202 0.0018167582 -0.060996227 0.033809833 0.011931581 -0.055993542 -0.00032777447
-0.01700037 -0.048258953 -0.0251304 -0.015041735 -0.033602998 0.045586843 -0.035164554 0.018873317
0.05307702 -0.06772951 -0.050911788 0.016095638 -0.015789485 -0.065788165 -0.022350704 0.030876663
0.06465574 -0.0047305822 0.027798917 0.04766382 0.059328567 0.051665213 0.058871042 0.036808886
0.059287168 -0.009148564 -0.028085575 -0.055208057 -0.058529157 0.008386544 0.06951101 -0.019774592
0.027557435 -0.015455383 -0.021584162 0.05213161 0.007977588 0.03142702 -0.0042419094 -0.046433084
0.03122421 -0.0318297 -0.026950428 -0.055107273 0.0030054706 0.023160782 0.041199576 0.011491393
0.06002491 -0.064218655 0.006549912 0.013203996 0.008422171 0.020126259 -0.056249697 0.018285334
0.040552795 0.01791801 -0.012780156 -0.0013471843 -0.050421257 -0.07107787 0.022491839 -0.051269516

net2.0.bias f4 [256]
00000000: 6a4b 7dbd 0844 74bd 140a 533d 230c e8bc
00000010: 8b2d 42bd 44b4 d939 c1fd 693d 63b8 7abd
00000020: 04eb 973c 8a83 6a3c 4e46 54bd 6bdc 823d
00000030: a15e e43c 6e94 c1bb 057d 913c 27d1 ed3b
00000040: bcfc 683d 1d26 4b3d 0c60 633b ad68 e1bc
00000050: 9165 31bd 0fba 683d dc55 6d3d 4e7a 83bc
00000060: 0a39 50bc 645b ebbc 73e7 873d 133f 25bd
00000070: 0e7d af3b 8371 913d 0a3d 90bc 8b5a b23d
00000080: 491d 273d 164d 6abd 46dd debc f917 f23c
00000090: 4a2d 413d 5753 48bd d59f 343d 4f6c 87bd
000000a0: 493f 763c dcb0 7d3d 2723 513d 8e97 fdbc
000000b0: c83b 2bbc e397 59bd 6a80 c2bc a168 d9bc
000000c0: a830 603d 4a60 a6ba be91 313c 650a 05bd
000000d0: d036 083d 7758 f23c bc2e 433d 8b09 8e3d
000000e0: f1c5 35bd 1165 e2bb 7e67 8e38 1df5 853d
000000f0: 132c fd3b cea6 533d 7605 40bb 1826 c8bc
00000100: 418f 33bd a32c 66bd e6d8 6d3d 33da ec3c
00000110: 8dc9 4bbc aa46 603d d17f 783d a734 20bd
00000120: e5ab 8e3d c11f 63bd 0637 973d 0086 633d
00000130: 405b 1abc 97e0 e2bc 9894 9a3d 3962 f8bc
00000140: 7050 1dbd 0b3f 84bd 57b3 5a3d 5fb1 753d
00000150: 4888 62bd 3f35 a03c e30b 92bd 0232 eabc
00000160: 983e 06bd d19f 733d 8ae8 fbbb e8a3 893d
00000170: 2e34 08bd 0123 f6bb dfeb fe3c 5d51 c2bb
00000180: 954b 093c f855 84bd 855a bbbc 76a5 713d
00000190: 7328 203d 0e44 f8bc eb82 b03c d37c d63c
000001a0: 5551 273d cf86 a5bc dd10 0dbc 8e82 5ebd
000001b0: aa91 1b3d 1ce4 163d b5a9 08bd 5561 a83c
000001c0: 6e71 ebbc b54e 72bd 70dc 5abd 0591 083d
000001d0: 5382 e83c 8436 7abc 0b15 3dbd 6f3c 963c
000001e0: 5069 24bd a52e 7d3c 6c30 90bd 7e10 73bd
000001f0: 3c59 e33c bdc1 3f3d 0595 f5bc dc56 aeba
00000200: 1cb2 383d 2a5a 803d fc5d babc a559 bb3b
00000210: 1eda 123d 0e1e b63c db0f 8c3c ddc3 91bd
00000220: 65d4 a4bc 1ad2 873c 8e6e 4fbd 26b9 543d
00000230: 7389 c7bc b6b2 093c 38a1 64bd 3758 193d
00000240: cea1 f9bc e3fd 2ebd d156 4c3b ea94 79bd
00000250: ec0f de3c 154b 16bd dea7 8d3c 98e1 b9ba
00000260: 6e29 95ba 75ff 7a3d 8ade da3c 2c7a e0bc
00000270: 1d3c 373d e3dc 773d 1365 14bd 2504 6f3c
00000280: 6eff 3c3c e02a bd3c 513e 6e3d 0c28 773d
00000290: eecb 823b 8571 673d 7ee5 4d3d 9c97 663d
000002a0: 859d b9bc e961 fcbc 758b 263d dc46 66bc
000002b0: 00ee 8bbd 6e32 873c fb11 533c feac 6cbd
000002c0: 3b4d 4abd a1c2 19bd 0d06 aabc 2938 963b
000002d0: d2e5 143d 26ac a93d 6a9f a13c ed56 c2bc
000002e0: b30e 2ebc d777 863d 85d1 d83c 54ba 42bd
000002f0: eee2 d33b 0ce3 03ba 0c88 1e3d ee95 1abd
00000300: 0039 823d 489a 613d 1b50 133d e7ba 1c3c
00000310: e5b7 a9bc 6ab4 653d 8afb cf3c 43af 5d3d
00000320: 886b cb3c 6709 823d c5f4 21bd eccb b63c
00000330: b0b5 293d 171e 47bd 7a7d 82bd df96 e9bc
00000340: 9404 273d 8eb9 813c f317 ea3c fe0e 113c
00000350: f2d1 163c ac9d 6e3d 4490 e53b fec0 5a3d
00000360: 9a17 643d 0af4 7abd a62a 85bd 40e1 893d
00000370: b3f4 b23c 5bb7 89bd fedf 36bd 2327 3abd
00000380: 1d76 83bd 6560 8a3d b297 84bd 1cfd 4b3d
00000390: c3ca 5d3d ea80 5bbd ee92 1fbd 0f11 393c
000003a0: e300 67bd dec7 afbc 0820 2abd 2d27 48bb
000003b0: 7a91 7fbd 50a1 1cbd 46c0 8d3c 3948 7d3d
000003c0: 7b6a fabb fb92 bf3c 9c4e 69bd ea22 123d
000003d0: 5c8f 1cbc 7e56 cc3c 2eee 70bc 3904 2d3d
000003e0: 2bdf 163d dd0a 953d 81ae 4f3c 8e5b babc
000003f0: 9027 1d3d 3751 59bd b326 503d 7d5a 1f3d
-0.0618395 -0.059635192 0.051523283 -0.0283261 -0.047406714 0.00041523774 0.057126764 -0.061211
0.018544681 0.014313588 -0.05182486 0.06389698 0.027877154 -0.005907587 0.01775981 0.007257599
0.05688165 0.049596895 0.00346947 -0.027515734 -0.043309752 0.056818064 0.05794321 -0.01604953
-0.012708912 -0.028730102 0.06635942 -0.040343355 0.005355484 0.07101729 -0.01760723 0.08708676
0.040799413 -0.05720242 -0.02720512 0.029552447 0.04716233 -0.048907604 0.04409774 -0.06612455
0.015029737 0.061936244 0.051058915 -0.030956056 -0.010451265 -0.053123366 -0.023742873 -0.026539149
0.054733902 -0.0012693491 0.01083797 -0.032480616 0.0332554 0.029583199 0.04765199 0.06935414
-0.044378225 -0.0069090207 6.7903646e-05 0.06540892 0.0077262013 0.05167275 -0.002930013 -0.024432227
-0.04383779 -0.056194913 0.05806818 0.02891264 -0.01243819 0.05475489 0.06066877 -0.039112713
0.0696638 -0.055450205 0.07383542 0.055547714 -0.00942117 -0.027694983 0.07547873 -0.030320274
-0.03840679 -0.06457337 0.053393688 0.059983607 -0.05530575 0.01955664 -0.071311735 -0.028588299
-0.032774538 0.059478585 -0.007687633 0.06720716 -0.033252887 -0.007511497 0.031118331 -0.0059301094
0.008379837 -0.0646171 -0.022870312 0.058995686 0.039101075 -0.030305889 0.021546802 0.026182568
0.04084905 -0.020205883 -0.008609978 -0.054323725 0.037980713 0.036838636 -0.03336497 0.020554224
-0.02874061 -0.059157092 -0.05343288 0.033341426 0.028382456 -0.015271787 -0.046162646 0.018339364
-0.040139496 0.015453015 -0.07040486 -0.0593419 0.027752511 0.046815623 -0.029978285 -0.0013301033
0.045091733 0.062671974 -0.022749893 0.0057174736 0.035852544 0.022231128 0.017097404 -0.07117436
-0.020120809 0.016579676 -0.050642543 0.051934384 -0.024357533 0.008404424 -0.055817813 0.037437644
-0.030472662 -0.042722594 0.0031179676 -0.06093303 0.027107202 -0.036692698 0.01729196 -0.0014181612
-0.0011380145 0.06127878 0.026717443 -0.027402006 0.044735063 0.06051339 -0.036229204 0.0145883905
0.011535509 0.023091733 0.0581649 0.060340926 0.0039915955 0.056504745 0.05026769 0.05629693
-0.022658119 -0.030808406 0.04066034 -0.01405498 -0.06832504 0.016503539 0.012882705 -0.057782166
-0.04939006 -0.03753913 -0.020754838 0.0045843315 0.036351986 0.08284788 0.019729335 -0.02372309
-0.010623622 0.065658264 0.026467094 -0.047540978 0.006466261 -0.0005031086 0.038703963 -0.03774064
0.06358528 0.055078775 0.035965066 0.009566045 -0.02071757 0.05608026 0.025388498 0.05412222
0.024831548 0.063494496 -0.03954007 0.022314034 0.041433036 -0.04861268 -0.06371589 -0.028514324
0.04077585 0.01583555 0.028575873 0.008853672 0.009205328 0.058255836 0.007005723 0.053406708
0.05568657 -0.06126789 -0.06502275 0.06732416 0.021845197 -0.067244254 -0.04464721 -0.04544748
-0.06419013 0.06756667 -0.06474246 0.04980193 0.054148447 -0.05358974 -0.038958482 0.011295571
-0.05639733 -0.021457609 -0.041534454 -0.0030540929 -0.062394597 -0.038239777 0.017303597 0.061836455
-0.007642088 0.023385515 -0.056959733 0.035677828 -0.009555664 0.024943586 -0.014705224 0.042240355
0.036833923 0.07277463 0.012675882 -0.022748735 0.038367808 -0.053055968 0.050818156 0.038904656

net2.2.weight f4 [256, 256]
00000000: 7a95 2ebd 12e4 083d 8438 393d 20aa a33c
00000010: eee6 2ebd 4571 a93c 8821 a93c 144c 69bd
00000020: bfad 103d 92a9 1a3d 8af4 053d 1c84 2f3d
00000030: 0c72 833c 30ca dbbc 724c 1dbd 00ba c63c
00000040: 1574 25bd f9cf 983c f57d 89bc bce5 673b
00000050: 603b efbc c699 093d 0877 633d 3843 3c3d
00000060: 7668 28bd cc08 d43d 60ad 953b 6480 49bd
00000070: 4cf8 423d 76d9 243d 8463 9ebc 2ec9 aebd
00000080: 277f 403d cbab 7ebc 7cc8 18bd 3e7e 30bd
00000090: 38e0 7dbc 2c6f d3bc 682d 0a3d b21d 89bc
000000a0: 3521 bc3b 5e01 e5bc 378a 343d 5004 393d
000000b0: 05d3 fb3c a0f2 28bd 60fa 573d f859 d53c
000000c0: 8e0e 6abd bcd3 acbc 40e5 41bd 9d6c b33d
000000d0: 6535 49bd 4c2c 4bbb bda5 cd3d 281b 98bc
000000e0: 80c0 423d 8552 643d a5a3 4a3c 3a88 21bd
000000f0: 4c11 1a3d 0462 8cbc cb3e 1f3c 6f02 d1bc
00000100: 1d12 0e3e 56ac 553d 5dbb 193c fa01 f0b9
00000110: b461 de3d 4c71 833c cc3f bb3c a47c 3a3d
00000120: 839c 1fbd ac2c 78bd fdae 24bd 910c 783d
00000130: 185e 7b3c f32e de3c a86c 833c ae53 7b3d
00000140: 04d1 ce3c 8057 663d 407b ca3b 14bd 89bd
00000150: 5967 82bc 886f 883b 8ed8 30bd 5470 7dbd
00000160: 3aed 113d a441 8dbc 021c 503d d0d1 273d
00000170: 58f8 863c f0b6 8f3c e855 f4bc 0578 77bd
00000180: ec8c ad3c 1028 c03b 355e 8fbc 9b86 a7bc
00000190: c8c3 663c 7089 ae3b a9f7 36bd 5a27 c93c
000001a0: 3cb3 2f3d 8c4b 4d3d 312d 163c 0a26 57bd
000001b0: c461 b9bc 5c81 313d e2f5 1abd 0d38 e7bc
000001c0: 4001 b23b 9a94 7f3d 960c 45bd 58b8 35bd
000001d0: b0ee a03b e05e 543d 88bc 963d 08ae f03d
000001e0: f310 813c 0f31 d73c 2506 433d 701c fe3b
000001f0: c499 3cbd d94c 173b 5000 fbbb a8b4 763c
00000200: d8ca 903c 0089 c43c d85f 243c 54f5 a0bc
00000210: a4ee 1e3d 2016 21bc 34ff c5bc 88cf d8bc
00000220: c4eb 51bd 96d7 653d e6e3 663d dc8a 213d
00000230: 04f5 20bb de89 15bd a28c 613d 08cc 5abc
00000240: 8050 0a3a a7d4 30bd 7663 b73d 0640 693d
00000250: f548 523d 84cd efbc a7b1 753d 778c 74b8
00000260: fcbf 05bd ecf3 83bc f44b d13c 0b33 d63b
00000270: f0a9 143c 6b8e 00bd 421e 7dbb 8be8 a63d
00000280: 5050 a7bb b120 823d 0042 883b 6de4 9ebd
00000290: 102f ea3b 288b 453c bf83 8e3d 1485 7b3d
000002a0: 1c2c 91bc c7f4 53bd d13d 8f3b 1134 413d
000002b0: 04c7 9fbc b011 cb3b 154f 51bd f088 af3c
000002c0: a507 193c 59ba 593d 1480 473d 8855 83bd
000002d0: a845 bcbc 1296 a73c a195 9d3d 346c 8dbb
000002e0: 4752 dabc b4a3 8dbc 1010 1a3c 21c0 78ba
000002f0: 7a7a 1f3d 3d9c 1e3e f0e8 d4bb b88d 073d
00000300: 385e 553d 9876 603c 205a 323d 1e62 8c3c
00000310: 2661 23bd 7111 b63c 9b77 82bc 3d89 f53d
00000320: 96d1 0f3d 349e 2c3d de75 173d 8cf2 8a3d
00000330: 614e ca3c 879e 963d bd23 993d 3102 76ba
00000340: 0958 7e3c ae39 1cbd a266 1c3d 82f5 093d
00000350: 8793 c63d 0045 39bc 8d40 50bd f88e 4d3d
00000360: 06b4 7f3d 2036 363d a33e 883d 3bed 0e3d
00000370: 10ba 21bd 1c0e f03c 5c50 b03c 0051 bcb9
00000380: 18ff d73c 79a9 183d 567f 263d 12f2 5f3d
00000390: e2a6 503d 0247 06bd f254 79bd e7bd 0b3d
000003a0: 3e20 2e3d 5f89 c83c 1e5b fb3d 363a ffbc
000003b0: 7e33 30bd 905d 643d 0d24 673c b004 ef3c
000003c0: 6407 1abc fddf 3b3d c014 9b3a 2072 f23c
000003d0: 0c83 42bd d73c 3f3d f870 45bc 36e7 75bd
000003e0: 8778 e93c f090 383d 2e0f 4a3d 30d7 863b
000003f0: 6cef 5cbd 5ae0 383d 14f1 553c 07dc 17bc
-0.04262302 0.03342063 0.045219913 0.019978583 -0.0427007 0.020683894 0.020645872 -0.05695732
0.035321947 0.03775937 0.032703914 0.0428506 0.016045593 -0.026829809 -0.038402982 0.024258614
-0.040393908 0.018653857 -0.016783694 0.0035384735 -0.029203117 0.033593915 0.05553344 0.045962542
-0.041115247 0.1035324 0.004567787 -0.04919471 0.047600076 0.04024645 -0.019334562 -0.08534466
0.046996262 -0.015543888 -0.03730057 -0.043089144 -0.015495352 -0.025809847 0.03373471 -0.016737793
0.0057412633 -0.027954753 0.044077124 0.04517013 0.03074027 -0.04124701 0.05272901 0.026043877
-0.057142787 -0.021097057 -0.04733777 0.08760951 -0.049123187 -0.0031001745 0.10041378 -0.018567637
0.047546864 0.05574276 0.012368117 -0.039436556 0.03761415 -0.017136581 0.009719561 -0.025513856
0.13874097 0.052166305 0.00938305 -0.0004577784 0.10858479 0.016045235 0.02285757 0.045529023
-0.03896762 -0.060589477 -0.040205944 0.06055886 0.015342258 0.027121997 0.016043022 0.0613591
0.02524615 0.05623579 0.0061792433 -0.06725517 -0.01591842 0.004163686 -0.043175273 -0.061874703
0.035626628 -0.017243214 0.05080796 0.040971577 0.016475841 0.017543286 -0.02982612 -0.060417194
0.02118536 0.005864151 -0.017500976 -0.020449927 0.014084764 0.0053264424 -0.04466978 0.024554897
0.04289554 0.050120875 0.009166048 -0.05252651 -0.022629626 0.043336257 -0.03783215 -0.02822497
0.005432278 0.062397577 -0.048107706 -0.044365257 0.0049112663 0.051848292 0.07360178 0.11751944
0.015755152 0.02626851 0.04761328 0.007754855 -0.04604508 0.0023086576 -0.0076599494 0.01505772
0.017674848 0.023991108 0.010032617 -0.019648232 0.038801804 -0.009831935 -0.024169542 -0.026466146
-0.051250234 0.056113802 0.056369685 0.039439067 -0.0024560103 -0.036508434 0.05506576 -0.013354309
0.00052762777 -0.04317155 0.089545175 0.056945823 0.05133911 -0.029272802 0.059983876 -5.830495e-05
-0.032653794 -0.016107522 0.025548913 0.0065368465 0.009073719 -0.03138582 -0.0038622771 0.08149823
-0.0051060095 0.06353892 0.0041582584 -0.077584125 0.0071467236 0.012057103 0.06958722 0.06140621
-0.017721228 -0.05174711 0.0043713828 0.047168795 -0.019504078 0.006197177 -0.05110081 0.021427602
0.0093402015 0.05315623 0.04870613 -0.06412798 -0.022982433 0.020457301 0.07694555 -0.0043158773
-0.026650561 -0.017289974 0.009403244 -0.00094890787 0.038935162 0.15489288 -0.006497495 0.033094138
0.052091807 0.01370015 0.04354298 0.01713663 -0.03988757 0.022225114 -0.015926173 0.11989067
0.035111986 0.04214306 0.03697764 0.067845434 0.024695577 0.073544554 0.0747752 -0.0009384482
0.015523919 -0.038140945 0.038183816 0.0336814 0.09696107 -0.011307955 -0.05084281 0.050185174
0.062427543 0.04448521 0.06652572 0.03489421 -0.039484084 0.029303603 0.021522693 -0.00035918504
0.026366755 0.037270997 0.04064878 0.054674216 0.0509404 -0.032782562 -0.060872026 0.034116652
0.042511217 0.024479566 0.122732386 -0.031155687 -0.043017857 0.05575329 0.014107716 0.02917704
-0.009401176 0.04586791 0.0011831746 0.029595435 -0.047488257 0.04668888 -0.01205086 -0.060034953
0.028499855 0.0450601 0.049330883 0.004115008 -0.053939268 0.045135833 0.013057966 -0.009268767

net2.2.bias f4 [256]
00000000: be0d 503c fe2f cf3c 73cc 05bd 667a be3c
00000010: 6ae2 f5bc 8646 2c3d a728 823d 7087 fbbb
00000020: bff8 b5bb 5c55 acbc f6b8 2d3d 4ce5 e03c
00000030: f2a3 23bd 3a08 3dbd ab10 4c3d 3c0a 11bd
00000040: 1de8 e9bc 246b 3c3d 503e 38bd a209 3ebd
00000050: 9b35 463d 8af4 17bd 98a7 5abd c273 493d
00000060: 5815 31bd eeab 963b ee5d 8a3d a99f 9b3c
00000070: 878f 97bc 240b 593d 0fed 0d3c 0c7d cf3c
00000080: c17a 093d 746b c1bc a77e b53c 8738 fa3b
00000090: b911 653c 9432 73bd 0a60 48bd 2fd9 6e3d
000000a0: d9ff 443d 4e1e 3cbd d928 75ba 9690 3bbd
000000b0: 4f40 8b3d 13a3 413d 9864 2cbd c291 283d
000000c0: 0c09 45bd 43e0 bfbb e334 fdbb 9656 30bd
000000d0: fef6 383d 4543 563c bf97 0b3d 5659 8d3d
000000e0: 3b85 5ebd 9455 c03a 8f88 993d eba6 9f3c
000000f0: 3561 1a3c a520 193d 8a21 193d 2e1d ba3a
00000100: c0ac eebc b995 a7bc 74db b8bc 16cc 9c3c
00000110: 1c5f 883d f06d 663d ad00 f5bb b4e6 d4bc
00000120: abb2 3ebd bd8e 56bd 713f 333d 60e7 69bd
00000130: ac21 0dbd 7111 0dbc 9db2 303d 9721 bb3c
00000140: 124a 353d 28cd 3e3c a019 c7bb 3847 1fbd
00000150: 34bd 273d d99f 623b 3071 8abc 644c 91bc
00000160: 623a 7c3d 87b9 be3c 6273 63bc 6424 1a3d
00000170: dc7c febc f0dd 393d a0e5 633b ef9d 4d3d
00000180: f5ee a8bc 1196 7a3d d7c5 30bd 5094 65bc
00000190: 21f3 7d3c ee4c 113d c610 513d 8181 64bd
000001a0: 0026 853d 7067 05bd 4f40 643c 7b02 303d
000001b0: 14b9 aebc 4738 14bd 56be e93c 7cf0 2c3d
000001c0: ef06 12bb c7ba 9f3c b9a3 6bbc acfb 0c3d
000001d0: 1344 883d 2c8b d13c 619b fabc 7d73 6e3d
000001e0: 4c79 143d ca63 d63c 72e7 a53b 4703 3e3c
000001f0: ea5e 053d 8e35 2cbd 008e b739 de3c d3bc
00000200: e7bf 7ebc 74b5 09bd a6b9 4b3d 630d 0f3d
00000210: 2605 3bbd b608 dfbc 4daf 4b3d 173e 05bb
00000220: 1815 39bc 9cbe b43c 8aa3 413d 146b 5bbc
00000230: 365a 03bd ae32 a43d be40 69bd 5a0c 45bd
00000240: acc2 5d3d 2509 5fbd 018b 19bc 0bbe 353d
00000250: 2f53 2ebd b406 8f3d 7445 c6bb 5cd7 38bd
00000260: 5e56 083d f7a8 35bd 6dd7 55bc 4566 d73b
00000270: 4df9 283d 1c3d 2038 ae61 613d ebdc 883d
00000280: 3379 38bd 98d6 913c d25f 2d3c 561c 07bd
00000290: ad38 433d 53a8 bd3c 8151 803d 0210 0cbd
000002a0: f5c2 34bd 1648 7b3c 9a10 163d eeea 7abd
000002b0: 4cfc 093d e159 833c a26d 2b3d 94e3 64bd
000002c0: e679 0c3d c952 503d cc7f 5dbd 10fd 1e3d
000002d0: 212e 22bd 9dde a73c 8eaf c1bc 80c2 b2bc
000002e0: c7a9 29bd c0bb 02bd d879 223d a421 a4bc
000002f0: 88a2 6abd 302d 6abc 8688 62bd d31c 22bd
00000300: c099 6d3c 08a6 803c 7c62 69bd aeea 9b3b
00000310: 9c99 773c b9b9 00bd 5109 adbc 3029 4abd
00000320: 95b3 d939 c719 e33b 8c52 f9bc 6c42 1dbd
00000330: 75d0 d5bc 966d 29bc 8816 873c 1945 23bd
00000340: cb28 0abd 3759 1ebc cd4b 603d 48ba 39bd
00000350: dade 073d e4d0 af3c 0877 c43a 0c3a e0bc
00000360: 714c d3bc a4f9 3dbd 8835 663d 792f c83b
00000370: ca64 883c a044 96bc ce93 5bbd 80e5 4ebd
00000380: 4569 47bd 303b 9bbc 48a4 5a3c 9e23 893d
00000390: e2f5 4dbd 28e4 623d 4f00 1c3d a4a5 43bc
000003a0: 2011 b33c 7091 51bc ce0d 033d dc14 56bd
000003b0: 441d 5d3d 59c1 5d3d 6629 643d e183 6cbc
000003c0: bc40 3b3d 48b4 39bd 77eb cebb 5e4c 35bd
000003d0: 8127 23bd 1717 da3b 21f9 63bc 76b2 573d
000003e0: 0d8e 2ebd d0ea b1bc cc26 423c 300b 50bc
000003f0: 09e7 d73c f1d0 703c ba4c 053d 2f0e e8bb
0.012698589 0.02529144 -0.03266568 0.023251723 -0.03001519 0.042059444 0.0635541 -0.0076760575
-0.0055533345 -0.021036796 0.04241272 0.027453087 -0.039951272 -0.046150424 0.049820583 -0.03541015
-0.028553063 0.046000615 -0.0449813 -0.046395905 0.048390966 -0.037098445 -0.053382486 0.04918266
-0.043233246 0.0045981323 0.06756197 0.01899703 -0.018501056 0.05298914 0.008662476 0.025328182
0.033564333 -0.023610808 0.02215512 0.007636133 0.013981276 -0.059374407 -0.048919715 0.05831259
0.048095558 -0.04592734 -0.0009352095 -0.045792185 0.06799375 0.04727466 -0.04208812 0.04115463
-0.04810433 -0.0058555915 -0.007727252 -0.043051325 0.045157425 0.013077562 0.034080263 0.06901805
-0.054326277 0.0014673942 0.074967496 0.019488772 0.00942259 0.037384648 0.0373855 0.001419937
-0.029135108 -0.020457136 -0.02256558 0.019140285 0.06658766 0.05625719 -0.007476887 -0.025988914
-0.04655711 -0.05238222 0.043761674 -0.057105422 -0.03445594 -0.008610115 0.04313909 0.022843165
0.044260092 0.011645593 -0.006076053 -0.03888628 0.040951923 0.003458014 -0.016899675 -0.017736621
0.061579116 0.023281826 -0.01388249 0.03763236 -0.031065397 0.04537767 0.0034774318 0.050199445
-0.020621756 0.06117827 -0.043157425 -0.014012411 0.015499861 0.035473756 0.051041387 -0.055787567
0.065013885 -0.03256935 0.013931348 0.042971116 -0.021328487 -0.036186483 0.028533142 0.04222153
-0.0022281965 0.019498242 -0.014382296 0.0344197 0.06653609 0.025579058 -0.030591669 0.058215607
0.03624849 0.02617063 0.005062991 0.011597461 0.03256122 -0.04204326 0.00035010278 -0.02578586
-0.015548683 -0.033620313 0.049737595 0.034924876 -0.045659207 -0.027225833 0.049727727 -0.0020331198
-0.011296533 0.022063546 0.047275104 -0.013392229 -0.032068454 0.08017479 -0.05694651 -0.048107482
0.05414073 -0.05445208 -0.00937152 0.044370692 -0.0425598 0.069837004 -0.00605076 -0.045127258
0.03328549 -0.04435059 -0.01305185 0.006573471 0.041253377 3.8203885e-05 0.055024795 0.06682762
-0.04503746 0.017802522 0.010581927 -0.032986008 0.047661472 0.023151552 0.06265546 -0.034194954
-0.044131238 0.015337011 0.036636926 -0.061259203 0.033687875 0.016034069 0.0418526 -0.055881098
0.03429594 0.0508602 -0.054076955 0.038815558 -0.039594773 0.020491892 -0.023643281 -0.02182126
-0.041421678 -0.031917334 0.03966698 -0.020035572 -0.057283908 -0.014293 -0.05530598 -0.03957827
0.014501989 0.01570417 -0.056978688 0.0047582006 0.015112307 -0.03142712 -0.021122606 -0.049355686
0.00041523264 0.006930563 -0.03043487 -0.038393423 -0.026100377 -0.010341069 0.016490236 -0.03986082
-0.03373031 -0.009664825 0.05475979 -0.045343667 0.033171512 0.021461911 0.0014989087 -0.027371429
-0.025793286 -0.046380654 0.056203395 0.006109175 0.016649622 -0.01834327 -0.053607754 -0.050511837
-0.048684377 -0.018949121 0.013344832 0.066962466 -0.05028332 0.055393368 0.03808623 -0.011941347
0.021858752 -0.012791023 0.031995587 -0.052265987 0.053982988 0.05413947 0.055703543 -0.014435739
0.045716032 -0.045337945 -0.0063146907 -0.044262283 -0.039832596 0.0066555846 -0.013914377 0.052660428
-0.04261594 -0.021718413 0.01185007 -0.01269798 0.026355283 0.014698253 0.032543875 -0.007081769

net2.4.weight f4 [256, 256]
00000000: a1e1 613d 3196 d1bc 8562 f2bc fff0 163d
00000010: 7d8f 2bbd 101b 8fbb be6e 943c d6d7 42bd
00000020: e53d 453d 477e b8bd 67dd 0d3d bc76 613d
00000030: 982d 80bc 69e3 6e3c 7f4c 52bd c79b 393d
00000040: d3bd 7e3d a822 4bbd 98c1 1cbc e0f4 473c
00000050: 6bc8 763c a806 51bc f2d2 31bd 0f36 703d
00000060: 0666 a83d 5e0c 153d b3f9 403d 8fa3 0b3d
00000070: 5dee 4c3d 294f 483c 5dd7 74bd 90c1 f53c
00000080: fa3d 83bc c030 033b b67e 3abd 1cf8 13bc
00000090: 9b6e 9c3d 0080 35b8 c969 c8bc 6260 943d
000000a0: 6228 813d d4b8 d83c ea82 903d 4256 1c3d
000000b0: c9c6 2abd f92c d33d c927 453c 3e43 103d
000000c0: 4269 493c 6ee9 0fbc c32e 313d 160f 233d
000000d0: d84f f4bc 1c0a 58bd b8c4 503c 6dbf 393d
000000e0: 9f5f b93c bc27 a63d 8e74 38bd 3f65 1f3d
000000f0: 05da da3d 6b82 643d 0e55 8bbc 03ad bc3d
00000100: 3842 90bc 419c 423d 1b63 49bd 9f32 923d
00000110: 9a80 463d 78f5 e7bc 1e17 e93b 006e e639
00000120: f603 f0bc 3097 303d f37d f3bc a05f 42bd
00000130: 8756 97bd 3c23 8abc 0675 c63a 67bf 94bc
00000140: 929c 063d 7208 c63d 5838 9f3d a527 943d
00000150: 848e 1b3d def3 533d e404 cebc 001a 263c
00000160: 6e4b 0dbd 5e68 93bd ef83 73bc acc6 f4bc
00000170: 183e 423d 83ca 05bd 3422 70bd edcc 513d
00000180: 3d03 a13c c7ae d43d 45a3 913d 7c3c d43c
00000190: e788 c1bd c814 6a3d 49e0 343c a5b7 a83d
000001a0: cf86 b2bc 6f67 68bb 3d5a f6bc b847 b23d
000001b0: c65d 323d 6cc4 82bc d57c e6bc e2de ba3d
000001c0: 2eb2 ab3d a965 3abc 9196 303d e52c 20bc
000001d0: d802 623d 6e40 523d 9f81 48bc 3640 6abc
000001e0: 1c8f 57bd 540d ed3d d9ed 71bc b595 183d
000001f0: e052 89bb 9c05 c43d 689c b3bc f15e 30ba
00000200: a284 8fbb b08e 78bc 1f3a b23c 6f31 b83c
00000210: 7023 f13c 1b71 79bd 9a44 313c a268 02be
00000220: bcfc b8bc 342c 323d 5cf3 463d 841a b83d
00000230: 30f9 f9bc 700d 0e3d 7434 c2bc 0405 92bc
00000240: d4bc 02bd f80e 4f3c 83fc 6a3d 04c3 513d
00000250: 20c6 35bc 511e 103a 65ad a8bd 4052 7ebd
00000260: 0259 893c 61c6 a93d 18e2 0a3d 99e5 ac3d
00000270: fca5 c73b 7f46 743d d8d3 5bba dd56 05bd
00000280: a87a bd3d 5c76 60bd 3dac 303d b17d 3c3d
00000290: 824f 08bd dd6a 383d 7f6a ac3c 6418 b33c
000002a0: 183d 563c 127a cf3c 1e95 00bb da47 8bbb
000002b0: d44d 543d dc2a 40bd 5495 683d f464 953c
000002c0: b777 d73c 638a 4bbd 6028 803c 2198 11bc
000002d0: f9c9 7dbd aa65 633d 7305 943c c2af 2d3d
000002e0: f93b ad3d 79c0 1c3d e911 d23d 9acd 37bd
000002f0: 5a0d 203d 5040 693d 0133 d93b 8a0a feba
00000300: aa93 22bd b031 07bd b6fe 31bd 4ddb 4bbd
00000310: d628 aa3c 689d cc3d cab3 483d 05ea 233d
00000320: 0a90 1d3d 6eae 0e3e c197 a13b a1d8 6cbd
00000330: 0dd8 a33b c6e4 4c3d 704f 6b3c 4d8a e73c
00000340: 7bad 913c cc6b 293d 1021 8f3c fa5c d4bc
00000350: f63a 10bd c195 973d 716b f03c 143c 8f3c
00000360: 7289 0d3d 8011 68bb b432 06bc cc86 be3c
00000370: 6899 1cbd b0b7 6fbc 181a e9bc feef 74bd
00000380: 22aa 293d 260e c5bc 5009 4abc c2f6 4b3d
00000390: a8fa 5f3c b95d 653d 3411 123d 0a36 4d3d
000003a0: 7890 63bd e5f6 2dbd 5e37 12bd 2841 a2bc
000003b0: e052 21bd 6c9b 003d f40e 69bd 4728 4b3d
000003c0: d814 0bbd f49e b6bc b577 253d 38a5 76bd
000003d0: 1dcc 893c e498 f73c 4f96 1b3d bb13 963c
000003e0: 1664 353d 0e6a ec3c 5fa1 17bd 0ac4 373d
000003f0: 7cc3 cbbd 2c55 88bc 8a02 73bd 7ae8 c73d
0.055146817 -0.025584312 -0.029587993 0.036850926 -0.041884888 -0.00436724 0.018119212 -0.04756912
0.04815473 -0.090084605 0.034634974 0.055044875 -0.01564674 0.014580586 -0.051342484 0.045314576
0.06219275 -0.049593598 -0.009567641 0.012204379 0.015062432 -0.012757935 -0.043414064 0.058645304
0.082225844 0.036388747 0.04711313 0.03409153 0.05003201 0.0122259045 -0.0597757 0.029999524
-0.016020764 0.002001807 -0.045530997 -0.009031322 0.07638284 -4.3272972e-05 -0.024464505 0.07244946
0.063065305 0.02645532 0.0705622 0.0381682 -0.041693483 0.10311312 0.012033411 0.035220377
0.012293162 -0.008783681 0.043257486 0.03980931 -0.029823229 -0.052744016 0.012742214 0.045348573
0.022628604 0.081130475 -0.04503303 0.038914915 0.10686115 0.05578844 -0.01700833 0.09212687
-0.0176097 0.047512297 -0.04916678 0.071385615 0.048462488 -0.02831529 0.0071133515 0.00043950975
-0.029298764 0.043112934 -0.029723143 -0.047454476 -0.07389551 -0.016862504 0.0015141077 -0.018157674
0.03286416 0.096695796 0.077744186 0.07234124 0.03797771 0.05174624 -0.025148816 0.010138035
-0.034495763 -0.07197641 -0.014862998 -0.02987989 0.0474225 -0.032663833 -0.05862637 0.051220823
0.019654864 0.10384899 0.07111219 0.025907747 -0.0944994 0.057148725 0.011039802 0.082381524
-0.021792797 -0.0035462042 -0.030072326 0.087050855 0.04354646 -0.015962802 -0.028135696 0.09124543
0.083835945 -0.011376777 0.04311234 -0.009776329 0.055178493 0.051330976 -0.012237935 -0.014297536
-0.052626714 0.11574808 -0.01476618 0.037252147 -0.0041907877 0.095713824 -0.021925166 -0.00067280146
-0.0043798247 -0.015170738 0.02175623 0.02248451 0.029435843 -0.06089888 0.010819579 -0.12735227
-0.02258145 0.043499187 0.04857193 0.089894325 -0.03051433 0.034680784 -0.023706652 -0.017824657
-0.03191836 0.012637846 0.05736972 0.051211372 -0.0110946 0.00054976816 -0.082361974 -0.06209016
0.016766075 0.08289791 0.033907026 0.0844223 0.006092785 0.059637543 -0.0008385754 -0.032553542
0.092519104 -0.054800376 0.04313301 0.046018306 -0.03327895 0.045023788 0.021046875 0.021862216
0.013076089 0.025326762 -0.001962013 -0.0042505087 0.051832035 -0.046915874 0.056783035 0.018236615
0.026302202 -0.049692523 0.015644252 -0.008886368 -0.061960194 0.055516876 0.018069005 0.042403944
0.084587045 0.038269494 0.10257322 -0.04487381 0.039075233 0.0569461 0.0066283946 -0.0019381803
-0.039691605 -0.03300637 -0.043455802 -0.04976969 0.020771425 0.0999096 0.048999585 0.0400181
0.038467444 0.13933727 0.0049314206 -0.05782378 0.0050001205 0.050022863 0.014362201 0.02826419
0.017782917 0.04136257 0.01747182 -0.02592324 -0.03521248 0.0740161 0.029348107 0.017484702
0.034554906 -0.0035410821 -0.0081907995 0.023257636 -0.038232237 -0.014631197 -0.028454825 -0.059799187
0.041422017 -0.024054598 -0.012331322 0.049795873 0.013670601 0.055997584 0.035660937 0.050100364
-0.055557698 -0.042471785 -0.035697334 -0.01980646 -0.039385676 0.03139822 -0.056899026 0.04959896
-0.033955425 -0.022292592 0.040397365 -0.06021616 0.016820962 0.030224271 0.037985142 0.018319955
0.044284903 0.028859165 -0.03701913 0.04486469 -0.09949395 -0.016642176 -0.059328593 0.09761138

net2.4.bias f4 [256]
00000000: ddee 8c3c 7477 adbc 3567 253d 961d 883d
00000010: 982b 1abc 7d8f 90bc c6a3 85bc 148a 8dbc
00000020: 9ebf 043c 036c e13a ff67 7b3a 94a2 f13c
00000030: c682 283d c8d0 4e3d 3c5b f3bc cac0 883d
00000040: 1279 4f3d c564 813c 9874 113d f9e1 193d
00000050: 3a77 2cbd 68d0 953c cb81 113d 90b5 aabc
00000060: 6026 e7bc e29a 56bd 0197 21bc d40d 273d
00000070: 73b3 a1bc 23de 903c 6a7a b1bc 98ce 713d
00000080: e366 00bc 92b2 41bd e4db 67bd f8a2 48bc
00000090: efcb 153d 78ce 903c d404 f6bc 657d f73c
000000a0: 1c54 82bc 36b6 953c de55 063d c2b0 503d
000000b0: ce89 6cbd 6e9e 273d 8d0c 563d b2fe 13bd
000000c0: 1e56 49bd 28e2 6c3d 3f8d 2fbd c9ed 203d
000000d0: 11f9 5e3c bab3 633d e261 2cbd 565c 693d
000000e0: aa41 31bb e854 ea3c 314d 283c e243 023d
000000f0: b633 bbbc 409d a93b d938 163d fa54 1a3c
00000100: 6d3e 55bd 505a 64bd c245 1dbd be94 64bb
00000110: 9b1d 873c b4d7 7abc b835 2c3d e08a 043c
00000120: 20ca 4abd 447e 593d 749d 643d a05c 693c
00000130: 08e8 a1bc 8105 573d c770 28bd ebff 173d
00000140: 3f7d 003d 337f 083d fa46 503c cdf1 dbbc
00000150: 7710 843c 6c31 4ebd 9d80 a53c fcaa 5ebd
00000160: 4ac1 09bd e2a8 c83c 61a1 c6bc af9d 94bc
00000170: 8e8f 713d 5559 24bc 4baf e03c 8858 4b3d
00000180: 2ac9 0dbd 886e fdbc 56bb 9e3b 6b2b c23c
00000190: 185c cebc 0e75 74bd 3c9d 3abd 174e 723d
000001a0: 9dfd cb3c 382b af3c a4e6 89bc a4e2 12bd
000001b0: 7025 3c3d 07ef 553d d0ed 11bd a6be 283d
000001c0: 8e6d 5d3c 1587 623d 7252 5ebd 81fa 59bc
000001d0: 26d3 1f3d 0098 6f3b a81d db3c 914b 5e3d
000001e0: 8b76 843d eb45 823d 3028 41bd db7d 6ebb
000001f0: f911 993d d1a0 3e3c 3cef 54bd a464 fdbc
00000200: 77e4 323d 0481 07bc f0f7 77bc 80f8 8ebc
00000210: f646 1cbd 370a 81bc c5e0 623d c7e6 2abd
00000220: f131 0d3d b440 77bc 8e46 9d3c a626 f8bc
00000230: 7080 483d 3aca 29bd 7016 a8bb 7774 c03c
00000240: 76b2 67bd 6078 debb 92ea 163c c45b d93c
00000250: e31c afbc 5790 643d cf8c 6c3c c303 253c
00000260: 2cff 15bd 7986 263d cd03 923c e5b9 10bd
00000270: caa0 7bbd 2a9d 643c 11ab 30bc 1ce1 e6bc
00000280: 1c87 573d c5d7 85bc 2662 253b f0c4 2b3d
00000290: 5188 023d 917c cebb e6ed f03c 4868 733d
000002a0: 6529 a93c ccf8 f1bc 4218 953c dd47 643d
000002b0: 19fa 163d cc7f 193d 9030 96bc 82f1 4d3c
000002c0: 16dd 3bbd 6368 6f3b d6d2 223d 09ad fb3c
000002d0: 3071 803c 695e f83c 7281 973d 3900 e2bc
000002e0: 34cf ddbc 7e41 463d c00b 303c ed4a 85bd
000002f0: b3c0 143d e0a5 cfbc 828e cf3c a4a0 b13c
00000300: aa7a dc3c 130a 2a3d 3b63 003d a1dc d33c
00000310: 5313 d3bb 1f9e 62bd 1198 3fbd 90b6 1ebd
00000320: 55d0 283c dc2e c9bc 4f0e 52bc 064b 943c
00000330: b262 70bd 5441 94bc 0119 a6bc 285b 0e3d
00000340: 23e3 673d c287 0cbd 7733 bdbb 5815 163d
00000350: 78f0 4ebd f887 55bd 3903 323d fa8f 31bc
00000360: 1da7 10bd 48ed 6cbd b8c2 07bc 4f8f 5c3d
00000370: 92a1 5f3c d5e0 113d b6da 2f3d d739 56bc
00000380: a82f 70bc 40c2 ce3b 0ccd 05bd 8c12 48bd
00000390: d48b f83c f236 db3c f746 133d 0a1b 72bd
000003a0: 990d 82bc c021 17bd 294e 303d a3c4 d7bc
000003b0: c2de d5bc 63a8 133c 55f5 c1ba 8634 81bc
000003c0: 0091 fc3b 92ac f23b 9488 103d 9d08 073d
000003d0: b429 573d b5cb f73c 7c42 8d39 c4ad 01bd
000003e0: 9cc5 eb3c 6629 74bd 3c9a 4cbd 9c5d 243d
000003f0: 0167 453d 1b4a df3c 3f49 cdbc 13e1 08bd
0.017203743 -0.021175124 0.04038163 0.06646268 -0.009409808 -0.017646546 -0.016313445 -0.017277755
0.008102326 0.0017198328 0.0009590387 0.029496469 0.04114034 0.050492078 -0.02970659 0.066773966
0.05065257 0.015795121 0.035511583 0.03756902 -0.04210589 0.018287852 0.03552417 -0.020838529
-0.02821654 -0.0523938 -0.009862662 0.040784672 -0.019738888 0.017684048 -0.021664817 0.059034914
-0.00783703 -0.04728944 -0.05660619 -0.012245886 0.03657144 0.017676577 -0.0300316 0.03021116
-0.015909247 0.018275362 0.032796733 0.05094982 -0.05774861 0.040922575 0.052258063 -0.03613157
-0.049154393 0.057832867 -0.042859312 0.03928927 0.013609187 0.055591322 -0.042085536 0.056972824
-0.0027047195 0.02860494 0.01027231 0.03180302 -0.022851806 0.0051762164 0.036675308 0.009419674
-0.052061487 -0.05575019 -0.038396604 -0.0034878696 0.01649361 -0.015310217 0.042043418 0.008089751
-0.049509168 0.053098932 0.05581422 0.014243275 -0.019763961 0.052495483 -0.041123178 0.037109297
0.031369444 0.03332443 0.012712235 -0.026848698 0.016121132 -0.0503401 0.02020293 -0.054362282
-0.0336316 0.024494592 -0.024246873 -0.018141596 0.058974795 -0.010031064 0.027427336 0.049644977
-0.034615673 -0.030936494 0.0048441095 0.023702344 -0.025190398 -0.059681945 -0.045560107 0.059156504
0.024901206 0.021382913 -0.01683361 -0.035860673 0.04593414 0.052229907 -0.035627186 0.04119744
0.013514889 0.055304606 -0.054277845 -0.013304354 0.039019726 0.0036559105 0.02674754 0.054271284
0.06467923 0.06360992 -0.047157466 -0.0036390934 0.07474131 0.011635021 -0.051985964 -0.030931778
0.043674912 -0.008270506 -0.0151347965 -0.017452478 -0.03815361 -0.015751941 0.05539014 -0.041723993
0.034471456 -0.01509111 0.019198682 -0.030291867 0.048950613 -0.041452624 -0.005129628 0.023493035
-0.056566678 -0.006789252 0.009211199 0.026533015 -0.021376079 0.055801716 0.014437868 0.010071698
-0.036620304 0.040655587 0.017824078 -0.035333533 -0.061432637 0.013953486 -0.010782973 -0.028183512
0.052619085 -0.016338238 0.0025235503 0.04193586 0.031868283 -0.0063014706 0.029410314 0.059425622
0.020649621 -0.02953758 0.018200044 0.055732597 0.036859605 0.037475392 -0.018333703 0.012569787
-0.04586514 0.0036530725 0.03975185 0.030722158 0.015678972 0.030318456 0.073977366 -0.027587997
-0.027076341 0.048402302 0.010744989 -0.065084316 0.036316585 -0.02534765 0.025336508 0.021683045
0.02691396 0.041513514 0.031344634 0.02586204 -0.0064415126 -0.055326577 -0.04677588 -0.038748324
0.0103035765 -0.024558477 -0.012820794 0.01810218 -0.058687873 -0.018097557 -0.020275595 0.034754902
0.0566131 -0.034309156 -0.0057739574 0.03664145 -0.050522298 -0.052131623 0.043460105 -0.010837549
-0.03531562 -0.057843477 -0.008286171 0.053847607 0.013649361 0.035614807 0.04293319 -0.0130753135
-0.0146598 0.0063097775 -0.03266625 -0.048845813 0.030340113 0.026759598 0.03595635 -0.059107818
-0.015875624 -0.03689742 0.04304329 -0.02633888 -0.026107196 0.0090123145 -0.0014797846 -0.015772115
0.007707715 0.007405826 0.0352865 0.0329672 0.052530006 0.030248502 0.0002694315 -0.031659856
0.02878075 -0.059609793 -0.049951777 0.040128335 0.048193935 0.027257016 -0.02505934 -0.033417773

net2.6.weight f4 [2, 256]
00000000: c3bd 4abd 7574 9b3d b9db 1d3d f422 88bd
00000010: 9429 e53c d695 b0bc 7cbf 2e3a 9ea7 16bd
00000020: ce6b 7abd 0667 9a3d 2659 ecbd f835 3fbd
00000030: 1564 aa3d a82a ddbc ba03 783d 9ba2 e43d
00000040: 8a58 573d 95dc 44bc 6880 5d3d 567c c8bc
00000050: e6c0 333b 7650 633c f1e7 f23c 2e34 473d
00000060: 1248 90bd feae abbd 6a1a a3bc 7d57 87bd
00000070: 2fa0 f4bd 2545 b2bd eb6a c8bc a86c 92bd
00000080: c881 8dbb 4919 b83d 45b0 cf3c cc0e 4a3d
00000090: e055 5c3d 4a50 43bd 5df2 d1bd 0082 d2bc
000000a0: 8a19 273d f142 b63d 14e4 62bd 0716 a13e
000000b0: 08f5 fe3c 8ede 3d3d 586b 92bd 7651 a83d
000000c0: e0d6 0c3d 1684 76bd 9c43 28bd 575b 5cbd
000000d0: 7c24 d7bc aa8f 49bd e650 c23c 90aa 403e
000000e0: b9df 07bd f1c7 ae3c 739f 4bbd 1cf1 563c
000000f0: 5ae0 0c3d 24d9 733d 8b4d ef3d eb2c 813d
00000100: 7a96 eebc 756e 913c d68e c8bc 0b14 f6bb
00000110: f391 56bd aca5 133e 248b df3d 6476 61bd
00000120: 90c9 c33b d73b 653d 19d5 b3bd 60a4 203d
00000130: 3535 37bd 20cb c2bc b165 a6bd 5c54 01bd
00000140: c175 5d3d af8a 86bc 1969 d5bd 82f5 e4bd
00000150: fb3f c33c 0bf1 723d bdbf f83d c4f2 74bd
00000160: 71b6 163d d487 95bd 3901 1a3d 2026 0a3d
00000170: 9cdc 273e 01d0 263d 1096 633d aa02 293d
00000180: e16e b03e 6014 a23c c103 6cbd 96fe b53d
00000190: 587a fbbc 88f0 5cbd 5cc0 3b3d eace 383d
000001a0: a33d 0abd 287d e9bc 246f 203d b93c 9b3d
000001b0: c8f7 c3bd 046f f0bd bcfb b6bd ec08 dd3d
000001c0: c435 73bd 655a 0f3d 201f 72bd 341a 983d
000001d0: 5dd4 dfbd c28a 283d 5820 6ebc 5ed9 5c3d
000001e0: 8862 66bd f8d2 cf3d 8d2b f63d 37be 08bd
000001f0: 66f2 123e a6f1 a2bd 9228 113d c3f4 123e
00000200: 6814 7dbd 565d 14bd 0cb7 1d3d f03b 073c
00000210: 601a 2ebc 5810 3fbd c899 ef3d c69c cc3c
00000220: fad1 38b8 3aed 64bd b38c febb 717f 9a3d
00000230: ccb7 8b3c 7345 cabd 5a1b 0e3c e749 ddbd
00000240: 6c59 1abd 1044 eb3c 3d71 a6bd 58d7 223c
00000250: db42 7e3e d16d 123d cc79 623c dfb6 db3d
00000260: 36f7 40bd 8a44 29bd 1365 e33d 26c3 c5bc
00000270: f631 11be 642f 80bd 9a8e 0a3e bc89 843c
00000280: 5c0f aebd 93af b3bd 580d 5c3d c7f0 7bbd
00000290: 0385 88bd 7bd7 debc 9342 e6bd 1642 f1bd
000002a0: a410 28bd 3639 06bd 4299 3fbd e1ef 633d
000002b0: f9d5 c63c 57be e8bc 31f1 2bbd 555b 3e3d
000002c0: e58e 273e 6b81 d33c 3a2f 6b3d 452d ae3c
000002d0: b8ae bcbc 1c51 0c3e c8ae 83bd f53e 283c
000002e0: c8e0 7bbd bce3 0d3d cc14 aebc 2ad8 cc3c
000002f0: 499b 9e3b 5463 133d 8f14 fb3d b730 c03d
00000300: f4b6 613d 132b 24bd ab65 48bd 4e0c 54bd
00000310: 7172 0d3e 3d64 023d 810b 1c3e c07c 70bc
00000320: 1d9c 603d 3c51 fe3d 8845 703c f87e fbbc
00000330: 12bd 513d 9439 76bd 8856 453e 0873 3cbd
00000340: c7a4 d53c 8af4 163d 34b7 7cbb bc89 acbd
00000350: 82cd b1bd a0b7 d3bd af74 143d 427b 443c
00000360: ff7e c53c f826 ad3c e21d 1abd 083c 5f3c
00000370: e745 75bd d55b 99bd 2f22 2c3d 3ef5 563d
00000380: de8f 203d 46c0 5dbd 3866 3fbd 38be c9bc
00000390: 34eb 4bbd b289 1f3e 8033 d9bd 34e2 f1bc
000003a0: cdec 84bd 1dc0 603d c57b 103e 34fd 663d
000003b0: 8e21 233c 5563 9cbc 9e8a cabd 13fb d6bd
000003c0: e648 3c3d f39f 70bd b98d c23d d427 bfbd
000003d0: 9a57 17bd 9bc8 42bd fb05 b9bd 48a9 42bd
000003e0: e01b 023e fe99 0c3d c047 1dbd 65cf 603d
000003f0: 28be 5dbd 4fe8 96bd 93ff 86bd 9bd7 673d
-0.049497377 0.07590572 0.038539622 -0.06647292 0.027973928 -0.021555822 0.00066661066 -0.036780946
-0.061137967 0.075391814 -0.11540441 -0.046682328 0.083198704 -0.02699788 0.06055043 0.11163827
0.05257467 -0.0120154815 0.054077536 -0.02447335 0.002742821 0.013874164 0.029651614 0.048633747
-0.07044996 -0.083829865 -0.019910056 -0.06608484 -0.11944615 -0.087045945 -0.024465045 -0.07149631
-0.0043184496 0.08989198 0.025352607 0.049330518 0.053792834 -0.04768399 -0.10251305 -0.025696754
0.04079584 0.08899487 -0.055393293 0.31462118 0.0311227 0.046354823 -0.071493804 0.082186624
0.03438461 -0.06018456 -0.041080102 -0.053798046 -0.026262514 -0.049209274 0.023720216 0.18815064
-0.033172343 0.021335574 -0.04971261 0.013119008 0.034393646 0.059533253 0.11684712 0.063073955
-0.029124487 0.017752865 -0.024482172 -0.0075097135 -0.05238528 0.14418668 0.10915211 -0.055044547
0.005974956 0.05596527 -0.087808795 0.03921926 -0.044728477 -0.023778498 -0.08124865 -0.031574592
0.054067377 -0.016423551 -0.104204364 -0.111796394 0.02383422 0.059311908 0.12145946 -0.05980183
0.036795083 -0.07301298 0.037598822 0.033727765 0.1639275 0.04072571 0.055563033 0.041262306
0.34459594 0.019785106 -0.057620768 0.08886449 -0.030697986 -0.053940326 0.045837745 0.045119204
-0.033750188 -0.028502062 0.039168492 0.07579941 -0.09568745 -0.117399246 -0.08934733 0.10792717
-0.059377447 0.034998316 -0.059111714 0.07426873 -0.10929177 0.041147955 -0.014534079 0.053918235
-0.05624631 0.10147661 0.120200254 -0.033384528 0.1435028 -0.07956247 0.03543908 0.14351182
-0.06178704 -0.036221825 0.038504645 0.008254036 -0.0106264055 -0.046646446 0.11699253 0.0249771
-4.4064574e-05 -0.0558903 -0.0077682375 0.07543839 0.017055415 -0.09876528 0.008673513 -0.108051114
-0.037682936 0.028718978 -0.08127067 0.009939037 0.24830191 0.03574926 0.013822984 0.10728239
-0.04711076 -0.04132513 0.11103263 -0.024140906 -0.14179215 -0.06259039 0.1353096 0.016178958
-0.08499023 -0.087737225 0.053723663 -0.06150892 -0.06665995 -0.027202358 -0.11243167 -0.11780183
-0.041031495 -0.032769404 -0.046777017 0.05564869 0.024271952 -0.028411074 -0.041978065 0.04647382
0.16363104 0.025818547 0.057418086 0.02126182 -0.023032531 0.13702816 -0.06429821 0.010268916
-0.061493665 0.034641013 -0.021250151 0.025005419 0.004840289 0.0359834 0.122597806 0.093842916
0.05510612 -0.04008014 -0.048925083 -0.051769547 0.13813187 0.031833876 0.15238763 -0.01467818
0.05483638 0.12417838 0.014665015 -0.030700192 0.051205702 -0.060113505 0.1927129 -0.04600814
0.026079549 0.036854304 -0.0038561346 -0.08424708 -0.08681776 -0.10337758 0.03624409 0.011992278
0.024108408 0.021136746 -0.037626155 0.013625152 -0.059881117 -0.07488219 0.042024788 0.052479975
0.039199702 -0.054138444 -0.046728343 -0.024626836 -0.049784854 0.1557987 -0.10605526 -0.029526807
-0.06490479 0.054870714 0.14109714 0.056393817 0.0099567305 -0.019090334 -0.098897204 -0.10497107
0.04596796 -0.05874629 0.09499688 -0.093337685 -0.036948778 -0.047554594 -0.09034344 -0.04752472
0.12705946 0.034326546 -0.038398504 0.054885287 -0.054136425 -0.07368528 -0.06591716 0.0566021

net2.6.bias f4 [2]
00000000: cf4e 803d c30a 713d
0.062650315 0.058848154
