training/save_ddpg_weights/DDPG_R1_cnn_network_s2.pt (torch, 2455 bytes, 5 tensors)

0.weight f4 [3, 1, 3, 3]
-0.12515703 0.1306372 0.22391453 0.0527158 0.05361477 0.28366655 0.23044345 0.24652527
0.2928515 0.19494824 0.169386 -0.3212132 -0.18940017 0.27895838 -0.3279553 0.033232253
-0.030257385 0.1564345 0.15036897 -0.1652118 -0.32379943 0.08258836 0.20272903 -0.032924693
0.17102775 -0.2630459 -0.21580955
00000000: 2a29 00be c2c5 053e da49 653e 86ec 573d
00000010: 299b 5b3d be3c 913e 5ef9 6b3e 1f71 7c3e
00000020: a2f0 953e 83a0 473e 8673 2d3e 0e76 a4be
00000030: 1ef2 41be a2d3 8e3e c2e9 a7be 8b1e 083d
00000040: 56de f7bc 5e30 203e 53fa 193e 482d 29be
00000050: 0ac9 a5be 1624 a93d 3398 4f3e 0bdc 06bd
00000060: e621 2f3e f4ad 86be 2efd 5cbe

0.bias f4 [3]
0.2023335 -0.22959146 -0.15773277
00000000: 8330 4f3e 061a 6bbe b384 21be

2.weight f4 [3, 3, 2, 2]
-0.09262018 -0.05348658 0.14448708 -0.28016496 0.20382197 0.17149535 0.14166507 0.08897005
0.097145766 -0.22772762 0.09365077 0.21896872 -0.22786853 0.13599251 0.28024033 0.25794134
0.14961304 -0.025666479 -0.25534883 -0.26370323 0.28232342 -0.1656361 0.15224884 -0.005525209
-0.0929429 -0.17708746 0.14652601 0.2805248 -0.16541035 -0.05800518 -0.281452 -0.268857
0.16619985 0.23091882 0.05106244 0.28688106
00000000: a6af bdbd be14 5bbd 6cf4 133e c871 8fbe
00000010: b5b6 503e 7a9c 2f3e a610 113e ee35 b63d
00000020: 5cf4 c63d 6e31 69be facb bf3d 5639 603e
00000030: 5e56 69be 9f41 0b3e a97b 8f3e e310 843e
00000040: 2934 193e 8242 d2bc 15bd 82be 1c04 87be
00000050: b28c 903e 839c 29be 1fe7 1b3e d00c b5bb
00000060: d958 bebd 6a56 35be ea0a 163e f2a0 8f3e
00000070: 5561 29be d796 6dbd 7a1a 90be a0a7 89be
00000080: 4b30 2a3e fc75 6c3e d926 513d 13e2 923e

2.bias f4 [3]
-0.035455327 -0.048916083 -0.16320777
00000000: 9b39 11bd 3b5c 48bd f01f 27be

4.weight f4 [1, 3, 2, 2]
0.18494658 0.16273035 0.038176067 -0.14944011 0.28446078 0.11810114 0.12177782 0.020513605
0.10182817 0.20108345 -0.19077338 -0.01658227
00000000: a362 3d3e c9a2 263e 825e 1c3d d406 19be
00000010: d8a4 913e 03df f13d a666 f93d 260c a83c
00000020: 4a8b d03d d2e8 4d3e 195a 43be 8ad7 87bc
