training/save_ddpg_weights/DDPG_R1_cnn_network_s3.pt (torch, 2455 bytes, 5 tensors)

0.weight f4 [3, 1, 3, 3]
000000 fd 4a 09 be 4e 2e fc 3d 68 41 5e 3e e3 f5 28 3d
       -0.13407512 0.123135194 0.21704638 0.04125012
000010 76 a4 33 3d bf 89 8c 3e 56 ce 5e 3e 28 07 71 3e
       0.043858014 0.27448842 0.21758398 0.23537886
000020 aa b1 90 3e 83 a0 47 3e 86 73 2d 3e 0e 76 a4 be
       0.28260547 0.19494824 0.169386 -0.3212132
000030 1e f2 41 be a2 d3 8e 3e c2 e9 a7 be 8b 1e 08 3d
       -0.18940017 0.27895838 -0.3279553 0.033232253
000040 56 de f7 bc 5e 30 20 3e 53 fa 19 3e 48 2d 29 be
       -0.030257385 0.1564345 0.15036897 -0.1652118
000050 0a c9 a5 be 16 24 a9 3d 33 98 4f 3e 0b dc 06 bd
       -0.32379943 0.08258836 0.20272903 -0.032924693
000060 e6 21 2f 3e f4 ad 86 be 2e fd 5c be
       0.17102775 -0.2630459 -0.21580955

0.bias f4 [3]
000000 e6 f1 40 3e 06 1a 6b be b3 84 21 be
       0.18842277 -0.22959146 -0.15773277

2.weight f4 [3, 3, 2, 2]
000000 a6 af bd bd be 14 5b bd 6c f4 13 3e c8 71 8f be
       -0.09262018 -0.05348658 0.14448708 -0.28016496
000010 b5 b6 50 3e 7a 9c 2f 3e a6 10 11 3e ee 35 b6 3d
       0.20382197 0.17149535 0.14166507 0.08897005
000020 5c f4 c6 3d 6e 31 69 be fa cb bf 3d 56 39 60 3e
       0.097145766 -0.22772762 0.09365077 0.21896872
000030 95 05 79 be 64 28 f7 3d d6 9c 87 3e 50 69 78 3e
       -0.24318536 0.12068251 0.26486844 0.24258924
000040 29 34 19 3e 82 42 d2 bc 15 bd 82 be 1c 04 87 be
       0.14961304 -0.025666479 -0.25534883 -0.26370323
000050 b2 8c 90 3e 83 9c 29 be 1f e7 1b 3e d0 0c b5 bb
       0.28232342 -0.1656361 0.15224884 -0.005525209
000060 d9 58 be bd 6a 56 35 be ea 0a 16 3e f2 a0 8f 3e
       -0.0929429 -0.17708746 0.14652601 0.2805248
000070 55 61 29 be d7 96 6d bd 7a 1a 90 be a0 a7 89 be
       -0.16541035 -0.05800518 -0.281452 -0.268857
000080 4b 30 2a 3e fc 75 6c 3e d9 26 51 3d 13 e2 92 3e
       0.16619985 0.23091882 0.05106244 0.28688106

2.bias f4 [3]
000000 9b 39 11 bd 01 2d 84 bd f0 1f 27 be
       -0.035455327 -0.06453896 -0.16320777

4.weight f4 [1, 3, 2, 2]
000000 a3 62 3d 3e c9 a2 26 3e 82 5e 1c 3d d4 06 19 be
       0.18494658 0.16273035 0.038176067 -0.14944011
000010 30 99 8c 3e d6 61 de 3d fc 16 e4 3d 3a e0 25 3c
       0.27460623 0.108585045 0.111371964 0.010124261
000020 4a 8b d0 3d d2 e8 4d 3e 19 5a 43 be 8a d7 87 bc
       0.10182817 0.20108345 -0.19077338 -0.01658227
