training/save_ddpg_weights/DDPG_R1_actor_network_s8.pt (torch, 734843 bytes, 13 tensors)

net1.0.weight f4 [3, 1, 3, 3]
0	0xbe134fb3	-0.14385872
1	0x3de8ded0	0.11370623
2	0x3e54d865	0.20785673
3	0x3ce4a6b9	0.02791153
4	0x3cffef92	0.031242166
5	0x3e8660f4	0.26245844
6	0x3e50c27a	0.20386687
7	0x3e63596a	0.22202078
8	0x3e8a2ba2	0.26986414
9	0x3e47a083	0.19494824
10	0x3e2d7386	0.169386
11	0xbea4760e	-0.3212132
12	0xbe41f21e	-0.18940017
13	0x3e8ed3a2	0.27895838
14	0xbea7e9c2	-0.3279553
15	0x3d081e8b	0.033232253
16	0xbcf7de56	-0.030257385
17	0x3e20305e	0.1564345
18	0x3e19fa53	0.15036897
19	0xbe292d48	-0.1652118
20	0xbea5c90a	-0.32379943
21	0x3da92416	0.08258836
22	0x3e4f9833	0.20272903
23	0xbd06dc0b	-0.032924693
24	0x3e2f21e6	0.17102775
25	0xbe86adf4	-0.2630459
26	0xbe5cfd2e	-0.21580955

net1.0.bias f4 [3]
0	0x3e3453ee	0.17610142
1	0xbe6b1a06	-0.22959146
2	0xbe2184b3	-0.15773277

net1.2.weight f4 [3, 3, 2, 2]
0	0xbdbdafa6	-0.09262018
1	0xbd5b14be	-0.05348658
2	0x3e13f46c	0.14448708
3	0xbe8f71c8	-0.28016496
4	0x3e50b6b5	0.20382197
5	0x3e2f9c7a	0.17149535
6	0x3e1110a6	0.14166507
7	0x3db635ee	0.08897005
8	0x3dc6f45c	0.097145766
9	0xbe69316e	-0.22772762
10	0x3dbfcbfa	0.09365077
11	0x3e603956	0.21896872
12	0xbe83edb8	-0.25767303
13	0x3dd98b9b	0.10622331
14	0x3e801d3d	0.25022307
15	0x3e697134	0.2279709
16	0x3e193429	0.14961304
17	0xbcd24282	-0.025666479
18	0xbe82bd15	-0.25534883
19	0xbe87041c	-0.26370323
20	0x3e908cb2	0.28232342
21	0xbe299c83	-0.1656361
22	0x3e1be71f	0.15224884
23	0xbbb50cd0	-0.005525209
24	0xbdbe58d9	-0.0929429
25	0xbe35566a	-0.17708746
26	0x3e160aea	0.14652601
27	0x3e8fa0f2	0.2805248
28	0xbe296155	-0.16541035
29	0xbd6d96d7	-0.05800518
30	0xbe901a7a	-0.281452
31	0xbe89a7a0	-0.268857
32	0x3e2a304b	0.16619985
33	0x3e6c75fc	0.23091882
34	0x3d5126d9	0.05106244
35	0x3e92e213	0.28688106

net1.2.bias f4 [3]
0	0xbd11399b	-0.035455327
1	0xbda1eae0	-0.07906127
2	0xbe271ff0	-0.16320777

net1.4.weight f4 [1, 3, 2, 2]
0	0x3e3d62a3	0.18494658
1	0x3e26a2c9	0.16273035
2	0x3d1c5e82	0.038176067
3	0xbe1906d4	-0.14944011
4	0x3e8ab24d	0.27089158
5	0x3dd76545	0.105173625
6	0x3ddbb56d	0.107279636
7	0x3bcb5fdd	0.006206496
8	0x3dd08b4a	0.10182817
9	0x3e4de8d2	0.20108345
10	0xbe435a19	-0.19077338
11	0xbc87d78a	-0.01658227

net2.0.weight f4 [256, 196]
0	0x3d80dbab	0.06291898
1	0xbb437c25	-0.0029828635
2	0xbd739005	-0.05946352
3	0x3d4c82ca	0.049929418
4	0xbca3cec0	-0.019996047
5	0x3c91a3ce	0.017778303
6	0x3bc60b5c	0.0060438346
7	0xbd0a5113	-0.033768725
8	0xbd0f5b70	-0.03499931
9	0xbd59f117	-0.053208437
10	0x3d1576c7	0.036490228
11	0x3b49cddc	0.0030792868
12	0xbd5f109a	-0.05445919
13	0x3cfba24e	0.030717041
14	0x3d77b978	0.06047961
15	0xbd92274f	-0.07136404
16	0xbc932737	-0.017963035
17	0xbd857437	-0.06516307
18	0x3ce3ef81	0.027824165
19	0xbc2b8337	-0.010468296
20	0xbd65173e	-0.05593037
21	0x3d6aee88	0.057356387
22	0x3d39c12c	0.04535024
23	0xbd14ed4a	-0.03635911
24	0xbd5ac0a5	-0.053406376
25	0x3d2c9611	0.042135302
26	0xbc471ddc	-0.012153115
27	0xbd8b165e	-0.067913756
28	0xbd251173	-0.040299844
29	0xbd4e1cee	-0.05032056
30	0x3d4f1881	0.050560478
31	0x3c707193	0.014675516
32	0xbd6582e3	-0.056033026
33	0x3d75e9e8	0.060037524
34	0x3d23541c	0.039875135
35	0x3b983fa5	0.004646259
36	0xbd0b00b7	-0.03393623
37	0xbc3426b7	-0.010995558
38	0xbc968cd3	-0.018377697
39	0xbcecf2d8	-0.02892439
40	0xbd5ea1c1	-0.05435348
41	0xbc8eed6a	-0.017447192
42	0xbd7baeac	-0.061445877
43	0xbd8cb416	-0.06870286
44	0x3d5cbc33	0.05389042
45	0x3b33b14a	0.0027418905
46	0xbd74aa6c	-0.05973284
47	0xbd856903	-0.0651417
48	0xbd1ce1bc	-0.038301215
49	0x3cac6337	0.021043403
50	0xbd0910d7	-0.033463325
51	0xbd822b84	-0.06355956
52	0x3cb9e5dc	0.022692613
53	0xbc946317	-0.018113656
54	0xbd05d01c	-0.03266917
55	0x3cadd021	0.021217408
56	0x3cb019a5	0.021496603
57	0xbcf9d01c	-0.030494742
58	0x3d622695	0.055212576
59	0x3d754bea	0.05988685
60	0x3c0f4193	0.008743661
61	0x3c9cd8d3	0.019146359
62	0xbd90a57c	-0.07062814
63	0xbd6139a8	-0.054986626
64	0x3d384d47	0.044995572
65	0xbd653eb8	-0.055968016
66	0xbcf09f0a	-0.02937271
67	0x3be82681	0.007084668
68	0xbd34c771	-0.044135515
69	0x3ccac46e	0.024751868
70	0xbd57e885	-0.052711982
71	0xbd21bb80	-0.039485455
72	0xbcc9ea21	-0.024647774
73	0xbd2f87da	-0.042854168
74	0xbd348fa7	-0.04408231
75	0xbc5c3fe5	-0.013442968
76	0xbd5713da	-0.052509166
77	0x3cf31461	0.029672803
78	0xbd5e35f3	-0.05425067
79	0xbcc69c85	-0.024244556
80	0xbc8fe517	-0.017565293
81	0x3cafeebc	0.021476142
82	0x3d836e55	0.064175285
83	0x3d606e6c	0.054792807
84	0x3d920162	0.0712917
85	0x3d32eac5	0.043680925
86	0xbcc02b85	-0.023458252
87	0x3cad6a13	0.021168744
88	0xbc7d5aa5	-0.015463506
89	0x3d1707ba	0.036872603
90	0xbca59fb7	-0.02021776
91	0xbd7ea6cc	-0.06217079
92	0xbd59b8de	-0.05315482
93	0xbd2b8325	-0.041873116
94	0x3d857b75	0.06517688
95	0xbd65c3bc	-0.05609487
96	0xbbb149ca	-0.0054104077
97	0xbcff02fc	-0.031129353
98	0xbd0dcbb5	-0.0346181
99	0x3cbb4d3c	0.022863977
100	0xbd8ea1f4	-0.06964484
101	0x3cff0a1c	0.03113275
102	0xbcdd4ddc	-0.027014665
103	0x3ce8df45	0.028426776
104	0xbd3d0ef5	-0.046156842
105	0x3d6feb9a	0.058574297
106	0xbd050d35	-0.0324833
107	0xbd6e8745	-0.05823447
108	0xbd66cdda	-0.05634866
109	0x3c21f32e	0.009884639
110	0xbd8951d4	-0.067050606
111	0x3d7e9d55	0.062161762
112	0xbb68e993	-0.0035539612
113	0x3d26cc1a	0.04072199
114	0x3c6f51b8	0.014606886
115	0x3c079800	0.008275986
116	0x3d2fb79e	0.04289972
117	0x3a13aa4a	0.000563298
118	0x3d13eaae	0.03611248
119	0xbd869c4e	-0.065727815
120	0x3cf03841	0.029323699
121	0x3c9b8af7	0.018987162
122	0x3c1c441c	0.009537723
123	0xbd83f58d	-0.064433195
124	0xbcaa96e5	-0.020823905
125	0xbaa7db6e	-0.0012806484
126	0x3d8b4422	0.06800105
127	0xbca8fc93	-0.02062825
128	0x3d36777c	0.044547543
129	0x3d8dabe8	0.06917554
130	0xbd87c8d6	-0.06630103
131	0x3d3eec9a	0.04661236
132	0xbd271a47	-0.040796544
133	0xbd9173bd	-0.071021535
134	0x3d3c509a	0.045975305
135	0xbd36c843	-0.04462458
136	0x3be94901	0.0071192984
137	0x3aefea93	0.0018304161
138	0xbbd9c625	-0.006645935
139	0x3d4c2a3e	0.049844973
140	0xbc7f8c4a	-0.015597412
141	0xbd8904a8	-0.06690341
142	0x3b2c3101	0.0026274326
143	0x3bd0dc37	0.006373908
144	0xbc266bdc	-0.010157552
145	0xbd6a48ca	-0.057198323
146	0x3d78ad4e	0.06071215
147	0x3ac185b7	0.0014764582
148	0xbbdb416e	-0.0066911494
149	0x3d5b1405	0.05348589
150	0xbd52dfa1	-0.0514828
151	0xbd5ccdc8	-0.053907186
152	0xbcd3b217	-0.025841756
153	0xbd2e5f07	-0.042571094
154	0xbb60f225	-0.0034324017
155	0xbd4b5527	-0.049641754
156	0x3c2e781c	0.0106487535
157	0x3d5823e5	0.052768607
158	0xbcf01bce	-0.029310133
159	0x3d2d9017	0.042373743
160	0x3c8633b3	0.016382074
161	0xbc276777	-0.010217539
162	0xbd0d79ee	-0.03454011
163	0xbd4daee7	-0.050215628
164	0xbc892813	-0.016742742
165	0xbd149a83	-0.036280166
166	0x3d153c5a	0.03643451
167	0x3d12c297	0.035830107
168	0xbc5d67ae	-0.013513489
169	0xbc8db50e	-0.017298248
170	0x3d60590a	0.054772414
171	0x3bcaeb93	0.0061926334
172	0x3d065f8a	0.032805957
173	0xbc296653	-0.010339337
174	0x3d2061a3	0.039155614
175	0xbc9e1733	-0.019298172
176	0x3d0b4a2c	0.034006283
177	0x3d4f129e	0.050554864
178	0xbcfeaa3c	-0.031087033
179	0x3cedff18	0.029052302
180	0x3d3c77c3	0.04601265
181	0xbcca2e5c	-0.024680309
182	0x3c9c8717	0.019107385
183	0x3d8acd2a	0.06777413
184	0x3d1787d3	0.036994766
185	0x3cb65ed7	0.02226202
186	0x3aee204a	0.0018167582
187	0xbd79d72e	-0.060996227
188	0x3d0a7c2e	0.033809833
189	0x3c437cae	0.011931581
190	0xbd65597c	-0.055993542
191	0xb9abd925	-0.00032777447
192	0xbc8b445c	-0.01700037
193	0xbd45ab2e	-0.048258953
194	0xbccdde45	-0.0251304
195	0xbc76719c	-0.015041735
196	0xbd09a34c	-0.033602998
197	0x3d3ab945	0.045586843
198	0xbd1008b5	-0.035164554
199	0x3c9a9c37	0.018873317
200	0x3d59674a	0.05307702
201	0xbd8ab5c5	-0.06772951
202	0xbd5088e1	-0.050911788
203	0x3c83db00	0.016095638
204	0xbc8158f3	-0.015789485
205	0xbd86bbf2	-0.065788165
206	0xbcb718d3	-0.022350704
207	0x3cfcf10e	0.030876663
208	0x3d846a3b	0.06465574
209	0xbb9b0300	-0.0047305822
210	0x3ce3ba8e	0.027798917
211	0x3d433b23	0.04766382
212	0x3d730283	0.059328567
213	0x3d539ee7	0.051665213
214	0x3d7122c3	0.058871042
215	0x3d16c4ea	0.036808886
216	0x3d72d71a	0.059287168
217	0xbc15e3dc	-0.009148564
218	0xbce613b8	-0.028085575
219	0xbd6221d8	-0.055208057
220	0xbd6fbc45	-0.058529157
221	0x3c0967b7	0.008386544
222	0x3d8e5bca	0.06951101
223	0xbca1fe53	-0.019774592
224	0x3ce1c021	0.027557435
225	0xbc7d3893	-0.015455383
226	0xbcb0d145	-0.021584162
227	0x3d5587f5	0.05213161
228	0x3c02b46e	0.007977588
229	0x3d00b99e	0.03142702
230	0xbb8affb7	-0.0042419094
231	0xbd3e309e	-0.046433084
232	0x3cffc9ea	0.03122421
233	0xbd025fdc	-0.0318297
234	0xbcdcc725	-0.026950428
235	0xbd61b82a	-0.055107273
236	0x3b44f76e	0.0030054706
237	0x3cbdbbae	0.023160782
238	0x3d28c0e3	0.041199576
239	0x3c3c4665	0.011491393
240	0x3d75dcae	0.06002491
241	0xbd838512	-0.064218655
242	0x3bd6a0a5	0.006549912
243	0x3c585593	0.013203996
244	0x3c09fd25	0.008422171
245	0x3ca4dfd3	0.020126259
246	0xbd666615	-0.056249697
247	0x3c95cb20	0.018285334
248	0x3d261ab0	0.040552795
249	0x3c92c8ca	0.01791801
250	0xbc5163dc	-0.012780156
251	0xbab09401	-0.0013471843
252	0xbd4e8685	-0.050421257
253	0xbd919146	-0.07107787
254	0x3cb840ce	0.022491839
255	0xbd51fffc	-0.051269516

net2.0.bias f4 [256]
0	0xbd7d4b6a	-0.0618395
1	0xbd744408	-0.059635192
2	0x3d50fe83	0.05102397
3	0xbceea45a	-0.029131103
4	0xbd47a88b	-0.04874472
5	0xba83be11	-0.0010051151
6	0x3d6a0da6	0.057141922
7	0xbd7ab863	-0.061211
8	0x3c98f2b1	0.018670412
9	0x3c6a838a	0.014313588
10	0xbd54464e	-0.05182486
11	0x3d7579b8	0.059930533
12	0x3ce45ea1	0.027877154
13	0xbbc1946e	-0.005907587
14	0x3c917d05	0.01775981
15	0x3b4734a2	0.0030396362
16	0x3d655a89	0.055994544
17	0x3d4b261d	0.049596895
18	0x3b2b5acf	0.0026146655
19	0xbce7afb5	-0.028282026
20	0xbd316591	-0.043309752
21	0x3d65255a	0.055943824
22	0x3d6c410f	0.057679232
23	0xbc837a4e	-0.01604953
24	0xbc50390a	-0.012708912
25	0xbcee8f64	-0.029121108
26	0x3d87e773	0.06635942
27	0xbd253f13	-0.040343355
28	0x3baf7d0e	0.005355484
29	0x3d917183	0.07101729
30	0xbc9998ce	-0.01874962
31	0x3db1eb79	0.08687491
32	0x3d271d49	0.040799413
33	0xbd6a4d16	-0.05720242
34	0xbcdedd46	-0.02720512
35	0x3ceacf4b	0.028663298
36	0x3d412d4a	0.04716233
37	0xbd485357	-0.048907604
38	0x3d349fd5	0.04409774
39	0xbd8f83d1	-0.07007564
40	0x3c73da21	0.014883549
41	0x3d6ec1f6	0.058290444
42	0x3d4ce40f	0.05002218
43	0xbcfd978e	-0.030956056
44	0xbc2fa75e	-0.010721056
45	0xbd5997e3	-0.053123366
46	0xbcc2806a	-0.023742873
47	0xbcd968a1	-0.026539149
48	0x3d6030a8	0.054733902
49	0xbaa6604a	-0.0012693491
50	0x3c3191be	0.01083797
51	0xbd07072b	-0.03296582
52	0x3d0836d0	0.0332554
53	0x3cf25877	0.029583199
54	0x3d41fe7e	0.047361843
55	0x3d8e098b	0.06935414
56	0xbd35c5f1	-0.044378225
57	0xbc561bb0	-0.013068125
58	0xba37e44e	-0.0007014916
59	0x3d85f51d	0.06540892
60	0x3bfd2c13	0.0077262013
61	0x3d53a6ce	0.05167275
62	0xbb633a5b	-0.0034672234
63	0xbcc82618	-0.024432227
64	0xbd330cbb	-0.043713313
65	0xbd662ca3	-0.056194913
66	0x3d6dd8e6	0.05806818
67	0x3cebe194	0.028794087
68	0xbc4976ff	-0.012296437
69	0x3d6046aa	0.05475489
70	0x3d71b7f0	0.059013307
71	0xbd2034a7	-0.039112713
72	0x3d8a4adf	0.06752562
73	0xbd631fc1	-0.055450205
74	0x3d954974	0.07289401
75	0x3d44396a	0.047906317
76	0xbc1a5b40	-0.00942117
77	0xbcefea13	-0.02928642
78	0x3d9856ee	0.074384555
79	0xbcfc7789	-0.030818718
80	0xbd209545	-0.039204855
81	0xbd843f0b	-0.06457337
82	0x3d5ab357	0.053393688
83	0x3d71505a	0.05891452
84	0xbd628848	-0.05530575
85	0x3c9d3801	0.019191744
86	0xbd920be3	-0.071311735
87	0xbcea3202	-0.028588299
88	0xbd063e98	-0.032774538
89	0x3d739fd1	0.059478585
90	0xbc0a5cfb	-0.00844502
91	0x3d89a3e8	0.06720716
92	0xbd131772	-0.03591103
93	0xbbf62301	-0.007511497
94	0x3cf1bc27	0.029508663
95	0xbbc2515d	-0.0059301094
96	0x3c035564	0.008015964
97	0xbd8455f8	-0.0646171
98	0xbcc17e94	-0.023619927
99	0x3d6fc508	0.058537513
100	0x3d202873	0.039101075
101	0xbcf8440e	-0.030305889
102	0x3cb082eb	0.021546802
103	0x3ccd1525	0.025034497
104	0x3d275155	0.04084905
105	0xbcb6f7c4	-0.02233494
106	0xbc3b6e8a	-0.011439929
107	0xbd5e828e	-0.054323725
108	0x3d1b91aa	0.037980713
109	0x3d13019f	0.035890218
110	0xbd08a9b5	-0.03336497
111	0x3ca86155	0.020554224
112	0xbceb716e	-0.02874061
113	0xbd724eb5	-0.059157092
114	0xbd639f4b	-0.055571835
115	0x3d089105	0.033341426
116	0x3ce88253	0.028382456
117	0xbc81909a	-0.015816022
118	0xbd3e36f4	-0.046439126
119	0x3c94bd0f	0.018156556
120	0xbd290783	-0.04126693
121	0x3c636b90	0.013880625
122	0xbd90306c	-0.07040486
123	0xbd73107e	-0.0593419
124	0x3ce3593c	0.027752511
125	0x3d3fc1bd	0.046815623
126	0xbcf59505	-0.029978285
127	0xbaae56dc	-0.0013301033
128	0x3d38b21c	0.045091733
129	0x3d7e7961	0.062127475
130	0xbcba5dfc	-0.022749893
131	0x3bbb59a5	0.0057174736
132	0x3d0ea1fb	0.034822445
133	0x3cb61e0e	0.022231128
134	0x3c82aa37	0.015950305
135	0xbd91c3dd	-0.07117436
136	0xbca4d465	-0.020120809
137	0x3c8728f7	0.016499026
138	0xbd4f6e8e	-0.050642543
139	0x3d518f42	0.051162012
140	0xbcd071dd	-0.02544492
141	0x3c09b2b6	0.008404424
142	0xbd64a138	-0.055817813
143	0x3d195837	0.037437644
144	0xbcf9a1ce	-0.030472662
145	0xbd34fb88	-0.04418519
146	0x3b2fde26	0.0026835292
147	0xbd7994ea	-0.06093303
148	0x3cdae9eb	0.026722869
149	0xbd164b15	-0.036692698
150	0x3c1e16b1	0.009648965
151	0xbb3f0b75	-0.0029151116
152	0xba95296e	-0.0011380145
153	0x3d7aff75	0.06127878
154	0x3cdade8a	0.026717443
155	0xbce07a2c	-0.027402006
156	0x3d30d483	0.043171417
157	0x3d77dce3	0.06051339
158	0xbd2647eb	-0.04059593
159	0x3c638da0	0.0138887465
160	0x3c3cff6e	0.011535509
161	0x3cb85a3a	0.02250396
162	0x3d6e3e51	0.0581649
163	0x3d734cb0	0.059399307
164	0x3b82cbee	0.0039915955
165	0x3d677185	0.056504745
166	0x3d4c09a7	0.049813893
167	0x3d66979c	0.05629693
168	0xbcb99d85	-0.022658119
169	0xbd016806	-0.031593345
170	0x3d1d8cc1	0.03846431
171	0xbca5aaf9	-0.020223128
172	0xbd8bee00	-0.06832504
173	0x3c87326e	0.016503539
174	0x3c5311fb	0.012882705
175	0xbd6cacfe	-0.057782166
176	0xbd4a4d3b	-0.04939006
177	0xbd24990a	-0.040185012
178	0xbcaa060d	-0.020754838
179	0x3b2b9fa4	0.0026187683
180	0x3d14e5d2	0.036351986
181	0x3da72d2c	0.08162913
182	0x3c9f73ad	0.019464338
183	0xbccfbad1	-0.025357636
184	0xbc2e0eb3	-0.010623622
185	0x3d8677d7	0.065658264
186	0x3cd8d185	0.026467094
187	0xbd42ba54	-0.047540978
188	0x3bd3e2ee	0.006466261
189	0x3a4babe2	0.0007769448
190	0x3d1e0351	0.03857738
191	0xbd1a95ee	-0.03774064
192	0x3d823900	0.06358528
193	0x3d619a48	0.055078775
194	0x3d0d951b	0.034566026
195	0x3bfcc37b	0.007713733
196	0xbca9b7e5	-0.02071757
197	0x3d5f530f	0.05452257
198	0x3ccffb8a	0.025388498
199	0x3d5c6230	0.053804576
200	0x3cc65fa5	0.024215529
201	0x3d820967	0.063494496
202	0xbd21f4c5	-0.03954007
203	0x3cb42b3e	0.021993276
204	0x3d27a475	0.040928323
205	0xbd4a4b4e	-0.049388222
206	0xbd8304b4	-0.063973814
207	0xbcece319	-0.028916882
208	0x3d17ff93	0.03710897
209	0x3c81b98e	0.01583555
210	0x3cea17f3	0.028575873
211	0x3c0ca70d	0.00858475
212	0x3c108d2b	0.00882272
213	0x3d6e9dac	0.058255836
214	0x3bc78455	0.0060887733
215	0x3d56f04b	0.052475255
216	0x3d64179a	0.05568657
217	0xbd7af40a	-0.06126789
218	0xbd8620ba	-0.06549211
219	0x3d895017	0.06704729
220	0x3cb2f4b3	0.021845197
221	0xbd89b75b	-0.067244254
222	0xbd36dffe	-0.04464721
223	0xbd3a2723	-0.04544748
224	0xbd83761d	-0.06419013
225	0x3d89625d	0.067082144
226	0xbd8497b2	-0.06474246
227	0x3d4bfd1c	0.04980193
228	0x3d5e493f	0.05426907
229	0xbd5b80ea	-0.05358974
230	0xbd1f92ee	-0.038958482
231	0x3c238fa4	0.009982977
232	0xbd6700e3	-0.05639733
233	0xbcc65157	-0.024208708
234	0xbd2addeb	-0.041715544
235	0xbb81c955	-0.003960768
236	0xbd7f917a	-0.062394597
237	0xbd1ca150	-0.038239777
238	0x3c7ba7d0	0.015359834
239	0x3d7c0bbc	0.06153463
240	0xbbfa6a7b	-0.007642088
241	0x3cbf6607	0.02336408
242	0xbd694e9c	-0.056959733
243	0x3d1222ea	0.035677828
244	0xbc1c8f5c	-0.009555664
245	0x3ccc567e	0.024943586
246	0xbc70ee2e	-0.014705224
247	0x3d26c6cd	0.040716935
248	0x3d16df2b	0.036833923
249	0x3d944171	0.072390445
250	0x3c4fae81	0.012675882
251	0xbcba5b8e	-0.022748735
252	0x3d1d2790	0.038367808
253	0xbd595137	-0.053055968
254	0x3d5026b3	0.050818156
255	0x3d1f5a7d	0.038904656

net2.2.weight f4 [256, 256]
0	0xbd2e957a	-0.04262302
1	0x3d08e412	0.03342063
2	0x3d35d6c9	0.04439429
3	0x3c987b5a	0.018613506
4	0xbd2f1102	-0.04274083
5	0x3ca85bcc	0.020551585
6	0x3ca922bf	0.020646451
7	0xbd694c14	-0.05695732
8	0x3d0bbdce	0.03411656
9	0x3d1aa992	0.03775937
10	0x3d05f48a	0.032703914
11	0x3d2fb72d	0.0428993
12	0x3c83720c	0.016045593
13	0xbcdbca30	-0.026829809
14	0xbd1d4c72	-0.038402982
15	0x3cc39621	0.023875298
16	0xbd25e257	-0.040499058
17	0x3c98cff9	0.018653857
18	0xbc8d181a	-0.017223407
19	0x3b46b333	0.0030319213
20	0xbcef3b60	-0.029203117
21	0x3d079d0c	0.033108756
22	0x3d63772d	0.055533577
23	0x3d3c4338	0.045962542
24	0xbd286876	-0.041115247
25	0x3dd3a8f9	0.10334963
26	0x3b95ad60	0.004567787
27	0xbd498064	-0.04919471
28	0x3d42f84c	0.047600076
29	0x3d24d976	0.04024645
30	0xbca4f8c4	-0.020138152
31	0xbdafb4f4	-0.08579436
32	0x3d407f27	0.046996262
33	0xbc7eabcb	-0.015543888
34	0xbd18c87c	-0.03730057
35	0xbd37ea07	-0.04490092
36	0xbc7de038	-0.015495352
37	0xbcd36f2c	-0.025809847
38	0x3d0a2d68	0.03373471
39	0xbc895bb7	-0.016767366
40	0x3bbc2133	0.0057412623
41	0xbce2e5fb	-0.027697554
42	0x3d33e347	0.04391792
43	0x3d390450	0.04517013
44	0x3cf74935	0.030186275
45	0xbd28f2a0	-0.04124701
46	0x3d57fa60	0.05272901
47	0x3cd559f8	0.026043877
48	0xbd6a0e8e	-0.057142787
49	0xbcacd3bc	-0.021097057
50	0xbd41e540	-0.04733777
51	0x3db16de8	0.08663541
52	0xbd493565	-0.049123187
53	0xbb4b2c4c	-0.0031001745
54	0x3dcb69ac	0.09932265
55	0xbc981b28	-0.018567637
56	0x3d42c080	0.047546864
57	0x3d64a35a	0.055819847
58	0x3c44a455	0.01200207
59	0xbd21883a	-0.039436556
60	0x3d1a114c	0.03761415
61	0xbc8c6204	-0.017136581
62	0x3c1a3654	0.009412367
63	0xbcd1026f	-0.025513856
64	0x3e0ebb3a	0.13938609
65	0x3d55ac56	0.052166305
66	0x3c19bb5d	0.00938305
67	0xb9ed65ef	-0.0004528011
68	0x3de06581	0.1095686
69	0x3c83714c	0.016045235
70	0x3cb582d9	0.02215712
71	0x3d3a7ca4	0.045529023
72	0xbd1f4817	-0.03888711
73	0xbd782cac	-0.060589477
74	0xbd24b163	-0.04020823
75	0x3d7d4ad1	0.06183893
76	0x3c7b5e18	0.015342258
77	0x3cdf94a4	0.027292557
78	0x3c7d310c	0.015453588
79	0x3d7adfa1	0.061248425
80	0x3cc6ad97	0.024252696
81	0x3d665780	0.05623579
82	0x3bca7b40	0.0061792433
83	0xbd8aa465	-0.06769637
84	0xbc826759	-0.01591842
85	0x3b8921b7	0.0041849273
86	0xbd30d88e	-0.043175273
87	0xbd7d7054	-0.061874703
88	0x3d11ed3a	0.035626628
89	0xbc8d41a4	-0.017243214
90	0x3d4e5379	0.050372574
91	0x3d27d1d0	0.040971577
92	0x3c7be78d	0.01537503
93	0x3c8fb6f0	0.017543286
94	0xbcfa5ad0	-0.03056088
95	0xbd777805	-0.060417194
96	0x3ca67d6d	0.02032348
97	0x3bc02810	0.005864151
98	0xbc94d90b	-0.0181699
99	0xbcaa183c	-0.020763509
100	0x3c66c3c8	0.014084764
101	0x3bae8970	0.0053264424
102	0xbd36f7a9	-0.04466978
103	0x3cbb1310	0.022836238
104	0x3d2fb33c	0.04289554
105	0x3d459c4f	0.04824477
106	0x3c198d6b	0.009372096
107	0xbd57260a	-0.05252651
108	0xbcb961c4	-0.022629626
109	0x3d319342	0.043353327
110	0xbd1af5e2	-0.03783215
111	0xbce7380d	-0.02822497
112	0x3bb20140	0.005432278
113	0x3d7f949a	0.062397577
114	0xbd4440f9	-0.047913525
115	0xbd35b858	-0.044365257
116	0x3ba0eeb0	0.0049112663
117	0x3d4ef7df	0.050529357
118	0x3d978b0f	0.0739957
119	0x3dea3767	0.114363484
120	0x3c6b64ad	0.014367265
121	0x3cd39302	0.025826935
122	0x3d430625	0.04761328
123	0x3bfe1c70	0.007754855
124	0xbd3c99c4	-0.04604508
125	0x3b174cd9	0.0023086576
126	0xbbfb0050	-0.0076599494
127	0x3c76b4a8	0.01505772
128	0x3c90cad8	0.017674848
129	0x3cc1261d	0.023577744
130	0x3c245fd8	0.010032617
131	0xbca0f554	-0.019648232
132	0x3d1def4c	0.03855829
133	0xbc211620	-0.009831935
134	0xbcc5bab4	-0.024136879
135	0xbcd8cf88	-0.026466146
136	0xbd51ebc4	-0.051250234
137	0x3d51405c	0.05108677
138	0x3d66e3e6	0.056369685
139	0x3d2116ec	0.0393285
140	0xbb7bc642	-0.0038417731
141	0xbd1589de	-0.036508434
142	0x3d618ca2	0.05506576
143	0xbc5acc08	-0.013354309
144	0x3a0a5080	0.00052762777
145	0xbd3010ef	-0.0429849
146	0x3db5df42	0.08880474
147	0x3d694006	0.056945823
148	0x3d50df91	0.05099446
149	0xbcefcd84	-0.029272802
150	0x3d769b8a	0.060206927
151	0xb8bfd71c	-9.147657e-05
152	0xbd05bffc	-0.032653794
153	0xbc83f3ec	-0.016107522
154	0x3cd14bf4	0.025548913
155	0x3bd6330b	0.0065368465
156	0x3c11685f	0.008874982
157	0xbd008e6b	-0.03138582
158	0xbb6db6c6	-0.0036272272
159	0x3da4563c	0.080242604
160	0xbba75050	-0.0051060095
161	0x3d802697	0.062573604
162	0x3b884200	0.0041582584
163	0xbd9fa5f7	-0.07795327
164	0x3bea2f10	0.0071467236
165	0x3c458b28	0.012057103
166	0x3d8d0a94	0.06886783
167	0x3d7b8514	0.06140621
168	0xbc912c1c	-0.017721228
169	0xbd5473b5	-0.05186816
170	0x3b8d55aa	0.0043131905
171	0x3d3dc887	0.046333816
172	0xbc9fc704	-0.019504078
173	0x3bcb11b0	0.006197177
174	0xbd514f15	-0.05110081
175	0x3caf88f0	0.021427602
176	0x3c1907a5	0.0093402015
177	0x3d5a606e	0.05331462
178	0x3d478014	0.04870613
179	0xbd839757	-0.0642535
180	0xbcbc45a8	-0.022982433
181	0x3caa4b52	0.020787869
182	0x3d9e00ad	0.07714973
183	0xbb94c378	-0.0045399033
184	0xbcda5247	-0.026650561
185	0xbc8da3b4	-0.017289974
186	0x3c1a1010	0.009403244
187	0xba78c021	-0.00094890787
188	0x3d1f7a7a	0.038935162
189	0x3e4c0330	0.19923091
190	0xbbd4e32c	-0.0064968076
191	0x3d078db8	0.033094138
192	0x3d555e38	0.052091807
193	0x3c607698	0.01370015
194	0x3d31fa41	0.04345155
195	0x3c8a6f0c	0.016898654
196	0xbd236126	-0.03988757
197	0x3cb232ae	0.021752682
198	0xbc82779b	-0.015926173
199	0x3df4db0b	0.11955842
200	0x3d0ebbf4	0.034847215
201	0x3d2c9e34	0.04214306
202	0x3d1775de	0.03697764
203	0x3d8838c6	0.06651454
204	0x3cc2d2f7	0.023782237
205	0x3d9484d8	0.072519004
206	0x3d967aa1	0.07347608
207	0xbb032e77	-0.002001671
208	0x3c75547b	0.014973755
209	0xbd1c39ae	-0.038140945
210	0x3d1c66a2	0.038183816
211	0x3d07d2a0	0.033159852
212	0x3dc7c2aa	0.09753926
213	0xbc394500	-0.011307955
214	0xbd50dd81	-0.050992493
215	0x3d473d6b	0.048642557
216	0x3d7fb406	0.062427543
217	0x3d363620	0.04448521
218	0x3d8670f2	0.06564511
219	0x3d0bd029	0.034134064
220	0xbd21ba10	-0.039484084
221	0x3cf00e1c	0.029303603
222	0x3cb0505c	0.021522693
223	0xb9bc5100	-0.00035918504
224	0x3cd7ff18	0.026366755
225	0x3d162f8b	0.036666434
226	0x3d267f56	0.04064878
227	0x3d5ff212	0.054674216
228	0x3d3c5fdb	0.045989852
229	0xbd064702	-0.032782562
230	0xbd7954f2	-0.060872026
231	0x3d0954c9	0.033528123
232	0x3d2e203e	0.042511217
233	0x3cc91aae	0.024548855
234	0x3dfa83a0	0.12232137
235	0xbd0240d9	-0.031800125
236	0xbd30337e	-0.043017857
237	0x3d645d90	0.05575329
238	0x3c5f52f4	0.013630617
239	0x3cee7d67	0.02911253
240	0xbc1a0764	-0.009401176
241	0x3d3bdffd	0.04586791
242	0x3a9b14c0	0.0011831746
243	0x3cf27220	0.029595435
244	0xbd42830c	-0.047488257
245	0x3d3f3cd7	0.04668888
246	0xbc4570f8	-0.01205086
247	0xbd77b267	-0.060472872
248	0x3ce97887	0.028499855
249	0x3d34cd15	0.044140894
250	0x3d4a0f2e	0.049330883
251	0x3b86d730	0.004115008
252	0xbd5cef6c	-0.053939268
253	0x3d38e05a	0.045135833
254	0x3c55f114	0.013057966
255	0xbc17dc07	-0.009268767

net2.2.bias f4 [256]
0	0x3c479d69	0.012183526
1	0x3cce33be	0.025171157
2	0xbd05cc73	-0.03266568
3	0x3cbe7a66	0.023251723
4	0xbcf4c862	-0.029880706
5	0x3d2c4686	0.042059444
6	0x3d7e6769	0.06211034
7	0xbbfb8770	-0.0076760575
8	0xbc04aa6e	-0.008097274
9	0xbcb0e19f	-0.02159196
10	0x3d2eff60	0.042724013
11	0x3cdc03a2	0.026857201
12	0xbd23a3f2	-0.039951272
13	0xbd3d083a	-0.046150424
14	0x3d4c10ab	0.049820583
15	0xbd13de50	-0.036100686
16	0xbcf0d425	-0.029398033
17	0x3d2e8e4c	0.042616174
18	0xbd383e50	-0.0449813
19	0xbd3e09a2	-0.046395905
20	0x3d49ef99	0.049300764
21	0xbd17f48a	-0.037098445
22	0xbd5aa798	-0.053382486
23	0x3d4973c2	0.04918266
24	0xbd305b5c	-0.043055877
25	0x3b82ca48	0.003991399
26	0x3d8c99cd	0.06865273
27	0x3c9b9fa9	0.01899703
28	0xbc978f87	-0.018501056
29	0x3d5588ea	0.052132525
30	0x3c2988c6	0.010347551
31	0x3ccf7d0c	0.025328182
32	0x3d097ac1	0.033564333
33	0xbcc16b74	-0.023610808
34	0x3cb50f32	0.022101972
35	0x3be70003	0.007049562
36	0x3c4d0720	0.012513906
37	0xbd733294	-0.059374407
38	0xbd48600a	-0.048919715
39	0x3d6bdab4	0.05758162
40	0x3d42096a	0.04737226
41	0xbd3c1e4e	-0.04592734
42	0xba90fa6d	-0.0011060961
43	0xbd3b9096	-0.045792185
44	0x3d866d61	0.06563831
45	0x3d4333a6	0.047656678
46	0xbd2c6498	-0.04208812
47	0x3d1e2c2d	0.038616348
48	0xbd45090c	-0.04810433
49	0xbbd92cc3	-0.0066276505
50	0xbc0ac2cb	-0.008469294
51	0xbd305696	-0.043051325
52	0x3d487cd9	0.04894719
53	0x3c564345	0.013077562
54	0x3d09aead	0.03361385
55	0x3d884f15	0.06655709
56	0xbd5e853b	-0.054326277
57	0x3a706cf2	0.00091715076
58	0x3d97b7ca	0.07408102
59	0x3c9fa6eb	0.019488772
60	0x3c1c280c	0.009531032
61	0x3d1920a5	0.037384648
62	0x3d181d4a	0.037137307
63	0xb7d21e9c	-2.5048204e-05
64	0xbceeacc0	-0.029135108
65	0xbca795b9	-0.020457136
66	0xbcb8db74	-0.02256558
67	0x3cb55e54	0.022139706
68	0x3d8954a9	0.06705601
69	0x3d666df0	0.05625719
70	0xbc2eb9a4	-0.010664377
71	0xbcd4e6b4	-0.025988914
72	0xbd3f9055	-0.046768505
73	0xbd5bc35b	-0.053653102
74	0x3d30f977	0.04320666
75	0xbd69e760	-0.057105422
76	0xbd143c05	-0.03619005
77	0xbc0d1171	-0.008610115
78	0x3d30b29d	0.04313909
79	0x3cbe22f0	0.023210019
80	0x3d2be13b	0.041962843
81	0x3c2d644f	0.010582997
82	0xbbe64d93	-0.0070282905
83	0xbd230523	-0.03979982
84	0x3d27bd34	0.040951923
85	0x3b629fd9	0.003458014
86	0xbc8a7130	-0.016899675
87	0xbc914c64	-0.017736621
88	0x3d82a07c	0.06378266
89	0x3cbcd3bd	0.023050183
90	0xbc6286f5	-0.013826122
91	0x3d1a2464	0.03763236
92	0xbcfe7cdc	-0.031065397
93	0x3d38253a	0.044957377
94	0x3b63e5a0	0.0034774318
95	0x3d4d9def	0.050199445
96	0xbca8eef5	-0.020621756
97	0x3d75ec34	0.060039714
98	0xbd3305b5	-0.043706615
99	0xbc659450	-0.014012411
100	0x3c7a1384	0.015263442
101	0x3d114cee	0.035473756
102	0x3d580707	0.052741077
103	0xbd63adfd	-0.05558585
104	0x3d85b3e1	0.0652845
105	0xbd0818b5	-0.033226687
106	0x3c496b5c	0.012293663
107	0x3d323ee4	0.04351701
108	0xbcaeb914	-0.021328487
109	0xbd143847	-0.036186483
110	0x3ce9557c	0.028483145
111	0x3d2d2a10	0.042276442
112	0xbae0182f	-0.0017097051
113	0x3c9ec000	0.019378662
114	0xbc60a7f8	-0.013711922
115	0x3d080bdd	0.03321444
116	0x3d89661e	0.067089304
117	0x3cd13212	0.02553657
118	0xbd025eee	-0.031828813
119	0x3d6e737d	0.058215607
120	0x3d14794c	0.03624849
121	0x3cd8d0bd	0.026466722
122	0x3b946873	0.004529053
123	0x3c2ebc94	0.010665078
124	0x3d055eea	0.03256122
125	0xbd2af581	-0.041738037
126	0x39b78e00	0.00035010278
127	0xbccd48d2	-0.025059137
128	0xbc82d634	-0.01597128
129	0xbd09b574	-0.033620313
130	0x3d4bb9a6	0.049737595
131	0x3d0f0d63	0.034924876
132	0xbd3b0526	-0.045659207
133	0xbce2ad4d	-0.027670527
134	0x3d4baf4d	0.049727727
135	0x3b4ebfd2	0.003154744
136	0xbc391518	-0.011296533
137	0x3cacc270	0.021088809
138	0x3d41a38a	0.047275104
139	0xbc6e19ca	-0.014532516
140	0xbd035a36	-0.032068454
141	0x3da255f3	0.0792655
142	0xbd6940be	-0.05694651
143	0xbd450c5a	-0.048107482
144	0x3d5dc2ac	0.05414073
145	0xbd5f0925	-0.05445208
146	0xbc1d3113	-0.00959422
147	0x3d328ab7	0.04358932
148	0xbd2e532f	-0.0425598
149	0x3d8ea6c7	0.06965404
150	0xbbe194c6	-0.0068841903
151	0xbd38d75c	-0.045127258
152	0x3d0a0622	0.033697255
153	0xbd3efed2	-0.046629734
154	0xbc6b17ec	-0.014348965
155	0x3be20c9d	0.0068984763
156	0x3d1d6b30	0.0384323
157	0xb9b2a751	-0.00034075466
158	0x3d62378c	0.055228755
159	0x3d8705c2	0.06592895
160	0xbd39537c	-0.045245633
161	0x3c91d698	0.017802522
162	0x3c339863	0.010961625
163	0xbd07329d	-0.033007253
164	0x3d4338ad	0.047661472
165	0x3cb7f2d0	0.02245465
166	0x3d7e3c0b	0.06206898
167	0xbd0c1002	-0.034194954
168	0xbd314ca4	-0.04328598
169	0x3c6c2d7c	0.014415141
170	0x3d155f7a	0.036468007
171	0xbd7aeaee	-0.061259203
172	0x3d09fc4c	0.033687875
173	0x3c8359e1	0.016034069
174	0x3d2b6da2	0.0418526
175	0xbd64e394	-0.055881098
176	0x3d0b7e7c	0.03405617
177	0x3d5052c9	0.0508602
178	0xbd5d7fcc	-0.054076955
179	0x3d1f271b	0.038855653
180	0xbd222e21	-0.039594773
181	0x3ca8855d	0.020571405
182	0xbcc8a58b	-0.024493
183	0xbcb2c280	-0.02182126
184	0xbd291889	-0.041283164
185	0xbd0519f5	-0.032495458
186	0x3d1fd6d5	0.03902324
187	0xbca421a4	-0.020035572
188	0xbd6aa288	-0.057283908
189	0xbc55ec0c	-0.013056766
190	0xbd5e4a22	-0.054269917
191	0xbd221cd3	-0.03957827
192	0x3c6d99c0	0.014501989
193	0x3c80a608	0.01570417
194	0xbd69627c	-0.056978688
195	0x3b7b2f2b	0.0038327675
196	0x3c81e8b4	0.015858032
197	0xbd028fe5	-0.03187551
198	0xbcad0951	-0.021122606
199	0xbd491162	-0.049088843
200	0xbb6a8990	-0.003578756
201	0x3bf9d9f0	0.007624857
202	0xbcfd4159	-0.03091495
203	0xbd200a8d	-0.039072562
204	0xbcd9b166	-0.026573848
205	0xbc257f37	-0.010101131
206	0x3c871688	0.016490236
207	0xbd6e155f	-0.05812585
208	0xbd0b61c7	-0.034028795
209	0xbc224cd7	-0.009906015
210	0x3d602c29	0.054729614
211	0xbd3ceaf6	-0.046122514
212	0x3d07deda	0.033171512
213	0x3cd4d66a	0.025981147
214	0x3af79649	0.0018889393
215	0xbce03a0c	-0.027371429
216	0xbcd89adf	-0.026441036
217	0xbd3df9a4	-0.046380654
218	0x3d5db48b	0.054127257
219	0x3bb4f7fd	0.0055227266
220	0x3c8864ca	0.016649622
221	0xbc9644a0	-0.01834327
222	0xbd5b93ce	-0.053607754
223	0xbd4ee580	-0.050511837
224	0xbd476945	-0.048684377
225	0xbca77799	-0.02044277
226	0x3c5aa448	0.013344832
227	0x3d82b027	0.06381255
228	0xbd4ae7fc	-0.049537644
229	0x3d5a8b31	0.0533554
230	0x3d10b812	0.035331793
231	0xbc43a5a4	-0.011941347
232	0x3cb31120	0.021858752
233	0xbc5a05f6	-0.013307085
234	0x3d030dce	0.031995587
235	0xbd5614dc	-0.052265987
236	0x3d580c2e	0.05274599
237	0x3d5d390d	0.054009486
238	0x3d642966	0.055703543
239	0xbca04564	-0.019564338
240	0x3d3b40bc	0.045716032
241	0xbd39b448	-0.045337945
242	0xbbceeb77	-0.0063146907
243	0xbd354c5e	-0.044262283
244	0xbd26860a	-0.040655173
245	0x3b6ed6f2	0.0036444035
246	0xbc83fc24	-0.016111441
247	0x3d57aeb1	0.052656833
248	0xbd30e8bc	-0.043190703
249	0xbcb52c06	-0.022115719
250	0x3c454d35	0.012042333
251	0xbc722ec1	-0.014781655
252	0x3ccbd5b6	0.024882179
253	0x3c70d0f1	0.014698253
254	0x3d054cba	0.032543875
255	0xbbe1040c	-0.0068669375

net2.4.weight f4 [256, 256]
0	0x3d54552b	0.051839035
1	0xbcd196e6	-0.02558465
2	0xbcf26285	-0.029587993
3	0x3d16f0ff	0.036850926
4	0xbd1b8d48	-0.037976533
5	0xbb8f1b10	-0.00436724
6	0x3c663b08	0.01405216
7	0xbd42d7d6	-0.04756912
8	0x3d4a3b6d	0.04937308
9	0xbda5a85c	-0.080887526
10	0x3c9eaaf9	0.019368635
11	0x3d53d6e6	0.051718615
12	0xbc802d98	-0.01564674
13	0x3c6ee369	0.014580586
14	0xbd524c7f	-0.051342484
15	0x3d1fcc96	0.039013468
16	0x3d6ba107	0.057526615
17	0xbd3dfc2c	-0.046383068
18	0xbc1cc198	-0.009567641
19	0x3c47f4e0	0.012204379
20	0xbaaaae42	-0.0013021904
21	0xbc5106a8	-0.012757935
22	0xbd31d2f2	-0.043414064
23	0x3d70360f	0.058645304
24	0x3d8a1ed0	0.06744158
25	0x3d151431	0.03639621
26	0x3d4c6e8e	0.04991012
27	0x3d0ba38f	0.03409153
28	0x3d4cee5d	0.05003201
29	0x3aae11c9	0.0013280447
30	0xbd46dcd2	-0.048550434
31	0x3cf5c190	0.029999524
32	0xbc833dfa	-0.016020764
33	0x3b0330c0	0.002001807
34	0xbd17921f	-0.037004586
35	0xbb68b3d4	-0.0035507577
36	0x3d8c47c7	0.06849628
37	0xb8358000	-4.3272972e-05
38	0xbcc869c9	-0.024464505
39	0x3d8608b3	0.06544628
40	0x3d5d5718	0.054038137
41	0x3cd8b8d4	0.02645532
42	0x3d8fc6ed	0.07020364
43	0x3d1c5642	0.0381682
44	0xbd26fd89	-0.040769134
45	0x3db5d72c	0.088789314
46	0x3c4527c9	0.012033411
47	0x3d10458c	0.035222575
48	0x3c496942	0.012293162
49	0xbb8d3d49	-0.0043102843
50	0x3d0f282e	0.034950428
51	0x3d230f16	0.03980931
52	0xbc4fe035	-0.012687732
53	0xbd580a1c	-0.052744016
54	0x3bf55595	0.007487009
55	0x3d3d68ab	0.046242397
56	0x3cb95f9f	0.022628604
57	0x3d9bd50d	0.076089956
58	0xbd1ef2f9	-0.038805936
59	0x3d1f653f	0.038914915
60	0x3dc015b1	0.09379137
61	0x3d64826b	0.05578844
62	0xbc44d4ee	-0.012013657
63	0x3db4d85e	0.08830331
64	0xbc904238	-0.0176097
65	0x3d429c41	0.047512297
66	0xbd49631b	-0.04916678
67	0x3d964163	0.0733669
68	0x3d0aadab	0.03385703
69	0xbce7f578	-0.02831529
70	0x3c0285f7	0.00796651
71	0x39e66e00	0.00043950975
72	0xbc9f0603	-0.019412046
73	0x3d22f3c6	0.03978326
74	0xbccf12e3	-0.02527756
75	0xbd425fa0	-0.047454476
76	0xbd8dedb0	-0.06930101
77	0xbc8a233c	-0.016862504
78	0x3ac67506	0.0015141077
79	0xbc9754ff	-0.018473146
80	0x3d0adb51	0.033900563
81	0x3db82f9c	0.08993456
82	0x3d921518	0.071329296
83	0x3d81e855	0.06343142
84	0x3d1b8e84	0.03797771
85	0x3d53f3de	0.05174624
86	0xbcce04e4	-0.025148816
87	0x3c261a00	0.010138035
88	0xbc8e6ef6	-0.017386895
89	0xbd856151	-0.06512702
90	0xbcf02d7f	-0.02931857
91	0xbcf4c6ac	-0.02987989
92	0x3d423e18	0.0474225
93	0xbcd110eb	-0.025520762
94	0xbd702234	-0.05862637
95	0x3d51cced	0.051220823
96	0x3ca1033d	0.019654864
97	0x3dc60fdd	0.096709944
98	0x3d8840cc	0.06652984
99	0x3cd43c7c	0.025907747
100	0xbdb241ed	-0.087039806
101	0x3d6a14c8	0.057148725
102	0x3c3e0f1b	0.011600281
103	0x3d8c3f8f	0.0684806
104	0xbcaae912	-0.02086309
105	0xbc3ed8a7	-0.011648334
106	0xbcf987a7	-0.030460192
107	0x3d91cbd0	0.07118952
108	0x3d325dc6	0.04354646
109	0xbc82c46c	-0.015962802
110	0xbc9a228d	-0.018815303
111	0x3d9c2f13	0.07626166
112	0x3d8b7904	0.06810191
113	0xbc3a65a9	-0.011376777
114	0x3cddfbdc	0.027097635
115	0xbc9274c5	-0.017877946
116	0x3d292926	0.041299008
117	0x3d52406e	0.051330976
118	0xbc004fcc	-0.007831525
119	0xbc6a4036	-0.014297536
120	0xbd578f1c	-0.052626714
121	0x3dcbaf5a	0.09945555
122	0xbc96b33a	-0.018396009
123	0x3d080936	0.03321191
124	0xbb8952e0	-0.0041907877
125	0x3dac4b7d	0.08412836
126	0xbcb39c68	-0.021925166
127	0x3c44c89a	0.012010718
128	0xbbf7f5bc	-0.0075671356
129	0xbc788eb0	-0.015170738
130	0x3cb23a1f	0.02175623
131	0x3cb8316f	0.02248451
132	0x3cf12370	0.029435843
133	0xbd587875	-0.05284925
134	0x3c31449a	0.010819579
135	0xbe56e32c	-0.20985097
136	0xbcb8fcbc	-0.02258145
137	0x3d2793d9	0.040912483
138	0x3d46f35c	0.04857193
139	0x3daa8a87	0.08327203
140	0xbcf9f930	-0.03051433
141	0x3d228d26	0.03968539
142	0xbcc23474	-0.023706652
143	0xbc920504	-0.017824657
144	0xbd02bcd4	-0.03191836
145	0x3c4f0ef8	0.012637846
146	0x3d7c2f0c	0.061568305
147	0x3d3a6143	0.045502912
148	0xbc35c620	-0.0110946
149	0x3bb2f0ec	0.005460849
150	0xbd9cdaa9	-0.076588936
151	0xbd7e5240	-0.06209016
152	0x3b3ae543	0.0028517998
153	0x3da94b95	0.08266369
154	0x3d3a2e91	0.045454565
155	0x3d8fa399	0.07013626
156	0x3bbdda9e	0.0057938835
157	0x3d62e2cc	0.05539207
158	0xbc70ac1f	-0.014689474
159	0xbcd5a9a4	-0.026081868
160	0x3dcf6c34	0.1012806
161	0xbd60765c	-0.054800376
162	0x3ce0b4c8	0.027429953
163	0x3d34f9a5	0.044183392
164	0xbd084f82	-0.03327895
165	0x3d25545b	0.04036365
166	0x3c7c5192	0.015400307
167	0x3cb31864	0.021862216
168	0xbb192d7d	-0.002337306
169	0x3c4aa098	0.01236739
170	0xbb906cf0	-0.0044075176
171	0xbb8b47da	-0.0042505087
172	0x3d544dd4	0.051832035
173	0xbd402adc	-0.046915874
174	0x3d689554	0.056783035
175	0x3c9564f4	0.018236615
176	0x3d030bb9	0.0319936
177	0xbd4b8a63	-0.049692523
178	0x3c802860	0.015644252
179	0xbcb100b5	-0.021606782
180	0xbd7dc9f9	-0.061960194
181	0x3d2db5a1	0.042409543
182	0x3cb94a7c	0.022618525
183	0x3d2dafc2	0.042403944
184	0x3d8dbe4a	0.069210604
185	0x3d21a9f9	0.03946874
186	0x3dca00d5	0.0986344
187	0xbd37cd9a	-0.04487381
188	0x3d200d5a	0.039075233
189	0x3d23fe2b	0.040037315
190	0xbc0c0085	-0.008545046
191	0xbafe0a8a	-0.0019381803
192	0xbd2293aa	-0.039691605
193	0xbd0731b0	-0.03300637
194	0xbd31feb6	-0.043455802
195	0xbd4bdb4d	-0.04976969
196	0x3b968fb0	0.0045947656
197	0x3db02ca2	0.08602263
198	0x3d48b3ca	0.048999585
199	0x3d4cb3bf	0.049976107
200	0x3d1a3419	0.03764734
201	0x3e17c5fd	0.1482162
202	0x3b7164b1	0.0036833698
203	0xbd476bc5	-0.04868676
204	0xbac8948f	-0.0015303063
205	0x3d626fa0	0.055282235
206	0x3c6b4f70	0.014362201
207	0x3ceb4621	0.028719964
208	0x3ca318d6	0.019909304
209	0x3d296bcc	0.04136257
210	0x3b96b2e6	0.004598963
211	0xbcd6337d	-0.026147598
212	0xbd103af6	-0.03521248
213	0x3d9d9f01	0.07696343
214	0x3c60477a	0.013688916
215	0x3c8f3c14	0.017484702
216	0x3cd9cfe1	0.026588382
217	0xbb681180	-0.0035410821
218	0xbb69e1d0	-0.0035687573
219	0x3ce0f132	0.02745876
220	0xbd1c9968	-0.038232237
221	0xbc6fb7b0	-0.014631197
222	0xbce91a18	-0.028454825
223	0xbd74effe	-0.059799187
224	0x3d29aa22	0.041422017
225	0xbcd3e457	-0.025865717
226	0xbc4a0950	-0.012331322
227	0x3d5d7cc5	0.054074068
228	0x3c59f09b	0.013301994
229	0x3d74fd2c	0.059811756
230	0x3d1a5f7f	0.03768873
231	0x3d4d360a	0.050100364
232	0xbd639078	-0.055557698
233	0xbd19da1c	-0.03756152
234	0xbd12375e	-0.035697334
235	0xbca24128	-0.01980646
236	0xbd21ca2b	-0.039499443
237	0x3c9b1bd5	0.01893417
238	0xbd690ef4	-0.056899026
239	0x3d4ddc83	0.050259124
240	0xbd0b14d8	-0.033955425
241	0xbcb69ef4	-0.022292592
242	0x3d2577b5	0.040397365
243	0xbd76a538	-0.06021616
244	0x3c2528c7	0.010080523
245	0x3d0579a3	0.032586705
246	0x3d1b3e60	0.037901282
247	0x3bc84311	0.0061115106
248	0x3cfb9c0e	0.030714061
249	0x3cbf1a99	0.023328112
250	0xbcef5212	-0.029213939
251	0x3d4d3199	0.050096128
252	0xbdc4787f	-0.09593295
253	0xbc88552c	-0.016642176
254	0xbd73028a	-0.059328593
255	0x3da9f24e	0.08298169

net2.4.bias f4 [256]
0	0x3ca35f26	0.019942831
1	0xbccd47bd	-0.025058622
2	0x3d256735	0.04038163
3	0x3d8e8362	0.06958653
4	0xbc1a2b98	-0.009409808
5	0xbc908f7d	-0.017646546
6	0xbca764a7	-0.020433737
7	0xbc8d8a14	-0.017277755
8	0x3c04bf9e	0.008102326
9	0x3b093b61	0.0020939934
10	0xbaca01f6	-0.0015411961
11	0x3cf1a294	0.029496469
12	0x3d272948	0.040810853
13	0x3d4ed0c8	0.050492078
14	0xbcf35b3c	-0.02970659
15	0x3d87be9c	0.06628153
16	0x3d4f7912	0.05065257
17	0x3c8164c5	0.015795121
18	0x3d10ffdd	0.03540026
19	0x3d24150b	0.04005913
20	0xbd2cd08b	-0.04219107
21	0x3c95d068	0.018287852
22	0x3d10d950	0.035363495
23	0xbccf1daf	-0.025282709
24	0xbd0292c5	-0.03187825
25	0xbd47c250	-0.048769295
26	0xbbf26058	-0.007396739
27	0x3d35f1a3	0.044419896
28	0xbcb15d8d	-0.021651054
29	0x3cb328ab	0.021869978
30	0xbc9b1813	-0.018932378
31	0x3d73d498	0.059528917
32	0x3a110b51	0.00055329973
33	0xbd4351e9	-0.047685537
34	0xbd67dbe4	-0.05660619
35	0xbc48a2f8	-0.012245886
36	0x3d15cbef	0.03657144
37	0x3c90ce78	0.017676577
38	0xbd046e95	-0.03233202
39	0x3cf77d65	0.03021116
40	0xbc82541c	-0.015909247
41	0x3c6dc039	0.0145111615
42	0x3d108157	0.035279598
43	0x3d6d8005	0.057983417
44	0xbd6c89ce	-0.05774861
45	0x3d279e6e	0.040922575
46	0x3d634cec	0.05549328
47	0xbd14d543	-0.036336195
48	0xbd49561e	-0.049154393
49	0x3d6ce228	0.057832867
50	0xbd2f8d3f	-0.042859312
51	0x3d2cf5ce	0.042226605
52	0x3c598304	0.013275865
53	0x3d71ac29	0.059002075
54	0xbd2c7e49	-0.042112622
55	0x3d86a471	0.065743335
56	0xbb712a88	-0.0036799032
57	0x3cea54e8	0.02860494
58	0x3c525534	0.012837697
59	0x3d0243e2	0.03180302
60	0xbcbd9aab	-0.02314504
61	0x3ba99d40	0.0051762164
62	0x3d32eaab	0.043680828
63	0x3bab6402	0.0052304277
64	0xbd4af474	-0.049549535
65	0xbd66b24d	-0.056322385
66	0xbd1d45c2	-0.038396604
67	0xbb6494be	-0.0034878696
68	0x3c9c0331	0.01904449
69	0xbc863bf0	-0.016386002
70	0x3d29b9d7	0.041436996
71	0x3c048ae0	0.008089751
72	0xbd4aca20	-0.049509168
73	0x3d597e44	0.053098932
74	0x3d5774e0	0.052601695
75	0x3c695ca0	0.014243275
76	0xbc8bb881	-0.017055752
77	0x3d611c00	0.054958344
78	0xbd3ab92a	-0.045586742
79	0x3d22c294	0.039736345
80	0x3d007d3f	0.031369444
81	0x3d087f33	0.03332443
82	0x3c2c0e93	0.010501522
83	0xbce93f53	-0.028472578
84	0x3c841077	0.016121132
85	0xbd4e316c	-0.0503401
86	0x3cdb99e7	0.026806785
87	0xbd5eaafc	-0.054362282
88	0xbd09c14a	-0.0336316
89	0x3ce5a093	0.02803067
90	0xbcc93576	-0.024561625
91	0xbc949daf	-0.018141596
92	0x3d85882b	0.065201126
93	0xbc245955	-0.010031064
94	0x3ce0af4b	0.027427336
95	0x3d4b5888	0.049644977
96	0xbce46a3c	-0.027882688
97	0xbcfd6e88	-0.030936494
98	0x3bc2e93e	0.005948215
99	0x3ca53429	0.020166473
100	0xbcb94380	-0.022615194
101	0xbd74750e	-0.059681945
102	0xbd3a9d3c	-0.045560107
103	0x3d724e17	0.059156504
104	0x3cb4fc4e	0.022092965
105	0x3caf2b38	0.021382913
106	0xbc89e6a4	-0.01683361
107	0xbd121232	-0.035661884
108	0x3d30dd00	0.043179512
109	0x3d4cc086	0.049988292
110	0xbd1c70d3	-0.038193535
111	0x3d1ee830	0.03879565
112	0x3c5cac5c	0.013468828
113	0x3d628715	0.055304606
114	0xbd5e5272	-0.054277845
115	0xbc668daa	-0.014071861
116	0x3d16e5db	0.0368403
117	0x3b6f9800	0.0036559105
118	0x3cdb1da8	0.02674754
119	0x3d5e4b91	0.054271284
120	0x3d8a1267	0.06741791
121	0x3d9108aa	0.07081731
122	0xbd43f114	-0.047837332
123	0xbacee39f	-0.0015784389
124	0x3d931154	0.071810395
125	0x3c028c32	0.0079679955
126	0xbd54ef3c	-0.051985964
127	0xbd088bb1	-0.033336345
128	0x3d3d94e7	0.046284582
129	0xbc078104	-0.008270506
130	0xbc77f7f0	-0.0151347965
131	0xbc9034bf	-0.017603276
132	0xbd1c46f6	-0.03815361
133	0xbc54c70c	-0.01298691
134	0x3d60d2ef	0.054888662
135	0xbd2ae6c7	-0.041723993
136	0x3d0740b5	0.033020694
137	0xbc3cdfe2	-0.011527987
138	0x3c9d49a8	0.019200161
139	0xbcf6b7ed	-0.030117
140	0x3d488070	0.048950613
141	0xbd33232a	-0.043734707
142	0xbbe66eca	-0.00703225
143	0x3cae03af	0.02124199
144	0xbd67b276	-0.056566678
145	0xbbde7860	-0.006789252
146	0x3c53fe5c	0.012939062
147	0x3cd95bc4	0.026533015
148	0xbc3e7ebd	-0.011626896
149	0x3d649057	0.055801716
150	0x3c6c8ccf	0.014437868
151	0x3bcd77e5	0.006270396
152	0xbd093893	-0.03350122
153	0x3d268679	0.040655587
154	0x3c90ace8	0.017660573
155	0xbd10b9e5	-0.035333533
156	0xbd821741	-0.063520916
157	0x3c649d2a	0.013953486
158	0xbc42b326	-0.011883533
159	0xbce6e11c	-0.028183512
160	0x3d66ec68	0.0563778
161	0xbc9e75d9	-0.019343304
162	0x3b256226	0.0025235503
163	0x3d3857ee	0.04500573
164	0x3d10ba69	0.035334025
165	0xbbd430e2	-0.006475554
166	0x3d0790b2	0.033096977
167	0x3d676b6e	0.056498937
168	0x3cbf704c	0.023368977
169	0xbcf1f8cc	-0.02953758
170	0x3c951842	0.018200044
171	0x3d6447dd	0.055732597
172	0x3d16fa19	0.036859605
173	0x3d2429df	0.040078994
174	0xbc963090	-0.018333703
175	0x3c4df182	0.012569787
176	0xbd1927c5	-0.037391443
177	0x3b6f6863	0.0036530725
178	0x3d22d2d6	0.03975185
179	0x3cfbad09	0.030722158
180	0x3c806ef9	0.015677916
181	0x3d17c8d7	0.03705677
182	0x3d9e828a	0.07739742
183	0xbce20039	-0.027587997
184	0xbcddcf34	-0.027076341
185	0x3d4dd33c	0.050250277
186	0x3c300bc0	0.010744989
187	0xbd863e26	-0.065548226
188	0x3d14c0b3	0.036316585
189	0xbccfa5e0	-0.02534765
190	0x3ccc26db	0.024920871
191	0x3cb3ef50	0.021964699
192	0x3cda0aa3	0.0266164
193	0x3d32aa17	0.04361924
194	0x3d0bb8a6	0.03411164
195	0x3ce6102f	0.028083889
196	0x3aa74320	0.0012761094
197	0xbd6523a7	-0.055942204
198	0xbd282597	-0.041051473
199	0xbd1eb690	-0.038748324
200	0x3c28d055	0.0103035765
201	0xbce50358	-0.027955696
202	0xbc43d88e	-0.011953486
203	0x3ca9c850	0.0207254
204	0xbd7062b2	-0.058687873
205	0xbc944154	-0.018097557
206	0xbc47c667	-0.012193299
207	0x3d193c64	0.03741111
208	0x3d67e323	0.0566131
209	0xbd0c87c2	-0.034309156
210	0xbbbd3377	-0.0057739574
211	0x3d08a95a	0.03336463
212	0xbd3fff18	-0.046874136
213	0xbd45d5a0	-0.04829943
214	0x3d31bbb3	0.043391895
215	0xbc318ffa	-0.010837549
216	0xbd10a71d	-0.03531562
217	0xbd6ced48	-0.057843477
218	0xbc102009	-0.0087967
219	0x3d5c29a2	0.05375064
220	0x3c8a7e2d	0.016905868
221	0x3d1febcb	0.03904323
222	0x3d1d98f4	0.038475946
223	0xbc5639d7	-0.0130753135
224	0xbc702fa8	-0.0146598
225	0x3bcec240	0.0063097775
226	0xbd05cd0c	-0.03266625
227	0xbd48128c	-0.048845813
228	0x3cf88bd4	0.030340113
229	0x3cbdced6	0.023169916
230	0x3d2117f0	0.03932947
231	0xbd721b0a	-0.059107818
232	0xbc535993	-0.012899774
233	0xbd1721c0	-0.03689742
234	0x3d2a6a9a	0.04160557
235	0xbcd7c4a3	-0.02633888
236	0xbcd5dec2	-0.026107196
237	0x3c13a863	0.0090123145
238	0xbb71febc	-0.0036925515
239	0xbc963bc8	-0.018339053
240	0x3bfc9100	0.007707715
241	0x3c340684	0.010987882
242	0x3d065d41	0.032803778
243	0x3d168c88	0.036755115
244	0x3d61f94b	0.055169385
245	0x3cf4a51d	0.029863888
246	0xbb6449a3	-0.003483393
247	0xbd01adc4	-0.031659856
248	0x3d111754	0.035422638
249	0xbd742966	-0.059609793
250	0xbd28e845	-0.041237134
251	0x3d245d9c	0.040128335
252	0x3d50da9f	0.050989743
253	0x3cfc1fc6	0.03077687
254	0xbccd493f	-0.02505934
255	0xbd08e113	-0.033417773

net2.6.weight f4 [2, 256]
0	0xbd149fca	-0.0362852
1	0x3d9a0785	0.075209655
2	0x3d1ddbb9	0.038539622
3	0xbd58b2d0	-0.052904904
4	0x3ce52994	0.027973928
5	0xbcb095d6	-0.021555822
6	0xb9d789cd	-0.00041110665
7	0xbd16a79e	-0.036780946
8	0xbd7a6bce	-0.061137967
9	0x3d453da1	0.048154477
10	0xbd943d6f	-0.0723828
11	0xbd3f35f8	-0.046682328
12	0x3d66a732	0.056311794
13	0xbcdd2aa8	-0.02699788
14	0x3d7803ba	0.06055043
15	0x3dafb9f2	0.08580388
16	0x3d57588a	0.05257467
17	0xbc44dc95	-0.0120154815
18	0x3d5d8068	0.054077536
19	0xbc73b788	-0.0148753
20	0x3b307b2f	0.0026928892
21	0x3c635076	0.013874164
22	0x3cf29cc0	0.02961576
23	0x3d3ea4c7	0.046543863
24	0xbcd2858f	-0.025698451
25	0xbd8c5b84	-0.06853393
26	0xbc245950	-0.010031059
27	0xbd5723f4	-0.052524522
28	0xbd96ed9e	-0.07369541
29	0xbd8c4c07	-0.068504386
30	0xbc791be0	-0.0152044
31	0xbd423c24	-0.047420636
32	0x3db501ba	0.0883822
33	0x3d857d4e	0.065180406
34	0x3ccfb045	0.025352607
35	0x3d4a0ecc	0.049330518
36	0x3d5c55e0	0.053792834
37	0xbd43504a	-0.04768399
38	0xbd6916ac	-0.056906387
39	0xbcd28200	-0.025696754
40	0x3d27198a	0.04079584
41	0x3db1d8ab	0.08683904
42	0xbd36b6a3	-0.04460777
43	0x3f3c2745	0.7349742
44	0x3cfef508	0.0311227
45	0x3d3dde8e	0.046354823
46	0xbd58976a	-0.052878775
47	0x3d66ae3f	0.056318518
48	0x3d0cd6e0	0.03438461
49	0xbd768416	-0.06018456
50	0xbd28439c	-0.041080102
51	0xbd29e125	-0.04147448
52	0xbcd7247c	-0.026262514
53	0xbd10b2b3	-0.03532667
54	0x3cc23781	0.023708107
55	0x3f1b048f	0.6055383
56	0xbd07dfb9	-0.033172343
57	0x3caec7f1	0.021335574
58	0xbd15c8c5	-0.036568422
59	0x3c56f11c	0.013119008
60	0x3d0cc5e0	0.034368396
61	0x3d73d924	0.059533253
62	0x3ef2d6a4	0.47429383
63	0x3d64536f	0.05574363
64	0xbc9562d8	-0.018235609
65	0x3c916e75	0.017752865
66	0xbcc88ed6	-0.024482172
67	0xbbf6140b	-0.0075097135
68	0xbd2f56e6	-0.042807482
69	0x3e004816	0.12527499
70	0x3db1948c	0.08670911
71	0xbd617664	-0.055044547
72	0x3bc3c990	0.005974956
73	0x3d653bd7	0.05596527
74	0xbd32d1c8	-0.043657094
75	0x3d20a460	0.03921926
76	0xbd05a658	-0.03262934
77	0xbc80e3f0	-0.01573369
78	0xbd1930de	-0.03740012
79	0xbca8dbf1	-0.020612689
80	0x3d5d75c1	0.054067377
81	0xbc868aaf	-0.016423551
82	0xbd76c89e	-0.060249917
83	0xbd87a44c	-0.06623134
84	0x3cc33ffb	0.02383422
85	0x3d72f10b	0.059311908
86	0x3ef2971c	0.47380912
87	0xbd74f2c4	-0.05980183
88	0x3d16b671	0.036795083
89	0xbd70dd3b	-0.05880473
90	0x3d1a0139	0.037598822
91	0x3d0a2620	0.033727765
92	0x3f08e199	0.53469235
93	0x3d26d001	0.04072571
94	0x3d639610	0.055563033
95	0x3d2902aa	0.041262306
96	0x3f41886f	0.75598806
97	0x3ca21460	0.019785106
98	0xbd15cab2	-0.03657026
99	0x3da5edbc	0.08101985
100	0xbca23ba8	-0.019803837
101	0xbd5cf088	-0.053940326
102	0x3d3bc05c	0.045837745
103	0x3d38ceea	0.045119204
104	0xbcf749c6	-0.030186545
105	0xbce97d28	-0.028502062
106	0x3d206f24	0.039168492
107	0x3d4887a6	0.04895749
108	0xbd5800ab	-0.052735012
109	0xbd92faaa	-0.071767166
110	0xbd368b3b	-0.044566374
111	0x3db7fb42	0.089834705
112	0xbd7335c4	-0.059377447
113	0x3d0f5a65	0.034998316
114	0xbd721f20	-0.059111714
115	0x3d49d3a9	0.04927412
116	0xbd862e3e	-0.06551789
117	0x3d288ac2	0.041147955
118	0xbc6e2058	-0.014534079
119	0x3d5cd95e	0.053918235
120	0xbd3887b6	-0.0450513
121	0x3e7ef7bd	0.24899192
122	0x3dc6a874	0.09700099
123	0xbca309f8	-0.019902214
124	0x3e0738b2	0.13205221
125	0xbd0d467d	-0.03449105
126	0x3d112892	0.03543908
127	0x3e03e71b	0.12881128
128	0xbd4d8dd4	-0.050184086
129	0xbd145d56	-0.036221825
130	0x3d1db70c	0.038504645
131	0x3c073bf0	0.008254036
132	0xbc2e1a60	-0.0106264055
133	0xbd152475	-0.03641172
134	0x3dbcdce0	0.09221816
135	0x3ccc9cc6	0.0249771
136	0xba7f7607	-0.00097450655
137	0xbd202316	-0.03909596
138	0xbbfe8cb3	-0.0077682375
139	0x3d45b0f8	0.048264474
140	0x3c8bb7cc	0.017055415
141	0xbd5f45d9	-0.05450997
142	0x3c0e27af	0.0086764535
143	0xbd85b2cc	-0.065282434
144	0xbd1a596c	-0.037682936
145	0x3ceb4410	0.028718978
146	0xbd86c008	-0.06579596
147	0x3c22d758	0.009939037
148	0x3f2bfcb6	0.6718248
149	0x3d126dd1	0.03574926
150	0x3c6279cc	0.013822984
151	0x3ddb3a0c	0.10704431
152	0xbd0c0c8f	-0.034191664
153	0xbd29448a	-0.04132513
154	0x3db4f994	0.08836666
155	0xbcc5c326	-0.024140906
156	0xbdc7ebb4	-0.09761754
157	0xbd802f64	-0.06259039
158	0x3deb8175	0.11499301
159	0x3c8489bc	0.016178958
160	0xbd8b851f	-0.068125
161	0xbd376dcf	-0.044782456
162	0x3d5c0d58	0.053723663
163	0xbd48fa13	-0.049066614
164	0xbd576f8b	-0.05259661
165	0xbcded77b	-0.027202358
166	0xbdbd78c4	-0.0925155
167	0xbd936d75	-0.07198612
168	0xbce2604f	-0.027633814
169	0xbd063936	-0.032769404
170	0xbd3f9942	-0.046777017
171	0x3d63efe1	0.05564869
172	0x3cc6d5f9	0.024271952
173	0xbc9d622e	-0.019211855
174	0xbd2bf131	-0.041978065
175	0x3d3e5b55	0.04647382
176	0x3ea58d52	0.3233438
177	0x3cd3816b	0.025818547
178	0x3d6b2f3a	0.057418086
179	0x3cae2d45	0.02126182
180	0xbcbcaeb8	-0.023032531
181	0x3eff922f	0.49916217
182	0xbd4fb49f	-0.050709363
183	0x3c283ef5	0.010268916
184	0xbd7be0c8	-0.061493665
185	0x3d004b55	0.031321842
186	0xbcae14cc	-0.021250151
187	0x3cccd82a	0.025005419
188	0x3b9e9b49	0.004840289
189	0x3d136354	0.0359834
190	0x3dcdb7f3	0.10044851
191	0x3d8af1c1	0.06784392
192	0x3d61b6f4	0.05510612
193	0xbceda8ba	-0.02901112
194	0xbd17b43f	-0.03703713
195	0xbd090e7f	-0.03346109
196	0x3f002929	0.50062805
197	0x3d02643d	0.031833876
198	0x3f01835e	0.50591075
199	0xbc707cc0	-0.01467818
200	0x3d609c1d	0.05483638
201	0x3dfbd1e7	0.12295895
202	0x3c92a19a	0.017899323
203	0xbcb5c089	-0.022186534
204	0x3d51bd12	0.051205702
205	0xbd763994	-0.060113505
206	0x3f1bd798	0.60875845
207	0xbd0d209f	-0.034454938
208	0x3cd5a4c7	0.026079549
209	0x3d16f48a	0.036854304
210	0xbb7cb734	-0.0038561346
211	0xbd1c6714	-0.03818424
212	0xbd92ec93	-0.07174029
213	0xbdafac7a	-0.08577819
214	0x3d1474af	0.03624409
215	0x3c447b42	0.011992278
216	0x3cc57eff	0.024108408
217	0x3cad26f8	0.021136746
218	0xbd1a1ddf	-0.037626144
219	0x3c5f3c08	0.013625152
220	0xbd3778c1	-0.044792894
221	0xbd55a8ad	-0.052162815
222	0x3d293885	0.041313667
223	0x3d56f53e	0.052479975
224	0x3d208fde	0.039199702
225	0xbd5dc046	-0.054138444
226	0xbd3f6638	-0.046728343
227	0xbcc9be38	-0.024626836
228	0xbd4beb34	-0.049784854
229	0x3e20a487	0.15687762
230	0xbdba6d84	-0.0910292
231	0xbcf1e234	-0.029526807
232	0xbd5078a8	-0.050896317
233	0x3d60c01d	0.054870714
234	0x3df1f378	0.11814016
235	0x3d66fd34	0.056393817
236	0x3c23218e	0.0099567305
237	0xbc9c6355	-0.019090334
238	0xbd5bddf7	-0.05367848
239	0xbd72af15	-0.059249002
240	0x3d3c48e6	0.04596796
241	0xbd324dfd	-0.043531407
242	0x3db98841	0.090591915
243	0xbd9837d4	-0.07432523
244	0xbcd7b575	-0.026331643
245	0xbd42c89b	-0.047554594
246	0xbd40f010	-0.04710394
247	0xbd42a948	-0.04752472
248	0x3efba56f	0.49149653
249	0x3d0c99fe	0.034326546
250	0x3daa2144	0.08307126
251	0x3d60cf65	0.054885287
252	0xbd27d28b	-0.040972274
253	0xbd5a8db2	-0.053357787
254	0xbd86ff93	-0.06591716
255	0x3d67d79b	0.0566021
