training/save_ddpg_weights/DDPG_R1_actor_network_s1.pt (torch, 734843 bytes, 13 tensors)

net1.0.weight f4 [3, 1, 3, 3]
0	0xbde4bf77	-0.111693315
1	0x3e11a245	0.14222057
2	0x3e6fc3f4	0.23414594
3	0x3d8b3787	0.067977004
4	0x3d8affe8	0.067870915
5	0x3e97d0a1	0.2965136
6	0x3e7c151d	0.24617429
7	0x3e85ab6a	0.2610734
8	0x3e9c92e5	0.30580822
9	0x3e47a083	0.19494824
10	0x3e2d7386	0.169386
11	0xbea4760e	-0.3212132
12	0xbe41f21e	-0.18940017
13	0x3e8ed3a2	0.27895838
14	0xbea7e9c2	-0.3279553
15	0x3d081e8b	0.033232253
16	0xbcf7de56	-0.030257385
17	0x3e20305e	0.1564345
18	0x3e19fa53	0.15036897
19	0xbe292d48	-0.1652118
20	0xbea5c90a	-0.32379943
21	0x3da92416	0.08258836
22	0x3e4f9833	0.20272903
23	0xbd06dc0b	-0.032924693
24	0x3e2f21e6	0.17102775
25	0xbe86adf4	-0.2630459
26	0xbe5cfd2e	-0.21580955

net1.0.bias f4 [3]
0	0x3e56e0e3	0.20984225
1	0xbe6b1a06	-0.22959146
2	0xbe2184b3	-0.15773277

net1.2.weight f4 [3, 3, 2, 2]
0	0xbdbdafa6	-0.09262018
1	0xbd5b14be	-0.05348658
2	0x3e13f46c	0.14448708
3	0xbe8f71c8	-0.28016496
4	0x3e50b6b5	0.20382197
5	0x3e2f9c7a	0.17149535
6	0x3e1110a6	0.14166507
7	0x3db635ee	0.08897005
8	0x3dc6f45c	0.097145766
9	0xbe69316e	-0.22772762
10	0x3dbfcbfa	0.09365077
11	0x3e603956	0.21896872
12	0xbe5ff87d	-0.21872135
13	0x3e14a6ba	0.14516726
14	0x3e9417f2	0.2892452
15	0x3e88adf2	0.2669521
16	0x3e193429	0.14961304
17	0xbcd24282	-0.025666479
18	0xbe82bd15	-0.25534883
19	0xbe87041c	-0.26370323
20	0x3e908cb2	0.28232342
21	0xbe299c83	-0.1656361
22	0x3e1be71f	0.15224884
23	0xbbb50cd0	-0.005525209
24	0xbdbe58d9	-0.0929429
25	0xbe35566a	-0.17708746
26	0x3e160aea	0.14652601
27	0x3e8fa0f2	0.2805248
28	0xbe296155	-0.16541035
29	0xbd6d96d7	-0.05800518
30	0xbe901a7a	-0.281452
31	0xbe89a7a0	-0.268857
32	0x3e2a304b	0.16619985
33	0x3e6c75fc	0.23091882
34	0x3d5126d9	0.05106244
35	0x3e92e213	0.28688106

net1.2.bias f4 [3]
0	0xbd11399b	-0.035455327
1	0xbd278ab1	-0.04090375
2	0xbe271ff0	-0.16320777

net1.4.weight f4 [1, 3, 2, 2]
0	0x3e3d62a3	0.18494658
1	0x3e26a2c9	0.16273035
2	0x3d1c5e82	0.038176067
3	0xbe1906d4	-0.14944011
4	0x3e961015	0.29309145
5	0x3e0179e7	0.12644158
6	0x3e04a0f8	0.1295203
7	0x3ce655f1	0.028117152
8	0x3dd08b4a	0.10182817
9	0x3e4de8d2	0.20108345
10	0xbe435a19	-0.19077338
11	0xbc87d78a	-0.01658227

net2.0.weight f4 [256, 196]
0	0x3d80dbab	0.06291898
1	0xbb437c25	-0.0029828635
2	0xbd739005	-0.05946352
3	0x3d4c82ca	0.049929418
4	0xbca3cec0	-0.019996047
5	0x3c91a3ce	0.017778303
6	0x3bc60b5c	0.0060438346
7	0xbd0a5113	-0.033768725
8	0xbd0f5b70	-0.03499931
9	0xbd59f117	-0.053208437
10	0x3d1576c7	0.036490228
11	0x3b49cddc	0.0030792868
12	0xbd5f109a	-0.05445919
13	0x3cfba24e	0.030717041
14	0x3d77b978	0.06047961
15	0xbd92274f	-0.07136404
16	0xbc932737	-0.017963035
17	0xbd857437	-0.06516307
18	0x3ce3ef81	0.027824165
19	0xbc2b8337	-0.010468296
20	0xbd65173e	-0.05593037
21	0x3d6aee88	0.057356387
22	0x3d39c12c	0.04535024
23	0xbd14ed4a	-0.03635911
24	0xbd5ac0a5	-0.053406376
25	0x3d2c9611	0.042135302
26	0xbc471ddc	-0.012153115
27	0xbd8b165e	-0.067913756
28	0xbd251173	-0.040299844
29	0xbd4e1cee	-0.05032056
30	0x3d4f1881	0.050560478
31	0x3c707193	0.014675516
32	0xbd6582e3	-0.056033026
33	0x3d75e9e8	0.060037524
34	0x3d23541c	0.039875135
35	0x3b983fa5	0.004646259
36	0xbd0b00b7	-0.03393623
37	0xbc3426b7	-0.010995558
38	0xbc968cd3	-0.018377697
39	0xbcecf2d8	-0.02892439
40	0xbd5ea1c1	-0.05435348
41	0xbc8eed6a	-0.017447192
42	0xbd7baeac	-0.061445877
43	0xbd8cb416	-0.06870286
44	0x3d5cbc33	0.05389042
45	0x3b33b14a	0.0027418905
46	0xbd74aa6c	-0.05973284
47	0xbd856903	-0.0651417
48	0xbd1ce1bc	-0.038301215
49	0x3cac6337	0.021043403
50	0xbd0910d7	-0.033463325
51	0xbd822b84	-0.06355956
52	0x3cb9e5dc	0.022692613
53	0xbc946317	-0.018113656
54	0xbd05d01c	-0.03266917
55	0x3cadd021	0.021217408
56	0x3cb019a5	0.021496603
57	0xbcf9d01c	-0.030494742
58	0x3d622695	0.055212576
59	0x3d754bea	0.05988685
60	0x3c0f4193	0.008743661
61	0x3c9cd8d3	0.019146359
62	0xbd90a57c	-0.07062814
63	0xbd6139a8	-0.054986626
64	0x3d384d47	0.044995572
65	0xbd653eb8	-0.055968016
66	0xbcf09f0a	-0.02937271
67	0x3be82681	0.007084668
68	0xbd34c771	-0.044135515
69	0x3ccac46e	0.024751868
70	0xbd57e885	-0.052711982
71	0xbd21bb80	-0.039485455
72	0xbcc9ea21	-0.024647774
73	0xbd2f87da	-0.042854168
74	0xbd348fa7	-0.04408231
75	0xbc5c3fe5	-0.013442968
76	0xbd5713da	-0.052509166
77	0x3cf31461	0.029672803
78	0xbd5e35f3	-0.05425067
79	0xbcc69c85	-0.024244556
80	0xbc8fe517	-0.017565293
81	0x3cafeebc	0.021476142
82	0x3d836e55	0.064175285
83	0x3d606e6c	0.054792807
84	0x3d920162	0.0712917
85	0x3d32eac5	0.043680925
86	0xbcc02b85	-0.023458252
87	0x3cad6a13	0.021168744
88	0xbc7d5aa5	-0.015463506
89	0x3d1707ba	0.036872603
90	0xbca59fb7	-0.02021776
91	0xbd7ea6cc	-0.06217079
92	0xbd59b8de	-0.05315482
93	0xbd2b8325	-0.041873116
94	0x3d857b75	0.06517688
95	0xbd65c3bc	-0.05609487
96	0xbbb149ca	-0.0054104077
97	0xbcff02fc	-0.031129353
98	0xbd0dcbb5	-0.0346181
99	0x3cbb4d3c	0.022863977
100	0xbd8ea1f4	-0.06964484
101	0x3cff0a1c	0.03113275
102	0xbcdd4ddc	-0.027014665
103	0x3ce8df45	0.028426776
104	0xbd3d0ef5	-0.046156842
105	0x3d6feb9a	0.058574297
106	0xbd050d35	-0.0324833
107	0xbd6e8745	-0.05823447
108	0xbd66cdda	-0.05634866
109	0x3c21f32e	0.009884639
110	0xbd8951d4	-0.067050606
111	0x3d7e9d55	0.062161762
112	0xbb68e993	-0.0035539612
113	0x3d26cc1a	0.04072199
114	0x3c6f51b8	0.014606886
115	0x3c079800	0.008275986
116	0x3d2fb79e	0.04289972
117	0x3a13aa4a	0.000563298
118	0x3d13eaae	0.03611248
119	0xbd869c4e	-0.065727815
120	0x3cf03841	0.029323699
121	0x3c9b8af7	0.018987162
122	0x3c1c441c	0.009537723
123	0xbd83f58d	-0.064433195
124	0xbcaa96e5	-0.020823905
125	0xbaa7db6e	-0.0012806484
126	0x3d8b4422	0.06800105
127	0xbca8fc93	-0.02062825
128	0x3d36777c	0.044547543
129	0x3d8dabe8	0.06917554
130	0xbd87c8d6	-0.06630103
131	0x3d3eec9a	0.04661236
132	0xbd271a47	-0.040796544
133	0xbd9173bd	-0.071021535
134	0x3d3c509a	0.045975305
135	0xbd36c843	-0.04462458
136	0x3be94901	0.0071192984
137	0x3aefea93	0.0018304161
138	0xbbd9c625	-0.006645935
139	0x3d4c2a3e	0.049844973
140	0xbc7f8c4a	-0.015597412
141	0xbd8904a8	-0.06690341
142	0x3b2c3101	0.0026274326
143	0x3bd0dc37	0.006373908
144	0xbc266bdc	-0.010157552
145	0xbd6a48ca	-0.057198323
146	0x3d78ad4e	0.06071215
147	0x3ac185b7	0.0014764582
148	0xbbdb416e	-0.0066911494
149	0x3d5b1405	0.05348589
150	0xbd52dfa1	-0.0514828
151	0xbd5ccdc8	-0.053907186
152	0xbcd3b217	-0.025841756
153	0xbd2e5f07	-0.042571094
154	0xbb60f225	-0.0034324017
155	0xbd4b5527	-0.049641754
156	0x3c2e781c	0.0106487535
157	0x3d5823e5	0.052768607
158	0xbcf01bce	-0.029310133
159	0x3d2d9017	0.042373743
160	0x3c8633b3	0.016382074
161	0xbc276777	-0.010217539
162	0xbd0d79ee	-0.03454011
163	0xbd4daee7	-0.050215628
164	0xbc892813	-0.016742742
165	0xbd149a83	-0.036280166
166	0x3d153c5a	0.03643451
167	0x3d12c297	0.035830107
168	0xbc5d67ae	-0.013513489
169	0xbc8db50e	-0.017298248
170	0x3d60590a	0.054772414
171	0x3bcaeb93	0.0061926334
172	0x3d065f8a	0.032805957
173	0xbc296653	-0.010339337
174	0x3d2061a3	0.039155614
175	0xbc9e1733	-0.019298172
176	0x3d0b4a2c	0.034006283
177	0x3d4f129e	0.050554864
178	0xbcfeaa3c	-0.031087033
179	0x3cedff18	0.029052302
180	0x3d3c77c3	0.04601265
181	0xbcca2e5c	-0.024680309
182	0x3c9c8717	0.019107385
183	0x3d8acd2a	0.06777413
184	0x3d1787d3	0.036994766
185	0x3cb65ed7	0.02226202
186	0x3aee204a	0.0018167582
187	0xbd79d72e	-0.060996227
188	0x3d0a7c2e	0.033809833
189	0x3c437cae	0.011931581
190	0xbd65597c	-0.055993542
191	0xb9abd925	-0.00032777447
192	0xbc8b445c	-0.01700037
193	0xbd45ab2e	-0.048258953
194	0xbccdde45	-0.0251304
195	0xbc76719c	-0.015041735
196	0xbd09a34c	-0.033602998
197	0x3d3ab945	0.045586843
198	0xbd1008b5	-0.035164554
199	0x3c9a9c37	0.018873317
200	0x3d59674a	0.05307702
201	0xbd8ab5c5	-0.06772951
202	0xbd5088e1	-0.050911788
203	0x3c83db00	0.016095638
204	0xbc8158f3	-0.015789485
205	0xbd86bbf2	-0.065788165
206	0xbcb718d3	-0.022350704
207	0x3cfcf10e	0.030876663
208	0x3d846a3b	0.06465574
209	0xbb9b0300	-0.0047305822
210	0x3ce3ba8e	0.027798917
211	0x3d433b23	0.04766382
212	0x3d730283	0.059328567
213	0x3d539ee7	0.051665213
214	0x3d7122c3	0.058871042
215	0x3d16c4ea	0.036808886
216	0x3d72d71a	0.059287168
217	0xbc15e3dc	-0.009148564
218	0xbce613b8	-0.028085575
219	0xbd6221d8	-0.055208057
220	0xbd6fbc45	-0.058529157
221	0x3c0967b7	0.008386544
222	0x3d8e5bca	0.06951101
223	0xbca1fe53	-0.019774592
224	0x3ce1c021	0.027557435
225	0xbc7d3893	-0.015455383
226	0xbcb0d145	-0.021584162
227	0x3d5587f5	0.05213161
228	0x3c02b46e	0.007977588
229	0x3d00b99e	0.03142702
230	0xbb8affb7	-0.0042419094
231	0xbd3e309e	-0.046433084
232	0x3cffc9ea	0.03122421
233	0xbd025fdc	-0.0318297
234	0xbcdcc725	-0.026950428
235	0xbd61b82a	-0.055107273
236	0x3b44f76e	0.0030054706
237	0x3cbdbbae	0.023160782
238	0x3d28c0e3	0.041199576
239	0x3c3c4665	0.011491393
240	0x3d75dcae	0.06002491
241	0xbd838512	-0.064218655
242	0x3bd6a0a5	0.006549912
243	0x3c585593	0.013203996
244	0x3c09fd25	0.008422171
245	0x3ca4dfd3	0.020126259
246	0xbd666615	-0.056249697
247	0x3c95cb20	0.018285334
248	0x3d261ab0	0.040552795
249	0x3c92c8ca	0.01791801
250	0xbc5163dc	-0.012780156
251	0xbab09401	-0.0013471843
252	0xbd4e8685	-0.050421257
253	0xbd919146	-0.07107787
254	0x3cb840ce	0.022491839
255	0xbd51fffc	-0.051269516

net2.0.bias f4 [256]
0	0xbd7d4b6a	-0.0618395
1	0xbd744408	-0.059635192
2	0x3d5478f2	0.051873155
3	0xbce2ebf3	-0.0277004
4	0xbd3f4cf6	-0.046704255
5	0x3ab2d14f	0.0013642701
6	0x3d69fdc1	0.057126764
7	0xbd7ab863	-0.061211
8	0x3c961f4b	0.018325469
9	0x3c6a838a	0.014313588
10	0xbd54464e	-0.05182486
11	0x3d8706cf	0.065930955
12	0x3ce45ea1	0.027877154
13	0xbbc1946e	-0.005907587
14	0x3c917d05	0.01775981
15	0x3c202f18	0.009776853
16	0x3d6b54ad	0.0574538
17	0x3d4b261d	0.049596895
18	0x3b857a23	0.0040733977
19	0xbcdd7688	-0.02703406
20	0xbd316591	-0.043309752
21	0x3d6accd5	0.05732425
22	0x3d6d55dc	0.05794321
23	0xbc837a4e	-0.01604953
24	0xbc50390a	-0.012708912
25	0xbce8d343	-0.02842105
26	0x3d87e773	0.06635942
27	0xbd253f13	-0.040343355
28	0x3baf7d0e	0.005355484
29	0x3d917183	0.07101729
30	0xbc8ac8fc	-0.01694154
31	0x3db2c8fe	0.087297425
32	0x3d2962df	0.041354056
33	0xbd6a4d16	-0.05720242
34	0xbcdedd46	-0.02720512
35	0x3cf705b8	0.030154094
36	0x3d412d4a	0.04716233
37	0xbd485357	-0.048907604
38	0x3d349fd5	0.04409774
39	0xbd738bad	-0.059459377
40	0x3c7940c3	0.015213194
41	0x3d82f803	0.06394961
42	0x3d53035e	0.051516883
43	0xbcfd978e	-0.030956056
44	0xbc250482	-0.0100718755
45	0xbd5997e3	-0.053123366
46	0xbcc2806a	-0.023742873
47	0xbcd968a1	-0.026539149
48	0x3d6030a8	0.054733902
49	0xbaa6604a	-0.0012693491
50	0x3c3191be	0.01083797
51	0xbd033747	-0.03203514
52	0x3d0836d0	0.0332554
53	0x3cf25877	0.029583199
54	0x3d44449d	0.047916997
55	0x3d8e098b	0.06935414
56	0xbd35c5f1	-0.044378225
57	0xbb6846ac	-0.0035442514
58	0x3a1f812e	0.0006084618
59	0x3d85f51d	0.06540892
60	0x3bfd2c13	0.0077262013
61	0x3d53a6ce	0.05167275
62	0xbb2e83ab	-0.0026628773
63	0xbcc82618	-0.024432227
64	0xbd349d53	-0.04409535
65	0xbd662ca3	-0.056194913
66	0x3d6dd8e6	0.05806818
67	0x3cece7c1	0.028919103
68	0xbc4efd38	-0.012633614
69	0x3d6046aa	0.05475489
70	0x3d7c898e	0.06165462
71	0xbd2034a7	-0.039112713
72	0x3d90be98	0.07067603
73	0xbd631fc1	-0.055450205
74	0x3d986cc1	0.07442618
75	0x3d8139e9	0.063098736
76	0xbc1a5b40	-0.00942117
77	0xbcdb2f41	-0.02675593
78	0x3d9bb158	0.07602185
79	0xbcf47468	-0.029840663
80	0xbd1b1e4f	-0.0378707
81	0xbd843f0b	-0.06457337
82	0x3d5ab357	0.053393688
83	0x3d783a62	0.060602553
84	0xbd628848	-0.05530575
85	0x3ca30c09	0.0199032
86	0xbd920be3	-0.071311735
87	0xbcea3202	-0.028588299
88	0xbd063e98	-0.032774538
89	0x3d739fd1	0.059478585
90	0xbbea7879	-0.0071554747
91	0x3d89a3e8	0.06720716
92	0xbd0137f1	-0.03154749
93	0xbbf62301	-0.007511497
94	0x3d038e07	0.03211787
95	0xbbc2515d	-0.0059301094
96	0x3c0ee7b1	0.008722232
97	0xbd8455f8	-0.0646171
98	0xbcb6f3bf	-0.022333024
99	0x3d732aa1	0.059366826
100	0x3d202873	0.039101075
101	0xbcf8440e	-0.030305889
102	0x3cbc9bc1	0.023023488
103	0x3cde8897	0.02716474
104	0x3d275155	0.04084905
105	0xbc9ad689	-0.018901126
106	0xbbee81d9	-0.0072786626
107	0xbd5e828e	-0.054323725
108	0x3d1b91aa	0.037980713
109	0x3d192a05	0.03739359
110	0xbd08a9b5	-0.03336497
111	0x3ca86155	0.020554224
112	0xbceb716e	-0.02874061
113	0xbd724eb5	-0.059157092
114	0xbd56609a	-0.05233822
115	0x3d089105	0.033341426
116	0x3ce88253	0.028382456
117	0xbc733fb7	-0.014846734
118	0xbd3c3c00	-0.045955658
119	0x3c988329	0.01861723
120	0xbd21deb4	-0.039519027
121	0x3c899554	0.016794838
122	0xbd90306c	-0.07040486
123	0xbd73107e	-0.0593419
124	0x3ce3593c	0.027752511
125	0x3d48e643	0.04904772
126	0xbcf59505	-0.029978285
127	0xbaae56dc	-0.0013301033
128	0x3d38b21c	0.045091733
129	0x3d810028	0.06298858
130	0xbcba5dfc	-0.022749893
131	0x3bbb59a5	0.0057174736
132	0x3d153163	0.036424052
133	0x3cb61e0e	0.022231128
134	0x3c910b54	0.017705597
135	0xbd91c3dd	-0.07117436
136	0xbca4d465	-0.020120809
137	0x3c8ac191	0.016938003
138	0xbd4f6e8e	-0.050642543
139	0x3d56b4fe	0.0524187
140	0xbcc1cf68	-0.02365847
141	0x3c09b2b6	0.008404424
142	0xbd64a138	-0.055817813
143	0x3d195837	0.037437644
144	0xbcf9a1ce	-0.030472662
145	0xbd29e6fc	-0.04148005
146	0x3b644625	0.0034831848
147	0xbd7994ea	-0.06093303
148	0x3ce0bb4c	0.02743306
149	0xbd164b15	-0.036692698
150	0x3cbc33dd	0.02297395
151	0xba2b3592	-0.0006531115
152	0xba95296e	-0.0011380145
153	0x3d7aff75	0.06127878
154	0x3cdade8a	0.026717443
155	0xbce07a2c	-0.027402006
156	0x3d39bc8e	0.045345835
157	0x3d77dce3	0.06051339
158	0xbd08f3ed	-0.03343575
159	0x3c77f627	0.015134371
160	0x3c3cff6e	0.011535509
161	0x3cc19839	0.023632156
162	0x3d6e3e51	0.0581649
163	0x3d792316	0.060824476
164	0x3b82cbee	0.0039915955
165	0x3d677185	0.056504745
166	0x3d4f7bfb	0.050655346
167	0x3d66979c	0.05629693
168	0xbcb99d85	-0.022658119
169	0xbcf89c60	-0.030348003
170	0x3d2c70f7	0.04209992
171	0xbc38687f	-0.011255383
172	0xbd8bee00	-0.06832504
173	0x3c87326e	0.016503539
174	0x3c5311fb	0.012882705
175	0xbd6cacfe	-0.057782166
176	0xbd4a4d3b	-0.04939006
177	0xbd13a79d	-0.03604852
178	0xbcaa060d	-0.020754838
179	0x3bc657f2	0.0060529644
180	0x3d14e5d2	0.036351986
181	0x3dab6b09	0.08370025
182	0x3ca419a4	0.020031758
183	0xbcbb25f0	-0.022845238
184	0xbc2e0eb3	-0.010623622
185	0x3d8677d7	0.065658264
186	0x3cd8d185	0.026467094
187	0xbd42ba54	-0.047540978
188	0x3bd3e2ee	0.006466261
189	0x3926eabd	0.0001591844
190	0x3d1e880c	0.038703963
191	0xbd1a95ee	-0.03774064
192	0x3d823900	0.06358528
193	0x3d619a48	0.055078775
194	0x3d168d38	0.03675577
195	0x3c2c6829	0.010522881
196	0xbca9b7e5	-0.02071757
197	0x3d699e80	0.057035923
198	0x3ccffb8a	0.025388498
199	0x3d5ec20a	0.05438427
200	0x3ccf67fe	0.025318142
201	0x3d820967	0.063494496
202	0xbd21f4c5	-0.03954007
203	0x3cb9ed37	0.02269612
204	0x3d2b775f	0.041861888
205	0xbd44ce9f	-0.04804861
206	0xbd81e482	-0.063424125
207	0xbce678e7	-0.028133823
208	0x3d30708e	0.04307609
209	0x3c81b98e	0.01583555
210	0x3cea17f3	0.028575873
211	0x3c140a31	0.009035633
212	0x3c1bc2a8	0.009506859
213	0x3d6e9dac	0.058255836
214	0x3bf6cf4b	0.0075320355
215	0x3d5d851c	0.05408202
216	0x3d64179a	0.05568657
217	0xbd7af40a	-0.06126789
218	0xbd84652b	-0.06464609
219	0x3d8a6154	0.06756845
220	0x3cb2f4b3	0.021845197
221	0xbd89b75b	-0.067244254
222	0xbd36dffe	-0.04464721
223	0xbd3a2723	-0.04544748
224	0xbd83761d	-0.06419013
225	0x3d8b0f22	0.06789996
226	0xbd8497b2	-0.06474246
227	0x3d4bfd1c	0.04980193
228	0x3d5d143b	0.05397437
229	0xbd5b80ea	-0.05358974
230	0xbd1f92ee	-0.038958482
231	0x3c45d073	0.012073624
232	0xbd6700e3	-0.05639733
233	0xbca15560	-0.01969403
234	0xbd290e18	-0.041273206
235	0xbb1daf9e	-0.0024060975
236	0xbd7f917a	-0.062394597
237	0xbd1ca150	-0.038239777
238	0x3c97b843	0.01852048
239	0x3d7e8763	0.062140834
240	0xbbfa6a7b	-0.007642088
241	0x3cbf92fb	0.023385515
242	0xbd694e9c	-0.056959733
243	0x3d1222ea	0.035677828
244	0xbc1c8f5c	-0.009555664
245	0x3ccc567e	0.024943586
246	0xbc70ee2e	-0.014705224
247	0x3d30363a	0.043020464
248	0x3d16df2b	0.036833923
249	0x3d95db04	0.073171645
250	0x3c4fae81	0.012675882
251	0xbcba5b8e	-0.022748735
252	0x3d1d2790	0.038367808
253	0xbd595137	-0.053055968
254	0x3d5026b3	0.050818156
255	0x3d1f5a7d	0.038904656

net2.2.weight f4 [256, 256]
0	0xbd2e957a	-0.04262302
1	0x3d08e412	0.03342063
2	0x3d302c92	0.043011256
3	0x3c9fbd74	0.019499518
4	0xbd2b7c10	-0.041866362
5	0x3cb1e7e2	0.021717016
6	0x3ca92188	0.020645872
7	0xbd694c14	-0.05695732
8	0x3ce4739d	0.02788716
9	0x3d1aa992	0.03775937
10	0x3d05f48a	0.032703914
11	0x3d31525e	0.043291442
12	0x3c83720c	0.016045593
13	0xbcdbca30	-0.026829809
14	0xbd1d4c72	-0.038402982
15	0x3ccdfbcb	0.025144478
16	0xbd217742	-0.039420374
17	0x3c98cff9	0.018653857
18	0xbc7f83a8	-0.015595354
19	0x3b1520af	0.0022755077
20	0xbcef3b60	-0.029203117
21	0x3d0f3e6d	0.034971643
22	0x3d637708	0.05553344
23	0x3d3c4338	0.045962542
24	0xbd286876	-0.041115247
25	0x3dcded67	0.100550465
26	0x3b95ad60	0.004567787
27	0xbd498064	-0.04919471
28	0x3d42f84c	0.047600076
29	0x3d24d976	0.04024645
30	0xbcadd4b6	-0.021219593
31	0xbdad10c9	-0.08450467
32	0x3d41678c	0.04721789
33	0xbc7eabcb	-0.015543888
34	0xbd18c87c	-0.03730057
35	0xbd339013	-0.04383857
36	0xbc7de038	-0.015495352
37	0xbcd36f2c	-0.025809847
38	0x3d0a2d68	0.03373471
39	0xbc831645	-0.01600183
40	0x3bbc4193	0.0057451217
41	0xbce16b1d	-0.027516896
42	0x3d37f4cb	0.044911187
43	0x3d390450	0.04517013
44	0x3ccddaf8	0.025128826
45	0xbd28f2a0	-0.04124701
46	0x3d57fa60	0.05272901
47	0x3cd559f8	0.026043877
48	0xbd6a0e8e	-0.057142787
49	0xbcacd3bc	-0.021097057
50	0xbd41e540	-0.04733777
51	0x3daf17a5	0.08549432
52	0xbd493565	-0.049123187
53	0xbb4b2c4c	-0.0031001745
54	0x3dc86af6	0.09786026
55	0xbc981b28	-0.018567637
56	0x3d42c080	0.047546864
57	0x3d663f2e	0.056212597
58	0x3c338df6	0.010959139
59	0xbd21883a	-0.039436556
60	0x3d1a114c	0.03761415
61	0xbc8c6204	-0.017136581
62	0x3c39244c	0.011300158
63	0xbcd1026f	-0.025513856
64	0x3e04c266	0.12964782
65	0x3d55ac56	0.052166305
66	0x3c19bb5d	0.00938305
67	0xb9f00700	-0.00045781583
68	0x3dca7b4b	0.098867975
69	0x3c83714c	0.016045235
70	0x3cb9f155	0.022698084
71	0x3d3a7ca4	0.045529023
72	0xbd1e41cc	-0.038636968
73	0xbd782cac	-0.060589477
74	0xbd21191d	-0.03933059
75	0x3d766ab5	0.060160358
76	0x3c7b5e18	0.015342258
77	0x3ce3bb47	0.027799262
78	0x3c796bb2	0.0152234305
79	0x3d6b8364	0.05749835
80	0x3cc8ebc8	0.024526492
81	0x3d665780	0.05623579
82	0x3bca7b40	0.0061792433
83	0xbd878c60	-0.06618571
84	0xbc826759	-0.01591842
85	0xb8573062	-5.1305055e-05
86	0xbd30d88e	-0.043175273
87	0xbd7d7054	-0.061874703
88	0x3d11ed3a	0.035626628
89	0xbc8d41a4	-0.017243214
90	0x3d491355	0.049090702
91	0x3d27d1d0	0.040971577
92	0x3c868784	0.01642204
93	0x3c8fb6f0	0.017543286
94	0xbcf576ae	-0.029963817
95	0xbd777805	-0.060417194
96	0x3c9edec3	0.01939333
97	0x3bc02810	0.005864151
98	0xbc9b3d41	-0.018950107
99	0xbcbcee01	-0.023062708
100	0x3c66c3c8	0.014084764
101	0x3bae8970	0.0053264424
102	0xbd381f94	-0.04495199
103	0x3cc42182	0.023941759
104	0x3d2fb33c	0.04289554
105	0x3d4cf1a7	0.050035145
106	0x3c20f14d	0.009823156
107	0xbd57260a	-0.05252651
108	0xbcb961c4	-0.022629626
109	0x3d34a264	0.04410018
110	0xbd1af5e2	-0.03783215
111	0xbce7380d	-0.02822497
112	0x3bb20140	0.005432278
113	0x3d7f949a	0.062397577
114	0xbd42a4c3	-0.04752041
115	0xbd35b858	-0.044365257
116	0x3ba0eeb0	0.0049112663
117	0x3d508d35	0.050915916
118	0x3d8d04cc	0.068856806
119	0x3de5db43	0.112234615
120	0x3c75c93c	0.015001591
121	0x3cd07245	0.025445113
122	0x3d430625	0.04761328
123	0x3bfe1c70	0.007754855
124	0xbd3c99c4	-0.04604508
125	0x3ba0c4a0	0.004906252
126	0xbbfb0050	-0.0076599494
127	0x3c76b4a8	0.01505772
128	0x3c90cad8	0.017674848
129	0x3caa0a8f	0.020756988
130	0x3c245fd8	0.010032617
131	0xbca0f554	-0.019648232
132	0x3d23ee20	0.040022016
133	0xbc211620	-0.009831935
134	0xbcbec2b3	-0.0232862
135	0xbcd8cf88	-0.026466146
136	0xbd51ebc4	-0.051250234
137	0x3d63c7d7	0.055610504
138	0x3d66e3e6	0.056369685
139	0x3d1a796d	0.037713457
140	0xbb3f4b9e	-0.0029189358
141	0xbd1589de	-0.036508434
142	0x3d618ca2	0.05506576
143	0xbc5acc08	-0.013354309
144	0x3a0a5080	0.00052762777
145	0xbd33d120	-0.04390061
146	0x3db1de7d	0.086850144
147	0x3d694006	0.056945823
148	0x3d435526	0.047688626
149	0xbcefcd84	-0.029272802
150	0x3d765515	0.060139734
151	0x3a303718	0.0006722077
152	0xbd05bffc	-0.032653794
153	0xbc83f3ec	-0.016107522
154	0x3cd14bf4	0.025548913
155	0x3bd6330b	0.0065368465
156	0x3c216be6	0.009852385
157	0xbd008e6b	-0.03138582
158	0xbb59fc70	-0.0033262037
159	0x3da44b9e	0.08022235
160	0xbba75050	-0.0051060095
161	0x3d7e2f0a	0.06205658
162	0x3b884200	0.0041582584
163	0xbd9c28da	-0.07624979
164	0x3bea2f10	0.0071467236
165	0x3c458b28	0.012057103
166	0x3d89e87a	0.067337945
167	0x3d7b8514	0.06140621
168	0xbc912c1c	-0.017721228
169	0xbd4f63da	-0.050632335
170	0x3bbaa87d	0.005696355
171	0x3d434297	0.047670927
172	0xbc9fc704	-0.019504078
173	0x3bcb11b0	0.006197177
174	0xbd514f15	-0.05110081
175	0x3caf88f0	0.021427602
176	0x3c1907a5	0.0093402015
177	0x3d5c03bc	0.0537145
178	0x3d478014	0.04870613
179	0xbd80c540	-0.062876225
180	0xbcbc45a8	-0.022982433
181	0x3caf639d	0.021409804
182	0x3d935c5e	0.07195352
183	0xbb633aaa	-0.0034672418
184	0xbcda5247	-0.026650561
185	0xbc8da3b4	-0.017289974
186	0x3c1a1010	0.009403244
187	0xba78c021	-0.00094890787
188	0x3d1f7a7a	0.038935162
189	0x3dcf9c4f	0.101372354
190	0xbbd4e8f0	-0.006497495
191	0x3d078db8	0.033094138
192	0x3d555e38	0.052091807
193	0x3c607698	0.01370015
194	0x3d35bcf1	0.04436964
195	0x3c948c50	0.018133312
196	0xbd236126	-0.03988757
197	0x3cbf808c	0.023376726
198	0xbc82779b	-0.015926173
199	0x3deb3356	0.11484401
200	0x3d09a80f	0.03360754
201	0x3d2c9e34	0.04214306
202	0x3d1775de	0.03697764
203	0x3d83d3f5	0.06436912
204	0x3cbf239c	0.02333241
205	0x3d95c048	0.07312065
206	0x3d93ae15	0.07210938
207	0xbb43cc04	-0.0029876241
208	0x3c7db1e3	0.015484306
209	0xbd1c39ae	-0.038140945
210	0x3d1c66a2	0.038183816
211	0x3cf89857	0.030346079
212	0x3dbd822a	0.092533424
213	0xbc394500	-0.011307955
214	0xbd4bdacf	-0.04976922
215	0x3d4923ea	0.049106516
216	0x3d7fb406	0.062427543
217	0x3d363620	0.04448521
218	0x3d828f05	0.06374935
219	0x3d02c81e	0.031929128
220	0xbd21ba10	-0.039484084
221	0x3cf00e1c	0.029303603
222	0x3cb0505c	0.021522693
223	0xb9bc5100	-0.00035918504
224	0x3cd7ff18	0.026366755
225	0x3d0f0f6b	0.034926813
226	0x3d267f56	0.04064878
227	0x3d5ff212	0.054674216
228	0x3d33de67	0.04391327
229	0xbd064702	-0.032782562
230	0xbd7954f2	-0.060872026
231	0x3d0a7b7c	0.03380917
232	0x3d2e203e	0.042511217
233	0x3cccf45a	0.02501886
234	0x3dedeff6	0.116180345
235	0xbcf475aa	-0.029841263
236	0xbd30337e	-0.043017857
237	0x3d645d90	0.05575329
238	0x3c618183	0.013763788
239	0x3cd8b8bd	0.026455278
240	0xbc1a0764	-0.009401176
241	0x3d3bdffd	0.04586791
242	0x3a9b14c0	0.0011831746
243	0x3cf27220	0.029595435
244	0xbd42830c	-0.047488257
245	0x3d3f3cd7	0.04668888
246	0xbc4570f8	-0.01205086
247	0xbd7190ff	-0.05897617
248	0x3ce97887	0.028499855
249	0x3d2d3edb	0.04229627
250	0x3d4a0f2e	0.049330883
251	0x3b86d730	0.004115008
252	0xbd5cef6c	-0.053939268
253	0x3d38e05a	0.045135833
254	0x3c55f114	0.013057966
255	0xbc17dc07	-0.009268767

net2.2.bias f4 [256]
0	0x3c5812b3	0.013188052
1	0x3cd0116c	0.025398932
2	0xbd05cc73	-0.03266568
3	0x3cbe7a66	0.023251723
4	0xbd04d436	-0.032428943
5	0x3d2c4686	0.042059444
6	0x3d83aa8e	0.06429015
7	0xbbfb8770	-0.0076760575
8	0xbba6b897	-0.005087923
9	0xbcad7b92	-0.021177087
10	0x3d2a8e93	0.041639876
11	0x3ce1ad7f	0.02754855
12	0xbd23a3f2	-0.039951272
13	0xbd31f915	-0.043450434
14	0x3d4c10ab	0.049820583
15	0xbd0de641	-0.034643415
16	0xbce2da47	-0.027691973
17	0x3d2ee1c5	0.04269578
18	0xbd383e50	-0.0449813
19	0xbd3e09a2	-0.046395905
20	0x3d430fab	0.047622364
21	0xbd17f48a	-0.037098445
22	0xbd5aa798	-0.053382486
23	0x3d4973c2	0.04918266
24	0xbd2ed059	-0.042679165
25	0x3b96abee	0.0045981323
26	0x3d63aa32	0.055582233
27	0x3c9b9fa9	0.01899703
28	0xbc978f87	-0.018501056
29	0x3d5b4828	0.05353561
30	0x3bfc875e	0.0077065667
31	0x3ccf7d0c	0.025328182
32	0x3d097ac1	0.033564333
33	0xbcc16b74	-0.023610808
34	0x3cb34448	0.021883145
35	0x3bf97dc9	0.0076138717
36	0x3c70aa39	0.014689022
37	0xbd733294	-0.059374407
38	0xbd439797	-0.04775199
39	0x3d7027bf	0.058631655
40	0x3d46927d	0.048479546
41	0xbd3c1e4e	-0.04592734
42	0xbaca6b84	-0.0015443419
43	0xbd3b9096	-0.045792185
44	0x3d8d16f8	0.068891466
45	0x3d3f50ee	0.04670804
46	0xbd2c6498	-0.04208812
47	0x3d2891c2	0.04115463
48	0xbd45090c	-0.04810433
49	0xbbc17745	-0.0059041106
50	0xbbefe716	-0.0073212488
51	0xbd305696	-0.043051325
52	0x3d325a89	0.043543372
53	0x3c56515a	0.013080919
54	0x3d0c2431	0.034214202
55	0x3d8ba717	0.06818979
56	0xbd5e853b	-0.054326277
57	0x3ab4a33e	0.001378156
58	0x3d98899e	0.074481234
59	0x3c9fa6eb	0.019488772
60	0x3c130c30	0.008975074
61	0x3d1920a5	0.037384648
62	0x3d172f3b	0.036910277
63	0x3b2af5fe	0.0026086564
64	0xbceeacc0	-0.029135108
65	0xbca795b9	-0.020457136
66	0xbcb8db74	-0.02256558
67	0x3c98e785	0.018665085
68	0x3d86e75e	0.065870985
69	0x3d666df0	0.05625719
70	0xbbf500ad	-0.007476887
71	0xbcd4e6b4	-0.025988914
72	0xbd3f5072	-0.046707578
73	0xbd531c8e	-0.051540904
74	0x3d2f086f	0.042732652
75	0xbd69e760	-0.057105422
76	0xbd09bf31	-0.0336296
77	0xbc0d1171	-0.008610115
78	0x3d30b29d	0.04313909
79	0x3cb92709	0.022601621
80	0x3d354a12	0.044260092
81	0x3c495bd6	0.012289962
82	0xbbc6bdc3	-0.006065102
83	0xbd1d6e1a	-0.03843508
84	0x3d27bd34	0.040951923
85	0x3b629fd9	0.003458014
86	0xbc8a7130	-0.016899675
87	0xbc914c64	-0.017736621
88	0x3d76efbb	0.06028722
89	0x3cc06ff6	0.023490887
90	0xbc5c1b69	-0.013434269
91	0x3d1a2464	0.03763236
92	0xbcfe7cdc	-0.031065397
93	0x3d393419	0.0452157
94	0x3b63e5a0	0.0034774318
95	0x3d4d9def	0.050199445
96	0xbca8eef5	-0.020621756
97	0x3d7bdc50	0.061489403
98	0xbd311ec0	-0.043242216
99	0xbc659450	-0.014012411
100	0x3c7623a8	0.01502315
101	0x3d114cee	0.035473756
102	0x3d4e157f	0.05031347
103	0xbd66936d	-0.05629294
104	0x3d811b1b	0.06303998
105	0xbd022d99	-0.031781767
106	0x3c6ac970	0.014330253
107	0x3d2df029	0.042465363
108	0xbcaeb914	-0.021328487
109	0xbd143847	-0.036186483
110	0x3ce98d14	0.028509654
111	0x3d29f4e7	0.041493323
112	0xbb418a2e	-0.0029531824
113	0x3c9fbac7	0.019498242
114	0xbc606b7a	-0.013697499
115	0x3d11aebb	0.035567027
116	0x3d86a107	0.06573682
117	0x3cd18cd2	0.025579844
118	0xbd036467	-0.032078173
119	0x3d6e737d	0.058215607
120	0x3d14794c	0.03624849
121	0x3cce5901	0.025188925
122	0x3b9c5edc	0.0047720503
123	0x3c4ca040	0.012489378
124	0x3d055eea	0.03256122
125	0xbd2b3db8	-0.041806906
126	0x39b78e00	0.00035010278
127	0xbcd537c2	-0.026027564
128	0xbc789579	-0.015172356
129	0xbd09b574	-0.033620313
130	0x3d5be8b2	0.053688712
131	0x3d0f0d63	0.034924876
132	0xbd3b0526	-0.045659207
133	0xbcdc9742	-0.026927594
134	0x3d4baf4d	0.049727727
135	0xbb39f494	-0.002837454
136	0xbc391518	-0.011296533
137	0x3cb6bfc4	0.022308238
138	0x3d41a38a	0.047275104
139	0xbc52cc04	-0.012866024
140	0xbd035a36	-0.032068454
141	0x3da4afdb	0.08041354
142	0xbd6940be	-0.05694651
143	0xbd450c5a	-0.048107482
144	0x3d5dc2ac	0.05414073
145	0xbd5f0925	-0.05445208
146	0xbc19be55	-0.009383758
147	0x3d382c45	0.044964094
148	0xbd2e532f	-0.0425598
149	0x3d8e18cd	0.06938324
150	0xbbc492dc	-0.0059989523
151	0xbd38d75c	-0.045127258
152	0x3d06a62f	0.03287333
153	0xbd35f2b5	-0.044420917
154	0xbc3631eb	-0.0111203
155	0x3bbf26ea	0.0058334963
156	0x3d2bc50d	0.04193597
157	0x396306d2	0.00021650948
158	0x3d6095a2	0.0548302
159	0x3d88b871	0.066758044
160	0xbd32324a	-0.04350499
161	0x3c91d698	0.017802522
162	0x3c2c4af7	0.01051592
163	0xbd08a92e	-0.033364467
164	0x3d4338ad	0.047661472
165	0x3cbfedf9	0.023428904
166	0x3d80bfa5	0.06286553
167	0xbd0c1002	-0.034194954
168	0xbd375fa0	-0.04476893
169	0x3c8171e0	0.01580137
170	0x3d177ae3	0.03698243
171	0xbd7aeaee	-0.061259203
172	0x3d09fc4c	0.033687875
173	0x3c8359e1	0.016034069
174	0x3d2b6da2	0.0418526
175	0xbd64e394	-0.055881098
176	0x3d0c098d	0.034188796
177	0x3d5052c9	0.0508602
178	0xbd5d7fcc	-0.054076955
179	0x3d1f9a8a	0.03896574
180	0xbd222e21	-0.039594773
181	0x3ca51028	0.020149305
182	0xbccacbb9	-0.024755346
183	0xbcb2c280	-0.02182126
184	0xbd2abdec	-0.04168503
185	0xbd02bbc0	-0.031917334
186	0x3d242f50	0.040084183
187	0xbca421a4	-0.020035572
188	0xbd6aa288	-0.057283908
189	0xbc75bf02	-0.014999153
190	0xbd658997	-0.05603942
191	0xbd221cd3	-0.03957827
192	0x3c6d99c0	0.014501989
193	0x3c80a608	0.01570417
194	0xbd69627c	-0.056978688
195	0x3b9c29e1	0.0047657345
196	0x3c6bb605	0.014386659
197	0xbd00dfc8	-0.031463414
198	0xbcad0951	-0.021122606
199	0xbd44b2d9	-0.048022125
200	0x3b018086	0.0019760444
201	0x3c0489d2	0.0080895
202	0xbcfc4274	-0.030793406
203	0xbd1cccc8	-0.038281232
204	0xbcd08e59	-0.025458502
205	0xbc3a0263	-0.011353108
206	0x3c871688	0.016490236
207	0xbd11286c	-0.03543894
208	0xbd0a1869	-0.033714686
209	0xbc1e5937	-0.009664825
210	0x3d5d3360	0.054004073
211	0xbd384a40	-0.044992685
212	0x3d07deda	0.033171512
213	0x3c48d72f	0.012258335
214	0x3a961ed4	0.0011453279
215	0xbce03a0c	-0.027371429
216	0xbccf44a1	-0.02530128
217	0xbd3df9a4	-0.046380654
218	0x3d69c889	0.05707601
219	0x3bb108a5	0.005402642
220	0x3c8864ca	0.016649622
221	0xbc9644a0	-0.01834327
222	0xbd5b93ce	-0.053607754
223	0xbd4ee580	-0.050511837
224	0xbd476985	-0.048684616
225	0xbc943efb	-0.018096438
226	0x3c5aa448	0.013344832
227	0x3d896514	0.06708732
228	0xbd4e9f80	-0.05044508
229	0x3d605947	0.05477264
230	0x3d058277	0.032595124
231	0xbc43a5a4	-0.011941347
232	0x3cb31120	0.021858752
233	0xbc518f17	-0.012790463
234	0x3d030dce	0.031995587
235	0xbd5614dc	-0.052265987
236	0x3d5dcaf3	0.054148626
237	0x3d5c4ca0	0.053784013
238	0x3d642966	0.055703543
239	0xbc87e72a	-0.01658972
240	0x3d3b40bc	0.045716032
241	0xbd39b448	-0.045337945
242	0xbbceeb77	-0.0063146907
243	0xbd354c5e	-0.044262283
244	0xbd20fa19	-0.03930101
245	0x3be54e33	0.0069978475
246	0xbc63f921	-0.013914377
247	0x3d56c4bc	0.052433714
248	0xbd2db8c9	-0.042412553
249	0xbcabf08b	-0.020988723
250	0x3c3860bd	0.011253533
251	0xbc51cd9a	-0.012805367
252	0x3cdae0c2	0.026718501
253	0x3c70d0f1	0.014698253
254	0x3d054cba	0.032543875
255	0xbbf72927	-0.0075427475

net2.4.weight f4 [256, 256]
0	0x3d57327b	0.052538376
1	0xbcd194bb	-0.025583616
2	0xbcf26285	-0.029587993
3	0x3d16f0ff	0.036850926
4	0xbd331b3c	-0.043727145
5	0xbb8f1b10	-0.00436724
6	0x3c8952b6	0.016763072
7	0xbd42d7d6	-0.04756912
8	0x3d3b2244	0.045686975
9	0xbdb809cc	-0.089862436
10	0x3d29bb12	0.04143817
11	0x3d567115	0.052353937
12	0xbc802d98	-0.01564674
13	0x3c6ee8b3	0.014581847
14	0xbd524c7f	-0.051342484
15	0x3d32c385	0.043643493
16	0x3d76145a	0.060078003
17	0xbd523f19	-0.051329706
18	0xbc1cc198	-0.009567641
19	0x3c47f4e0	0.012204379
20	0x3cc15e2f	0.02360448
21	0xbc5106a8	-0.012757935
22	0xbd31d2f2	-0.043414064
23	0x3d70360f	0.058645304
24	0x3db9292f	0.09041058
25	0x3d150c5e	0.036388747
26	0x3d37b875	0.044853646
27	0x3d0ba38f	0.03409153
28	0x3d4cee5d	0.05003201
29	0x3c6d6f20	0.014491826
30	0xbd67492c	-0.056466267
31	0x3cf5c190	0.029999524
32	0xbc833dfa	-0.016020764
33	0x3b0330c0	0.002001807
34	0xbd3a123f	-0.045427557
35	0xbc27d301	-0.010243178
36	0x3d9b2f13	0.07577338
37	0xb8358000	-4.3272972e-05
38	0xbcf95448	-0.030435696
39	0x3d92a9e5	0.07161311
40	0x3d80f86e	0.06297384
41	0x3cd8b8d4	0.02645532
42	0x3d898593	0.067149304
43	0x3d1c5642	0.0381682
44	0xbd337857	-0.043815937
45	0x3dda039a	0.10645218
46	0x3c4527c9	0.012033411
47	0x3d10433e	0.035220377
48	0x3c496942	0.012293162
49	0xbc29121d	-0.01031926
50	0x3d3158ce	0.04329758
51	0x3d230f16	0.03980931
52	0xbcd006d9	-0.02539389
53	0xbd580a1c	-0.052744016
54	0x3c2f17c2	0.010686817
55	0x3d2fbfc7	0.042907503
56	0x3cb95f9f	0.022628604
57	0x3da16ed4	0.07882467
58	0xbd3ce0bf	-0.046112772
59	0x3d1f653f	0.038914915
60	0x3de1e500	0.110300064
61	0x3d64826b	0.05578844
62	0xbc9643d7	-0.018342895
63	0x3db88ccd	0.090112306
64	0xbc904238	-0.0176097
65	0x3d429c41	0.047512297
66	0xbd49631b	-0.04916678
67	0x3d8e383b	0.06944319
68	0x3d627cec	0.055294916
69	0xbce7f578	-0.02831529
70	0x3be9171e	0.0071133515
71	0x39e66e00	0.00043950975
72	0xbcf33aa8	-0.029691055
73	0x3d279601	0.04091454
74	0xbcff0f67	-0.031135274
75	0xbd425fa0	-0.047454476
76	0xbd9a633d	-0.075384595
77	0xbc8a233c	-0.016862504
78	0x3ac67506	0.0015141077
79	0xbcaac70a	-0.020846862
80	0x3d069c92	0.03286416
81	0x3dc3672f	0.09541165
82	0x3d9cbb03	0.07652857
83	0x3d922eeb	0.07137855
84	0x3d1b8e84	0.03797771
85	0x3d53f3de	0.05174624
86	0xbcce04e4	-0.025148816
87	0x3c261a00	0.010138035
88	0xbcd699c6	-0.026196372
89	0xbd95b002	-0.073089615
90	0xbbe2d355	-0.0069221654
91	0xbcf4c6ac	-0.02987989
92	0x3d423e18	0.0474225
93	0xbd07d142	-0.03315855
94	0xbd702234	-0.05862637
95	0x3d51cced	0.051220823
96	0x3ca1033d	0.019654864
97	0x3dd06c94	0.1017696
98	0x3d8ca8cf	0.06868135
99	0x3cd43c7c	0.025907747
100	0xbdc29adf	-0.095021956
101	0x3d6a14c8	0.057148725
102	0x3c09c4b9	0.008408719
103	0x3db3685f	0.087601416
104	0xbcc72ea0	-0.024314225
105	0xbb93fb37	-0.004516031
106	0xbd0495b3	-0.032369327
107	0x3dbf9d00	0.09356117
108	0x3d325dc6	0.04354646
109	0xbc82c46c	-0.015962802
110	0xbcea6eeb	-0.028617343
111	0x3dc6c76e	0.09706007
112	0x3dbb8c40	0.0915761
113	0xbc3a65a9	-0.011376777
114	0x3d4eee1f	0.05052006
115	0xbc1d7981	-0.009611488
116	0x3d75ccce	0.06000977
117	0x3d52406e	0.051330976
118	0xbc630907	-0.013857133
119	0xbc6a4036	-0.014297536
120	0xbd578f1c	-0.052626714
121	0x3e0039cd	0.12522049
122	0xbc8876f7	-0.01665829
123	0x3d13220d	0.035921145
124	0xbb8952e0	-0.0041907877
125	0x3dc21e82	0.09478475
126	0xbcb39c68	-0.021925166
127	0x3a4f425a	0.00079063105
128	0xbbcce889	-0.0062533063
129	0xbc788eb0	-0.015170738
130	0x3c8c8b75	0.017156342
131	0x3cb8316f	0.02248451
132	0x3cf12370	0.029435843
133	0xbd7d310c	-0.061814353
134	0x3c31449a	0.010819579
135	0xbd56c4de	-0.05243384
136	0xbcb8fcbc	-0.02258145
137	0x3d280c11	0.041027132
138	0x3d46f35c	0.04857193
139	0x3db5faf0	0.08885753
140	0xbcf9f930	-0.03051433
141	0x3d06f237	0.032945838
142	0xbcc23474	-0.023706652
143	0xbc920504	-0.017824657
144	0xbd02bcd4	-0.03191836
145	0x3c4f0ef8	0.012637846
146	0x3d63bd6d	0.055600572
147	0x3d500c14	0.05079277
148	0xbc35c620	-0.0110946
149	0xba71b642	-0.0009220579
150	0xbdaab77d	-0.08335779
151	0xbd7e5240	-0.06209016
152	0x3ca9041f	0.020631848
153	0x3da4ceac	0.08047232
154	0x3c40e554	0.011773426
155	0x3dba6ca5	0.091027535
156	0x3b795867	0.0038047077
157	0x3d6bdea8	0.05758539
158	0x3bb08acd	0.00538764
159	0xbd087be1	-0.033321265
160	0x3d90431f	0.07044052
161	0xbd60765c	-0.054800376
162	0x3d55fe59	0.052244518
163	0x3d2cc244	0.042177454
164	0xbd084f82	-0.03327895
165	0x3d3072f2	0.04307837
166	0x3c9c8ba0	0.019109547
167	0x3cb31864	0.021862216
168	0x3c924fd7	0.017860336
169	0x3ce2d8db	0.027691295
170	0xbb90d982	-0.00442046
171	0xbb8b47da	-0.0042505087
172	0x3d544dd4	0.051832035
173	0xbd402adc	-0.046915874
174	0x3d689554	0.056783035
175	0x3c9564f4	0.018236615
176	0x3cce1bb7	0.0251597
177	0xbd4b8a63	-0.049692523
178	0x3c802860	0.015644252
179	0xbbf0655d	-0.007336302
180	0xbd7dc9f9	-0.061960194
181	0x3d60354e	0.054738335
182	0x3c886445	0.016649375
183	0x3d2dafc2	0.042403944
184	0x3db7c9b6	0.0897402
185	0x3d1cc079	0.038269494
186	0x3dcd36af	0.10020196
187	0xbd37cd9a	-0.04487381
188	0x3d200d5a	0.039075233
189	0x3d829b94	0.063773304
190	0x3c657a8b	0.014006267
191	0xbafe0a8a	-0.0019381803
192	0xbd2293aa	-0.039691605
193	0xbd0731b0	-0.03300637
194	0xbd31feb6	-0.043455802
195	0xbd4bdb4d	-0.04976969
196	0x3ce888ea	0.028385598
197	0x3dd9153b	0.105997525
198	0x3d48b3ca	0.048999585
199	0x3cae52be	0.021279689
200	0x3d132152	0.03592045
201	0x3dea1552	0.11429848
202	0x3b051a11	0.0020309726
203	0xbd6d072a	-0.05786816
204	0x3b84eae1	0.00405632
205	0x3d47847b	0.048710328
206	0x3c6b4f70	0.014362201
207	0x3cdbce79	0.026831852
208	0x3c91ad7b	0.017782917
209	0x3d296bcc	0.04136257
210	0x3ca1b2e2	0.019738618
211	0xbce90d61	-0.028448762
212	0xbd103af6	-0.03521248
213	0x3d9239ae	0.07139908
214	0x3d11dd92	0.035611697
215	0x3c8f3c14	0.017484702
216	0x3d061b2b	0.032740753
217	0xbb681180	-0.0035410821
218	0xbc231eb8	-0.009956054
219	0x3cb1351f	0.021631775
220	0xbd1c9968	-0.038232237
221	0xbc6fb7b0	-0.014631197
222	0xbce91a18	-0.028454825
223	0xbd74effe	-0.059799187
224	0x3d29aa22	0.041422017
225	0xbcd88d08	-0.026434436
226	0xbc4a0950	-0.012331322
227	0x3d458b97	0.048228826
228	0x3c363972	0.0111220945
229	0x3d5e8bce	0.054332547
230	0x3d0a1595	0.03371199
231	0x3d4d360a	0.050100364
232	0xbd639078	-0.055557698
233	0xbd33b0d6	-0.043869816
234	0xbd12375e	-0.035697334
235	0xbca24128	-0.01980646
236	0xbd2a9a1e	-0.041650884
237	0x3d00f2a1	0.03148139
238	0xbd690ef4	-0.056899026
239	0x3d411903	0.047142994
240	0xbd0b14d8	-0.033955425
241	0xbcb69ef4	-0.022292592
242	0x3d2577b5	0.040397365
243	0xbd76a538	-0.06021616
244	0x3c7b3b5d	0.0153339775
245	0x3ce61a4e	0.028088715
246	0x3d1b964f	0.037985142
247	0x3c9ac340	0.01889193
248	0x3d51dadf	0.051234122
249	0x3ccfd36d	0.02536937
250	0xbd18295c	-0.03714882
251	0x3d30adeb	0.04313461
252	0xbdcf861f	-0.101330034
253	0xbc88552c	-0.016642176
254	0xbd73028a	-0.059328593
255	0x3dd49ba2	0.10381247

net2.4.bias f4 [256]
0	0x3c80504a	0.015663285
1	0xbcb74969	-0.022373872
2	0x3d256735	0.04038163
3	0x3d847edb	0.06469508
4	0xbc1a2b98	-0.009409808
5	0xbc908f7d	-0.017646546
6	0xbc0daed2	-0.008647637
7	0xbc8d8a14	-0.017277755
8	0x3c04bf9e	0.008102326
9	0xbb08bf96	-0.0020866147
10	0x3ba4b972	0.0050269896
11	0x3cf1a294	0.029496469
12	0x3d216826	0.039405964
13	0x3d4ed0c8	0.050492078
14	0xbcf35b3c	-0.02970659
15	0x3d84623b	0.064640485
16	0x3d4f7912	0.05065257
17	0x3c8164c5	0.015795121
18	0x3d117498	0.035511583
19	0x3d0801fd	0.03320502
20	0xbd2c773a	-0.04210589
21	0x3c95d068	0.018287852
22	0x3d1181cb	0.03552417
23	0xbcb03c15	-0.021513024
24	0xbcb63829	-0.022243576
25	0xbd5e28c5	-0.0542381
26	0xbc6aa176	-0.014320722
27	0x3d1a8fa9	0.03773466
28	0xbc8290a7	-0.015938116
29	0x3c80ef58	0.015739128
30	0xbcdb2fe3	-0.026756233
31	0x3d71ae63	0.0590042
32	0xbbd7a5a0	-0.0065810233
33	0xbd506f0f	-0.050887164
34	0xbd67dbe4	-0.05660619
35	0xbc48a2f8	-0.012245886
36	0x3d15cbef	0.03657144
37	0x3c90ce78	0.017676577
38	0xbcd455cc	-0.025919817
39	0x3cf77d65	0.03021116
40	0xbc82541c	-0.015909247
41	0x3c8b9194	0.01703719
42	0x3d035ad4	0.032069042
43	0x3d302780	0.04300642
44	0xbd6c89ce	-0.05774861
45	0x3d279e6e	0.040922575
46	0x3d52db19	0.05147848
47	0xbd2219d7	-0.039575424
48	0xbd49561e	-0.049154393
49	0x3d6ce228	0.057832867
50	0xbd2f8d3f	-0.042859312
51	0x3d14abdb	0.036296707
52	0x3c5ef911	0.013609187
53	0x3d56ff89	0.05248979
54	0xbd2c618a	-0.042085208
55	0x3d5784ec	0.052617
56	0xbb29b855	-0.0025897224
57	0x3cea54e8	0.02860494
58	0x3c1829c0	0.009287298
59	0x3d0243e2	0.03180302
60	0xbcbb33b6	-0.022851806
61	0x3ba99d40	0.0051762164
62	0x3d1bce2a	0.03803841
63	0x3c316ae0	0.010828704
64	0xbd64bd1f	-0.055844422
65	0xbd635a6a	-0.055506147
66	0xbd1d4390	-0.03839451
67	0xbb6494be	-0.0034878696
68	0x3c7d58d3	0.015463072
69	0xbc89b0a4	-0.016807862
70	0x3d26e3e9	0.040744696
71	0x3c048ae0	0.008089751
72	0xbd4aca20	-0.049509168
73	0x3d597e44	0.053098932
74	0x3d77c072	0.060486265
75	0x3c695ca0	0.014243275
76	0xbcbb56f9	-0.02286862
77	0x3d47d4c8	0.04878691
78	0xbd148f55	-0.036269505
79	0x3d083bcd	0.033260155
80	0x3d007d3f	0.031369444
81	0x3d087f33	0.03332443
82	0x3c8386ee	0.01605555
83	0xbcbc448d	-0.022981906
84	0x3c91c7b8	0.017795429
85	0xbd4e316c	-0.0503401
86	0x3cb7fc29	0.022459107
87	0xbd5eaafc	-0.054362282
88	0xbd09c14a	-0.0336316
89	0x3cb4243f	0.02198994
90	0xbcc57c5c	-0.02410715
91	0xbc949daf	-0.018141596
92	0x3d771502	0.06032277
93	0xbc245955	-0.010031064
94	0x3ce0af4b	0.027427336
95	0x3d4b5888	0.049644977
96	0xbd1fc204	-0.039003387
97	0xbcfd6e88	-0.030936494
98	0x3b8b36c3	0.0042484715
99	0x3c9dfc94	0.019285478
100	0xbcef8b1c	-0.029241137
101	0xbd74750e	-0.059681945
102	0xbd3a9d3c	-0.045560107
103	0x3d724e17	0.059156504
104	0x3ccbfd9d	0.024901206
105	0x3caf2b38	0.021382913
106	0xbc89e6a4	-0.01683361
107	0xbd1905c9	-0.037359033
108	0x3d4dac60	0.050213218
109	0x3d684df7	0.056714978
110	0xbcf9584b	-0.03043761
111	0x3d19808a	0.0374761
112	0x3c6af4bf	0.014340579
113	0x3d655cce	0.05599671
114	0xbd5e5272	-0.054277845
115	0xbc76b25c	-0.015057173
116	0x3d303f97	0.043029394
117	0x3b6f9800	0.0036559105
118	0x3cdb1da8	0.02674754
119	0x3d5e4b91	0.054271284
120	0x3d802830	0.06257665
121	0x3d60a600	0.05484581
122	0xbd498bf9	-0.049205754
123	0xbb913da9	-0.0044323993
124	0x3d902cae	0.07039772
125	0x3c80d078	0.015724406
126	0xbd54ef3c	-0.051985964
127	0xbd0142ab	-0.03155772
128	0x3d2f290e	0.042763762
129	0xbc078104	-0.008270506
130	0xbc77f7f0	-0.0151347965
131	0xbc8ef880	-0.017452478
132	0xbd1c46f6	-0.03815361
133	0xbc9c8ad3	-0.019109165
134	0x3d548d81	0.05189276
135	0xbd2ae6c7	-0.041723993
136	0x3d1342d6	0.03595241
137	0xbc8d5dfc	-0.01725673
138	0x3c9f0e25	0.019415924
139	0xbd059044	-0.032608286
140	0x3d488070	0.048950613
141	0xbd172a35	-0.036905486
142	0xbba81670	-0.005129628
143	0x3ce05ccc	0.027387999
144	0xbd67b276	-0.056566678
145	0xbbde7860	-0.006789252
146	0x3be113f7	0.006868835
147	0x3cd95bc4	0.026533015
148	0xbce38582	-0.027773622
149	0x3d649057	0.055801716
150	0x3c6ddfef	0.014518722
151	0x3c341721	0.0109918425
152	0xbd22ce8a	-0.039747752
153	0x3d268679	0.040655587
154	0x3c32a56d	0.010903698
155	0xbd10b9e5	-0.035333533
156	0xbd6b3c5c	-0.05743061
157	0x3c649d2a	0.013953486
158	0xbc443d99	-0.011977577
159	0xbce6e11c	-0.028183512
160	0x3d4ee182	0.05050803
161	0xbc3ba500	-0.011452913
162	0x3b256226	0.0025235503
163	0x3d1fa3d4	0.038974598
164	0x3cebf14e	0.028801586
165	0xbbcc8ead	-0.006242594
166	0x3ceda5c5	0.02900971
167	0x3d823261	0.06357265
168	0x3c9961fb	0.018723479
169	0xbcf1f8cc	-0.02953758
170	0x3c951842	0.018200044
171	0x3d6447dd	0.055732597
172	0x3d16fa19	0.036859605
173	0x3d088ce0	0.033337474
174	0xbc963090	-0.018333703
175	0x3c4df182	0.012569787
176	0xbd6d7a35	-0.057977874
177	0x3b6f6863	0.0036530725
178	0x3d22d2d6	0.03975185
179	0x3cfbad09	0.030722158
180	0x3c807130	0.015678972
181	0x3d08e36b	0.033420008
182	0x3d91af48	0.0711351
183	0xbce20039	-0.027587997
184	0xbcddcf34	-0.027076341
185	0x3d46417e	0.048402302
186	0x3c300bc0	0.010744989
187	0xbd854286	-0.06506829
188	0x3d14c0b3	0.036316585
189	0xbccfa5e0	-0.02534765
190	0x3cbef2e5	0.02330918
191	0x3ca325a3	0.019915408
192	0x3cdddd4d	0.027083063
193	0x3d2800a9	0.041016255
194	0x3ceb7fe5	0.028747508
195	0x3cc98056	0.024597328
196	0xbbb1f56b	-0.0054308674
197	0xbd629d9a	-0.05532608
198	0xbd36e157	-0.044648495
199	0xbd1eb690	-0.038748324
200	0x3c28d055	0.0103035765
201	0xbcdae805	-0.026721964
202	0xbc51e92d	-0.012811941
203	0x3c6a52e4	0.014301989
204	0xbd7062b2	-0.058687873
205	0xbc944154	-0.018097557
206	0xbce62002	-0.028091434
207	0x3d03f27c	0.032213673
208	0x3d67e323	0.0566131
209	0xbd0c87c2	-0.034309156
210	0xbbbd3377	-0.0057739574
211	0x3d2bcc83	0.041943084
212	0xbd54c120	-0.05194199
213	0xbd5b5560	-0.053548217
214	0x3d320339	0.043460105
215	0xbc318ffa	-0.010837549
216	0xbd10a71d	-0.03531562
217	0xbd6ced48	-0.057843477
218	0xbc006895	-0.007837434
219	0x3d5c8f4f	0.053847607
220	0x3c40a739	0.011758619
221	0x3d0e72d8	0.034777492
222	0x3d39b5b3	0.045339298
223	0xbc5639d7	-0.0130753135
224	0xbc702fa8	-0.0146598
225	0x3bcec240	0.0063097775
226	0xbd05cd0c	-0.03266625
227	0xbd48128c	-0.048845813
228	0x3cf88bd4	0.030340113
229	0x3cd7db87	0.026349796
230	0x3d0eaf94	0.034835413
231	0xbd721b0a	-0.059107818
232	0xbc86b405	-0.016443262
233	0xbd1721c0	-0.03689742
234	0x3d268d34	0.040662006
235	0xbcd7c4a3	-0.02633888
236	0xbcd5dca1	-0.02610618
237	0x3c13a863	0.0090123145
238	0x3a71a02e	0.0009217289
239	0xbc4d8efd	-0.012546298
240	0x3bfc9100	0.007707715
241	0x3b9ee487	0.00484902
242	0x3ce90157	0.028443022
243	0x3d0303e2	0.031986125
244	0x3d480791	0.04883534
245	0x3cfd5de8	0.030928567
246	0x3b984b94	0.0046476815
247	0xbd01adc4	-0.031659856
248	0x3cee2087	0.029068245
249	0xbd742966	-0.059609793
250	0xbd50bd0d	-0.050961543
251	0x3d245d9c	0.040128335
252	0x3d3e5493	0.046467375
253	0x3cd45cf9	0.025923239
254	0xbccd493f	-0.02505934
255	0xbd08e113	-0.033417773

net2.6.weight f4 [2, 256]
0	0xbd505cc7	-0.05086973
1	0x3d8d1b26	0.06889944
2	0x3d1ddbb9	0.038539622
3	0xbd8ab653	-0.06773057
4	0x3ce52994	0.027973928
5	0xbcb095d6	-0.021555822
6	0xbbce3142	-0.006292493
7	0xbd16a79e	-0.036780946
8	0xbd7a6bce	-0.061137967
9	0x3d84abd8	0.06478089
10	0xbde94f2a	-0.113920525
11	0xbd3f35f8	-0.046682328
12	0x3d998cb7	0.07497542
13	0xbcdd2aa8	-0.02699788
14	0x3d7803ba	0.06055043
15	0x3dd2a3a3	0.102851175
16	0x3d57588a	0.05257467
17	0xbc44dc95	-0.0120154815
18	0x3d5d8068	0.054077536
19	0xbcd4a509	-0.025957601
20	0x3b33c0e6	0.002742821
21	0x3c635076	0.013874164
22	0x3cf2e7f1	0.029651614
23	0x3d2a411d	0.041566003
24	0xbd8fc50e	-0.07020007
25	0xbdaf10a2	-0.08548094
26	0xbcb4d91e	-0.022076186
27	0xbd885f8b	-0.066588484
28	0xbdf637a0	-0.120223284
29	0xbdb2cd85	-0.08730606
30	0xbcd79a5d	-0.026318723
31	0xbd953d1c	-0.07287046
32	0xbbe29ee0	-0.006915912
33	0x3da18bcc	0.07887992
34	0x3ccfb045	0.025352607
35	0x3d4a0ecc	0.049330518
36	0x3d5c55e0	0.053792834
37	0xbd43504a	-0.04768399
38	0xbdd1a5b9	-0.10236687
39	0xbcd28200	-0.025696754
40	0x3d27198a	0.04079584
41	0x3da6d833	0.081467055
42	0xbd6c8e9e	-0.057753198
43	0xbc568052	-0.013092117
44	0x3cfef508	0.0311227
45	0x3d3dde8e	0.046354823
46	0xbd941ed4	-0.072324425
47	0x3d92a25f	0.07159876
48	0x3d0cd6e0	0.03438461
49	0xbd768416	-0.06018456
50	0xbd28439c	-0.041080102
51	0xbd5e7916	-0.054314695
52	0xbcd7247c	-0.026262514
53	0xbd4cde8e	-0.050016932
54	0x3cc25502	0.023722176
55	0xbd2e3883	-0.042534363
56	0xbd07e31e	-0.03317558
57	0x3caec7f1	0.021335574
58	0xbd54b0d3	-0.051926445
59	0x3c56f11c	0.013119008
60	0x3d0ce05a	0.034393646
61	0x3d73d924	0.059533253
62	0x3d086318	0.03329763
63	0x3d5dac22	0.054119237
64	0xbcfbcf10	-0.030738384
65	0x3c9154b8	0.017740592
66	0xbcc88f0c	-0.024482273
67	0xbbf6140b	-0.0075097135
68	0xbd63130e	-0.055438094
69	0x3e04a52a	0.1295363
70	0x3dc6cc2d	0.09706912
71	0xbd617664	-0.055044547
72	0x3bc3c990	0.005974956
73	0x3d653bd7	0.05596527
74	0xbdb2ec87	-0.0873652
75	0x3d20a460	0.03921926
76	0xbd3a6aa2	-0.04551185
77	0xbcdccefb	-0.026954165
78	0xbda4121a	-0.08011265
79	0xbd06d31d	-0.032916177
80	0x3d5d75c1	0.054067377
81	0xbc868aaf	-0.016423551
82	0xbdd6579b	-0.10465928
83	0xbde7c8fc	-0.113176316
84	0x3c9c9978	0.019116148
85	0x3d72f10b	0.059311908
86	0x3d26c3a5	0.040713925
87	0xbd74f2c4	-0.05980183
88	0x3d16b671	0.036795083
89	0xbd983bcb	-0.074332796
90	0x3d19eadf	0.037577506
91	0x3d0a2620	0.033727765
92	0x3da34b72	0.079733744
93	0x3d26d001	0.04072571
94	0x3d639610	0.055563033
95	0x3d2902aa	0.041262306
96	0x3d8f3c55	0.06993929
97	0x3ca21460	0.019785106
98	0xbd70fff4	-0.058837846
99	0x3d95338f	0.07285225
100	0xbd025cfe	-0.031826966
101	0xbd5cf088	-0.053940326
102	0x3d3bc05c	0.045837745
103	0x3d38ceea	0.045119204
104	0xbd0a3da3	-0.033750188
105	0xbce97d28	-0.028502062
106	0x3d206f24	0.039168492
107	0x3d84ed56	0.06490581
108	0xbdc1b9de	-0.094592795
109	0xbdf119f4	-0.11772528
110	0xbdb4081c	-0.08790609
111	0x3db5433e	0.08850716
112	0xbd7bebd8	-0.061504215
113	0x3d0f544e	0.03499251
114	0xbd721f20	-0.059111714
115	0x3d871240	0.06595278
116	0xbddcc6e3	-0.10780122
117	0x3d288ac2	0.041147955
118	0xbc6e2058	-0.014534079
119	0x3d5cd95e	0.053918235
120	0xbd706c82	-0.05869723
121	0x3cc5371a	0.024074126
122	0x3ddf4146	0.10901122
123	0xbd11b9d3	-0.035577606
124	0x3e055ab9	0.13022889
125	0xbda64ff3	-0.08120718
126	0x3d112892	0.03543908
127	0x3e06395e	0.13107821
128	0xbd837cbc	-0.064202756
129	0xbd145d56	-0.036221825
130	0x3d1db70c	0.038504645
131	0x3c073bf0	0.008254036
132	0xbc2e1a60	-0.0106264055
133	0xbd43a1c1	-0.047761682
134	0x3dcbfecc	0.09960708
135	0x3ccc9cc6	0.0249771
136	0x3a573c6c	0.00082106027
137	0xbd6923ae	-0.056918792
138	0xbc02e94f	-0.007990195
139	0x3d88feb9	0.066892095
140	0x3c8bb7cc	0.017055415
141	0xbdc95449	-0.09830529
142	0x3c0e1b5a	0.008673513
143	0xbddc9402	-0.10770418
144	0xbd1a596c	-0.037682936
145	0x3ceb4410	0.028718978
146	0xbda78f93	-0.081816815
147	0x3c22d758	0.009939037
148	0xbce85f63	-0.028365796
149	0x3d126dd1	0.03574926
150	0x3c627940	0.013822854
151	0x3dcd92dd	0.100377776
152	0xbd442edc	-0.04789625
153	0xbd29448a	-0.04132513
154	0x3d8d2690	0.06892121
155	0xbcc5c326	-0.024140906
156	0xbe11e4ca	-0.14247432
157	0xbd802f64	-0.06259039
158	0x3dfb80b5	0.12280408
159	0x3c8489bc	0.016178958
160	0xbdae7384	-0.085181266
161	0xbdb3978b	-0.08769139
162	0x3d5c0d58	0.053723663
163	0xbd7fddad	-0.062467266
164	0xbd8b62f6	-0.06805985
165	0xbcdef9c8	-0.027218714
166	0xbde8800d	-0.11352549
167	0xbdf46947	-0.119341426
168	0xbd2b88e7	-0.041878607
169	0xbd063936	-0.032769404
170	0xbd3f9942	-0.046777017
171	0x3d63efe1	0.05564869
172	0x3cc6d5f9	0.024271952
173	0xbcf6a30c	-0.030107044
174	0xbd2bf131	-0.041978065
175	0x3d3e5b55	0.04647382
176	0xbbb3a60d	-0.0054824413
177	0x3cd3816b	0.025818547
178	0x3d6b2f3a	0.057418086
179	0x3cae2d45	0.02126182
180	0xbcbcaeb8	-0.023032531
181	0x3d679a86	0.05654385
182	0xbd852978	-0.0650205
183	0x3c283ef5	0.010268916
184	0xbd7be0c8	-0.061493665
185	0x3d0de3bc	0.034641013
186	0xbcae14cc	-0.021250151
187	0x3cccd823	0.025005406
188	0x3b9e9b49	0.004840289
189	0x3d136354	0.0359834
190	0x3de1a5b2	0.11017932
191	0x3daac784	0.08338836
192	0x3d61b3df	0.05510318
193	0xbd2f18a0	-0.042748094
194	0xbd4bcfbc	-0.049758658
195	0xbd54cc91	-0.051952902
196	0x3d5f9813	0.05458839
197	0x3d0264d2	0.03183443
198	0x3da327c6	0.079665706
199	0xbc707cc0	-0.01467818
200	0x3d609c1d	0.05483638
201	0x3defab75	0.11702625
202	0x3c70743a	0.014676148
203	0xbd05e284	-0.032686725
204	0x3d51bd12	0.051205702
205	0xbd763994	-0.060113505
206	0xbbf14eeb	-0.007364144
207	0xbd42d778	-0.04756877
208	0x3cd5a4c7	0.026079549
209	0x3d16f48a	0.036854304
210	0xbb7cb734	-0.0038561346
211	0xbdaf5422	-0.08560969
212	0xbdb2af37	-0.08724826
213	0xbdd63765	-0.104597844
214	0x3d1474af	0.03624409
215	0x3c447b42	0.011992278
216	0x3cc57eff	0.024108408
217	0x3cad26f8	0.021136746
218	0xbd1c6ffa	-0.038192727
219	0x3c5f3c08	0.013625152
220	0xbd77b2ba	-0.06047318
221	0xbd9b14f5	-0.075723566
222	0x3d10ff00	0.035399437
223	0x3d56f53e	0.052479975
224	0x3d208fde	0.039199702
225	0xbd5dc046	-0.054138444
226	0xbd3f6638	-0.046728343
227	0xbcc9be38	-0.024626836
228	0xbd4beb34	-0.049784854
229	0x3e18d291	0.14924075
230	0xbddc2962	-0.10750081
231	0xbcf1e234	-0.029526807
232	0xbd88ede5	-0.06686
233	0x3d60c01d	0.054870714
234	0x3e068f7e	0.13140675
235	0x3d66fd34	0.056393817
236	0x3c232249	0.009956905
237	0xbc9c6355	-0.019090334
238	0xbdcf69f2	-0.10127629
239	0xbddabcae	-0.10680519
240	0x3d3c48e6	0.04596796
241	0xbd72ca05	-0.059274692
242	0x3dae82ed	0.08521066
243	0xbdc1c404	-0.09461215
244	0xbd1a2350	-0.037631333
245	0xbd3cef01	-0.04612637
246	0xbdb75018	-0.089508235
247	0xbd42a948	-0.04752472
248	0x3cf78c8b	0.030218383
249	0x3d0c99fe	0.034326546
250	0xbd436604	-0.04770471
251	0x3d60cf65	0.054885287
252	0xbd64461d	-0.055730928
253	0xbd98d5b2	-0.07462634
254	0xbd86ff93	-0.06591716
255	0x3d67d79b	0.0566021
