training/save_ddpg_weights/DDPG_R1_actor_network_s6.pt (torch, 734843 bytes, 13 tensors)

net1.0.weight f4 [3, 1, 3, 3]
000000 b3 4f 13 be d0 de e8 3d 65 d8 54 3e b9 a6 e4 3c
       -0.14385872 0.11370623 0.20785673 0.02791153
000010 92 ef ff 3c f4 60 86 3e 7a c2 50 3e 6a 59 63 3e
       0.031242166 0.26245844 0.20386687 0.22202078
000020 a2 2b 8a 3e 83 a0 47 3e 86 73 2d 3e 0e 76 a4 be
       0.26986414 0.19494824 0.169386 -0.3212132
000030 1e f2 41 be a2 d3 8e 3e c2 e9 a7 be 8b 1e 08 3d
       -0.18940017 0.27895838 -0.3279553 0.033232253
000040 56 de f7 bc 5e 30 20 3e 53 fa 19 3e 48 2d 29 be
       -0.030257385 0.1564345 0.15036897 -0.1652118
000050 0a c9 a5 be 16 24 a9 3d 33 98 4f 3e 0b dc 06 bd
       -0.32379943 0.08258836 0.20272903 -0.032924693
000060 e6 21 2f 3e f4 ad 86 be 2e fd 5c be
       0.17102775 -0.2630459 -0.21580955

net1.0.bias f4 [3]
000000 ee 53 34 3e 06 1a 6b be b3 84 21 be
       0.17610142 -0.22959146 -0.15773277

net1.2.weight f4 [3, 3, 2, 2]
000000 a6 af bd bd be 14 5b bd 6c f4 13 3e c8 71 8f be
       -0.09262018 -0.05348658 0.14448708 -0.28016496
000010 b5 b6 50 3e 7a 9c 2f 3e a6 10 11 3e ee 35 b6 3d
       0.20382197 0.17149535 0.14166507 0.08897005
000020 5c f4 c6 3d 6e 31 69 be fa cb bf 3d 56 39 60 3e
       0.097145766 -0.22772762 0.09365077 0.21896872
000030 b8 ed 83 be 9b 8b d9 3d 3d 1d 80 3e 34 71 69 3e
       -0.25767303 0.10622331 0.25022307 0.2279709
000040 29 34 19 3e 82 42 d2 bc 15 bd 82 be 1c 04 87 be
       0.14961304 -0.025666479 -0.25534883 -0.26370323
000050 b2 8c 90 3e 83 9c 29 be 1f e7 1b 3e d0 0c b5 bb
       0.28232342 -0.1656361 0.15224884 -0.005525209
000060 d9 58 be bd 6a 56 35 be ea 0a 16 3e f2 a0 8f 3e
       -0.0929429 -0.17708746 0.14652601 0.2805248
000070 55 61 29 be d7 96 6d bd 7a 1a 90 be a0 a7 89 be
       -0.16541035 -0.05800518 -0.281452 -0.268857
000080 4b 30 2a 3e fc 75 6c 3e d9 26 51 3d 13 e2 92 3e
       0.16619985 0.23091882 0.05106244 0.28688106

net1.2.bias f4 [3]
000000 9b 39 11 bd e0 ea a1 bd f0 1f 27 be
       -0.035455327 -0.07906127 -0.16320777

net1.4.weight f4 [1, 3, 2, 2]
000000 a3 62 3d 3e c9 a2 26 3e 82 5e 1c 3d d4 06 19 be
       0.18494658 0.16273035 0.038176067 -0.14944011
000010 4d b2 8a 3e 45 65 d7 3d 6d b5 db 3d dd 5f cb 3b
       0.27089158 0.105173625 0.107279636 0.006206496
000020 4a 8b d0 3d d2 e8 4d 3e 19 5a 43 be 8a d7 87 bc
       0.10182817 0.20108345 -0.19077338 -0.01658227

net2.0.weight f4 [256, 196]
000000 ab db 80 3d 25 7c 43 bb 05 90 73 bd ca 82 4c 3d
       0.06291898 -0.0029828635 -0.05946352 0.049929418
000010 c0 ce a3 bc ce a3 91 3c 5c 0b c6 3b 13 51 0a bd
       -0.019996047 0.017778303 0.0060438346 -0.033768725
000020 70 5b 0f bd 17 f1 59 bd c7 76 15 3d dc cd 49 3b
       -0.03499931 -0.053208437 0.036490228 0.0030792868
000030 9a 10 5f bd 4e a2 fb 3c 78 b9 77 3d 4f 27 92 bd
       -0.05445919 0.030717041 0.06047961 -0.07136404
000040 37 27 93 bc 37 74 85 bd 81 ef e3 3c 37 83 2b bc
       -0.017963035 -0.06516307 0.027824165 -0.010468296
000050 3e 17 65 bd 88 ee 6a 3d 2c c1 39 3d 4a ed 14 bd
       -0.05593037 0.057356387 0.04535024 -0.03635911
000060 a5 c0 5a bd 11 96 2c 3d dc 1d 47 bc 5e 16 8b bd
       -0.053406376 0.042135302 -0.012153115 -0.067913756
000070 73 11 25 bd ee 1c 4e bd 81 18 4f 3d 93 71 70 3c
       -0.040299844 -0.05032056 0.050560478 0.014675516
000080 e3 82 65 bd e8 e9 75 3d 1c 54 23 3d a5 3f 98 3b
       -0.056033026 0.060037524 0.039875135 0.004646259
000090 b7 00 0b bd b7 26 34 bc d3 8c 96 bc d8 f2 ec bc
       -0.03393623 -0.010995558 -0.018377697 -0.02892439
0000a0 c1 a1 5e bd 6a ed 8e bc ac ae 7b bd 16 b4 8c bd
       -0.05435348 -0.017447192 -0.061445877 -0.06870286
0000b0 33 bc 5c 3d 4a b1 33 3b 6c aa 74 bd 03 69 85 bd
       0.05389042 0.0027418905 -0.05973284 -0.0651417
0000c0 bc e1 1c bd 37 63 ac 3c d7 10 09 bd 84 2b 82 bd
       -0.038301215 0.021043403 -0.033463325 -0.06355956
0000d0 dc e5 b9 3c 17 63 94 bc 1c d0 05 bd 21 d0 ad 3c
       0.022692613 -0.018113656 -0.03266917 0.021217408
0000e0 a5 19 b0 3c 1c d0 f9 bc 95 26 62 3d ea 4b 75 3d
       0.021496603 -0.030494742 0.055212576 0.05988685
0000f0 93 41 0f 3c d3 d8 9c 3c 7c a5 90 bd a8 39 61 bd
       0.008743661 0.019146359 -0.07062814 -0.054986626
000100 47 4d 38 3d b8 3e 65 bd 0a 9f f0 bc 81 26 e8 3b
       0.044995572 -0.055968016 -0.02937271 0.007084668
000110 71 c7 34 bd 6e c4 ca 3c 85 e8 57 bd 80 bb 21 bd
       -0.044135515 0.024751868 -0.052711982 -0.039485455
000120 21 ea c9 bc da 87 2f bd a7 8f 34 bd e5 3f 5c bc
       -0.024647774 -0.042854168 -0.04408231 -0.013442968
000130 da 13 57 bd 61 14 f3 3c f3 35 5e bd 85 9c c6 bc
       -0.052509166 0.029672803 -0.05425067 -0.024244556
000140 17 e5 8f bc bc ee af 3c 55 6e 83 3d 6c 6e 60 3d
       -0.017565293 0.021476142 0.064175285 0.054792807
000150 62 01 92 3d c5 ea 32 3d 85 2b c0 bc 13 6a ad 3c
       0.0712917 0.043680925 -0.023458252 0.021168744
000160 a5 5a 7d bc ba 07 17 3d b7 9f a5 bc cc a6 7e bd
       -0.015463506 0.036872603 -0.02021776 -0.06217079
000170 de b8 59 bd 25 83 2b bd 75 7b 85 3d bc c3 65 bd
       -0.05315482 -0.041873116 0.06517688 -0.05609487
000180 ca 49 b1 bb fc 02 ff bc b5 cb 0d bd 3c 4d bb 3c
       -0.0054104077 -0.031129353 -0.0346181 0.022863977
000190 f4 a1 8e bd 1c 0a ff 3c dc 4d dd bc 45 df e8 3c
       -0.06964484 0.03113275 -0.027014665 0.028426776
0001a0 f5 0e 3d bd 9a eb 6f 3d 35 0d 05 bd 45 87 6e bd
       -0.046156842 0.058574297 -0.0324833 -0.05823447
0001b0 da cd 66 bd 2e f3 21 3c d4 51 89 bd 55 9d 7e 3d
       -0.05634866 0.009884639 -0.067050606 0.062161762
0001c0 93 e9 68 bb 1a cc 26 3d b8 51 6f 3c 00 98 07 3c
       -0.0035539612 0.04072199 0.014606886 0.008275986
0001d0 9e b7 2f 3d 4a aa 13 3a ae ea 13 3d 4e 9c 86 bd
       0.04289972 0.000563298 0.03611248 -0.065727815
0001e0 41 38 f0 3c f7 8a 9b 3c 1c 44 1c 3c 8d f5 83 bd
       0.029323699 0.018987162 0.009537723 -0.064433195
0001f0 e5 96 aa bc 6e db a7 ba 22 44 8b 3d 93 fc a8 bc
       -0.020823905 -0.0012806484 0.06800105 -0.02062825
000200 7c 77 36 3d e8 ab 8d 3d d6 c8 87 bd 9a ec 3e 3d
       0.044547543 0.06917554 -0.06630103 0.04661236
000210 47 1a 27 bd bd 73 91 bd 9a 50 3c 3d 43 c8 36 bd
       -0.040796544 -0.071021535 0.045975305 -0.04462458
000220 01 49 e9 3b 93 ea ef 3a 25 c6 d9 bb 3e 2a 4c 3d
       0.0071192984 0.0018304161 -0.006645935 0.049844973
000230 4a 8c 7f bc a8 04 89 bd 01 31 2c 3b 37 dc d0 3b
       -0.015597412 -0.06690341 0.0026274326 0.006373908
000240 dc 6b 26 bc ca 48 6a bd 4e ad 78 3d b7 85 c1 3a
       -0.010157552 -0.057198323 0.06071215 0.0014764582
000250 6e 41 db bb 05 14 5b 3d a1 df 52 bd c8 cd 5c bd
       -0.0066911494 0.05348589 -0.0514828 -0.053907186
000260 17 b2 d3 bc 07 5f 2e bd 25 f2 60 bb 27 55 4b bd
       -0.025841756 -0.042571094 -0.0034324017 -0.049641754
000270 1c 78 2e 3c e5 23 58 3d ce 1b f0 bc 17 90 2d 3d
       0.0106487535 0.052768607 -0.029310133 0.042373743
000280 b3 33 86 3c 77 67 27 bc ee 79 0d bd e7 ae 4d bd
       0.016382074 -0.010217539 -0.03454011 -0.050215628
000290 13 28 89 bc 83 9a 14 bd 5a 3c 15 3d 97 c2 12 3d
       -0.016742742 -0.036280166 0.03643451 0.035830107
0002a0 ae 67 5d bc 0e b5 8d bc 0a 59 60 3d 93 eb ca 3b
       -0.013513489 -0.017298248 0.054772414 0.0061926334
0002b0 8a 5f 06 3d 53 66 29 bc a3 61 20 3d 33 17 9e bc
       0.032805957 -0.010339337 0.039155614 -0.019298172
0002c0 2c 4a 0b 3d 9e 12 4f 3d 3c aa fe bc 18 ff ed 3c
       0.034006283 0.050554864 -0.031087033 0.029052302
0002d0 c3 77 3c 3d 5c 2e ca bc 17 87 9c 3c 2a cd 8a 3d
       0.04601265 -0.024680309 0.019107385 0.06777413
0002e0 d3 87 17 3d d7 5e b6 3c 4a 20 ee 3a 2e d7 79 bd
       0.036994766 0.02226202 0.0018167582 -0.060996227
0002f0 2e 7c 0a 3d ae 7c 43 3c 7c 59 65 bd 25 d9 ab b9
       0.033809833 0.011931581 -0.055993542 -0.00032777447
000300 5c 44 8b bc 2e ab 45 bd 45 de cd bc 9c 71 76 bc
       -0.01700037 -0.048258953 -0.0251304 -0.015041735
000310 4c a3 09 bd 45 b9 3a 3d b5 08 10 bd 37 9c 9a 3c
       -0.033602998 0.045586843 -0.035164554 0.018873317
000320 4a 67 59 3d c5 b5 8a bd e1 88 50 bd 00 db 83 3c
       0.05307702 -0.06772951 -0.050911788 0.016095638
000330 f3 58 81 bc f2 bb 86 bd d3 18 b7 bc 0e f1 fc 3c
       -0.015789485 -0.065788165 -0.022350704 0.030876663
000340 3b 6a 84 3d 00 03 9b bb 8e ba e3 3c 23 3b 43 3d
       0.06465574 -0.0047305822 0.027798917 0.04766382
000350 83 02 73 3d e7 9e 53 3d c3 22 71 3d ea c4 16 3d
       0.059328567 0.051665213 0.058871042 0.036808886
000360 1a d7 72 3d dc e3 15 bc b8 13 e6 bc d8 21 62 bd
       0.059287168 -0.009148564 -0.028085575 -0.055208057
000370 45 bc 6f bd b7 67 09 3c ca 5b 8e 3d 53 fe a1 bc
       -0.058529157 0.008386544 0.06951101 -0.019774592
000380 21 c0 e1 3c 93 38 7d bc 45 d1 b0 bc f5 87 55 3d
       0.027557435 -0.015455383 -0.021584162 0.05213161
000390 6e b4 02 3c 9e b9 00 3d b7 ff 8a bb 9e 30 3e bd
       0.007977588 0.03142702 -0.0042419094 -0.046433084
0003a0 ea c9 ff 3c dc 5f 02 bd 25 c7 dc bc 2a b8 61 bd
       0.03122421 -0.0318297 -0.026950428 -0.055107273
0003b0 6e f7 44 3b ae bb bd 3c e3 c0 28 3d 65 46 3c 3c
       0.0030054706 0.023160782 0.041199576 0.011491393
0003c0 ae dc 75 3d 12 85 83 bd a5 a0 d6 3b 93 55 58 3c
       0.06002491 -0.064218655 0.006549912 0.013203996
0003d0 25 fd 09 3c d3 df a4 3c 15 66 66 bd 20 cb 95 3c
       0.008422171 0.020126259 -0.056249697 0.018285334
0003e0 b0 1a 26 3d ca c8 92 3c dc 63 51 bc 01 94 b0 ba
       0.040552795 0.01791801 -0.012780156 -0.0013471843
0003f0 85 86 4e bd 46 91 91 bd ce 40 b8 3c fc ff 51 bd
       -0.050421257 -0.07107787 0.022491839 -0.051269516

net2.0.bias f4 [256]
000000 6a 4b 7d bd 08 44 74 bd 5a 00 53 3d e1 84 e9 bc
       -0.0618395 -0.059635192 0.051514007 -0.028505744
000010 24 8c 44 bd f6 86 65 b9 c1 fd 69 3d 63 b8 7a bd
       -0.04798521 -0.00021889419 0.057126764 -0.061211
000020 86 44 9a 3c 8a 83 6a 3c 4e 46 54 bd fd 4f 7f 3d
       0.018831503 0.014313588 -0.05182486 0.062332142
000030 a1 5e e4 3c 6e 94 c1 bb 05 7d 91 3c 8e 7d b7 3b
       0.027877154 -0.005907587 0.01775981 0.005599684
000040 de 0c 67 3d 1d 26 4b 3d 92 00 46 3b 78 4e e2 bc
       0.056408755 0.049596895 0.0030212742 -0.027625307
000050 91 65 31 bd 1d d9 66 3d 7b 3f 6d 3d 4e 7a 83 bc
       -0.043309752 0.0563594 0.057921868 -0.01604953
000060 0a 39 50 bc 06 55 eb bc 73 e7 87 3d 13 3f 25 bd
       -0.012708912 -0.028727066 0.06635942 -0.040343355
000070 0e 7d af 3b 83 71 91 3d 76 ee 91 bc e6 e4 b1 3d
       0.005355484 0.07101729 -0.017813902 0.08686237
000080 49 1d 27 3d 16 4d 6a bd 46 dd de bc e2 9e f0 3c
       0.040799413 -0.05720242 -0.02720512 0.029372636
000090 4a 2d 41 3d 57 53 48 bd d5 9f 34 3d 9b 43 92 bd
       0.04716233 -0.048907604 0.04409774 -0.07141801
0000a0 2c aa 75 3c 55 7f 77 3d e7 28 4f 3d 8e 97 fd bc
       0.014994185 0.060424168 0.050576117 -0.030956056
0000b0 4b fa 2a bc e3 97 59 bd 6a 80 c2 bc a1 68 d9 bc
       -0.010435651 -0.053123366 -0.023742873 -0.026539149
0000c0 a8 30 60 3d 4a 60 a6 ba be 91 31 3c c9 32 05 bd
       0.054733902 -0.0012693491 0.01083797 -0.032519136
0000d0 d0 36 08 3d 77 58 f2 3c d3 59 43 3d 8b 09 8e 3d
       0.0332554 0.029583199 0.047693085 0.06935414
0000e0 f1 c5 35 bd b9 14 17 bc 84 5a af b8 1d f5 85 3d
       -0.044378225 -0.009221249 -8.36151e-05 0.06540892
0000f0 13 2c fd 3b ce a6 53 3d c9 dc 54 bb 18 26 c8 bc
       0.0077262013 0.05167275 -0.003248023 -0.024432227
000100 6f 72 32 bd a3 2c 66 bd e6 d8 6d 3d db bc ec 3c
       -0.043566164 -0.056194913 0.05806818 0.028898647
000110 71 35 47 bc aa 46 60 3d 3f b9 76 3d a7 34 20 bd
       -0.0121587375 0.05475489 0.06023526 -0.039112713
000120 06 ed 8c 3d c1 1f 63 bd 53 16 96 3d 1c bb 51 3d
       0.06881146 -0.055450205 0.07328477 0.051203832
000130 40 5b 1a bc 8b 12 e8 bc 63 2f 9a 3d f6 0d f9 bc
       -0.00942117 -0.028329154 0.075285695 -0.030402165
000140 e1 0f 1e bd 0b 3f 84 bd 57 b3 5a 3d 55 8e 73 3d
       -0.038589362 -0.06457337 0.053393688 0.05946191
000150 48 88 62 bd 8c 1d a0 3c e3 0b 92 bd 02 32 ea bc
       -0.05530575 0.019545339 -0.071311735 -0.028588299
000160 98 3e 06 bd d1 9f 73 3d ea ff fe bb e8 a3 89 3d
       -0.032774538 0.059478585 -0.007781972 0.06720716
000170 b1 c1 0b bd 01 23 f6 bb a8 17 fb 3c 5d 51 c2 bb
       -0.034120265 -0.007511497 0.030650929 -0.0059301094
000180 e7 1f 09 3c f8 55 84 bd 9d 46 bc bc c8 94 71 3d
       0.0083694225 -0.0646171 -0.02298289 0.05897978
000190 73 28 20 3d 0e 44 f8 bc eb 82 b0 3c 61 28 d4 3c
       0.039101075 -0.030305889 0.021546802 0.02589816
0001a0 55 51 27 3d 78 89 aa bc 70 34 1d bc 8e 82 5e bd
       0.04084905 -0.020817503 -0.009595022 -0.054323725
0001b0 aa 91 1b 3d 5f ab 14 3d b5 a9 08 bd 55 61 a8 3c
       0.037980713 0.036296245 -0.03336497 0.020554224
0001c0 6e 71 eb bc b5 4e 72 bd 2b 91 5e bd 05 91 08 3d
       -0.02874061 -0.059157092 -0.05433766 0.033341426
0001d0 53 82 e8 3c 80 03 7b bc 7c d8 3c bd 65 a7 96 3c
       0.028382456 -0.015320659 -0.046104893 0.018390367
0001e0 6f 4d 25 bd be 4d 74 3c 6c 30 90 bd 7e 10 73 bd
       -0.04035705 0.014911113 -0.07040486 -0.0593419
0001f0 3c 59 e3 3c bd c1 3f 3d 05 95 f5 bc dc 56 ae ba
       0.027752511 0.046815623 -0.029978285 -0.0013301033
000200 1c b2 38 3d 73 57 80 3d fc 5d ba bc a5 59 bb 3b
       0.045091733 0.062666796 -0.022749893 0.0057174736
000210 80 ca 10 3d 0e 1e b6 3c b5 d3 87 3c dd c3 91 bd
       0.03534937 0.022231128 0.016580442 -0.07117436
000220 65 d4 a4 bc fd 6f 88 3c 8e 6e 4f bd 1f 4d 54 3d
       -0.020120809 0.016654963 -0.050642543 0.05183136
000230 2e 8e c9 bc b6 b2 09 3c 38 a1 64 bd 37 58 19 3d
       -0.02460393 0.008404424 -0.055817813 0.037437644
000240 ce a1 f9 bc 69 1c 31 bd ab 08 4c 3b ea 94 79 bd
       -0.030472662 -0.043239985 0.0031133096 -0.06093303
000250 20 38 de 3c 15 4b 16 bd 76 33 62 3c b7 16 07 bb
       0.027126372 -0.036692698 0.013806215 -0.0020612904
000260 6e 29 95 ba 75 ff 7a 3d 8a de da 3c 2c 7a e0 bc
       -0.0011380145 0.06127878 0.026717443 -0.027402006
000270 18 86 34 3d e3 dc 77 3d c3 1d 1c bd 21 f3 6c 3c
       0.044073194 0.06051339 -0.03811432 0.014462263
000280 6e ff 3c 3c 59 39 bc 3c 51 3e 6e 3d 3d 12 75 3d
       0.011535509 0.022976564 0.0581649 0.059831847
000290 ee cb 82 3b 85 71 67 3d 23 ba 4d 3d 9c 97 66 3d
       0.0039915955 0.056504745 0.050226342 0.05629693
0002a0 85 9d b9 bc 35 1d 00 bd 11 16 22 3d 66 8a 84 bc
       -0.022658119 -0.031277854 0.039571825 -0.016179275
0002b0 00 ee 8b bd 6e 32 87 3c fb 11 53 3c fe ac 6c bd
       -0.06832504 0.016503539 0.012882705 -0.057782166
0002c0 3b 4d 4a bd 54 4c 1e bd 0d 06 aa bc 9f 63 75 3b
       -0.04939006 -0.03864701 -0.020754838 0.0037443412
0002d0 d2 e5 14 3d 83 78 a8 3d 85 d0 a1 3c e8 a7 c7 bc
       0.036351986 0.08226111 0.01975275 -0.024372056
0002e0 b3 0e 2e bc d7 77 86 3d 85 d1 d8 3c 54 ba 42 bd
       -0.010623622 0.065658264 0.026467094 -0.047540978
0002f0 ee e2 d3 3b 48 d0 60 b9 96 82 1e 3d ee 95 1a bd
       0.006466261 -0.00021439895 0.038698755 -0.03774064
000300 00 39 82 3d 48 9a 61 3d 55 a7 10 3d 15 02 10 3c
       0.06358528 0.055078775 0.03531583 0.008789559
000310 e5 b7 a9 bc 36 a6 62 3d 8a fb cf 3c e2 d0 5d 3d
       -0.02071757 0.055334292 0.025388498 0.054154284
000320 56 a8 ca 3c 67 09 82 3d c5 f4 21 bd a7 aa b6 3c
       0.024738472 0.063494496 -0.03954007 0.02229817
000330 a5 77 29 3d 4c 93 47 bd 21 68 82 bd 33 b2 e9 bc
       0.041373868 -0.048724458 -0.06367517 -0.028527355
000340 4d cf 22 3d 8e b9 81 3c f3 17 ea 3c 8f 54 12 3c
       0.03974848 0.01583555 0.028575873 0.008931293
000350 79 e0 16 3c ac 9d 6e 3d 13 2e d6 3b 5f c3 59 3d
       0.009208792 0.058255836 0.006536254 0.053164836
000360 9a 17 64 3d 0a f4 7a bd 4e 2d 85 bd cd 00 8a 3d
       0.05568657 -0.06126789 -0.06502782 0.06738434
000370 b3 f4 b2 3c 5b b7 89 bd fe df 36 bd 23 27 3a bd
       0.021845197 -0.067244254 -0.04464721 -0.04544748
000380 1d 76 83 bd 49 54 8a 3d b2 97 84 bd 1c fd 4b 3d
       -0.06419013 0.06754357 -0.06474246 0.04980193
000390 17 ed 5e 3d ea 80 5b bd ee 92 1f bd f2 55 34 3c
       0.054425325 -0.05358974 -0.038958482 0.011006819
0003a0 e3 00 67 bd e2 93 ba bc c7 c3 29 bd 5c 94 6c bb
       -0.05639733 -0.022775594 -0.041446473 -0.0036099171
0003b0 7a 91 7f bd 50 a1 1c bd 8e 9a 89 3c 1a 5e 7d 3d
       -0.062394597 -0.038239777 0.01679733 0.06185732
0003c0 7b 6a fa bb fb 92 bf 3c 9c 4e 69 bd ea 22 12 3d
       -0.007642088 0.023385515 -0.056959733 0.035677828
0003d0 5c 8f 1c bc 7e 56 cc 3c 2e ee 70 bc 0c 8e 2a 3d
       -0.009555664 0.024943586 -0.014705224 0.041639373
0003e0 2b df 16 3d 6b 0a 95 3d 81 ae 4f 3c 8e 5b ba bc
       0.036833923 0.07277378 0.012675882 -0.022748735
0003f0 90 27 1d 3d 37 51 59 bd b3 26 50 3d 7d 5a 1f 3d
       0.038367808 -0.053055968 0.050818156 0.038904656

net2.2.weight f4 [256, 256]
000000 7a 95 2e bd 12 e4 08 3d a9 f8 36 3d 8b a1 98 3c
       -0.04262302 0.03342063 0.044670735 0.018631717
000010 51 3f 2e bd 20 26 aa 3c 88 21 a9 3c 14 4c 69 bd
       -0.042540852 0.020770133 0.020645872 -0.05695732
000020 9b 82 fa 3c 92 a9 1a 3d 8a f4 05 3d 56 c7 31 3d
       0.030579856 0.03775937 0.032703914 0.043402992
000030 0c 72 83 3c 30 ca db bc 72 4c 1d bd 23 07 ca 3c
       0.016045593 -0.026829809 -0.038402982 0.024661606
000040 2b 36 24 bd f9 cf 98 3c 9a c8 88 bc d7 7e 35 3b
       -0.04009072 0.018653857 -0.016697217 0.002769401
000050 60 3b ef bc 72 e1 09 3d 08 77 63 3d 38 43 3c 3d
       -0.029203117 0.033662267 0.05553344 0.045962542
000060 76 68 28 bd 6b df d2 3d 60 ad 95 3b 64 80 49 bd
       -0.041115247 0.1029652 0.004567787 -0.04919471
000070 4c f8 42 3d 76 d9 24 3d c3 29 a4 bc 4c 0c af bd
       0.047600076 0.04024645 -0.020039445 -0.08547267
000080 27 7f 40 3d cb ab 7e bc 7c c8 18 bd ba 26 36 bd
       0.046996262 -0.015543888 -0.03730057 -0.044470526
000090 38 e0 7d bc 2c 6f d3 bc 68 2d 0a 3d c5 39 89 bc
       -0.015495352 -0.025809847 0.03373471 -0.01675118
0000a0 35 21 bc 3b 35 84 e1 bc ea 59 35 3d 50 04 39 3d
       0.0057412633 -0.027528862 0.0442752 0.04517013
0000b0 7d 37 ea 3c a0 f2 28 bd 60 fa 57 3d f8 59 d5 3c
       0.028590912 -0.04124701 0.05272901 0.026043877
0000c0 8e 0e 6a bd bc d3 ac bc 40 e5 41 bd 63 c6 b1 3d
       -0.057142787 -0.021097057 -0.04733777 0.086804174
0000d0 65 35 49 bd 4c 2c 4b bb a7 14 cb 3d 28 1b 98 bc
       -0.049123187 -0.0031001745 0.099160485 -0.018567637
0000e0 80 c0 42 3d 54 6c 65 3d ec 89 3d 3c 3a 88 21 bd
       0.047546864 0.056011513 0.011568528 -0.039436556
0000f0 4c 11 1a 3d 04 62 8c bc 87 22 21 3c 6f 02 d1 bc
       0.03761415 -0.017136581 0.009834892 -0.025513856
000100 64 16 0c 3e 56 ac 55 3d 5d bb 19 3c 2f dd ef b9
       0.13680416 0.052166305 0.00938305 -0.00045750427
000110 7f d9 d8 3d 4c 71 83 3c d2 81 b6 3c a4 7c 3a 3d
       0.10588359 0.016045235 0.0222787 0.045529023
000120 ee a0 1e bd ac 2c 78 bd 1d 34 24 bd cd 42 7c 3d
       -0.038727693 -0.060589477 -0.04008876 0.061587144
000130 18 5e 7b 3c fc 0a e0 3c a0 ef 7e 3c 40 9f 75 3d
       0.015342258 0.027348988 0.015560061 0.059966326
000140 dd aa c9 3c 80 57 66 3d 40 7b ca 3b c0 b3 89 bd
       0.024617607 0.05623579 0.0061792433 -0.06723738
000150 59 67 82 bc 5f 94 4c 3b 8e d8 30 bd 54 70 7d bd
       -0.01591842 0.0031216366 -0.043175273 -0.061874703
000160 3a ed 11 3d a4 41 8d bc ae fc 4d 3d d0 d1 27 3d
       0.035626628 -0.017243214 0.050289802 0.040971577
000170 65 e5 81 3c f0 b6 8f 3c 61 86 f9 bc 05 78 77 bd
       0.015856454 0.017543286 -0.030459585 -0.060417194
000180 9d b0 a5 3c 10 28 c0 3b 3b 82 93 bc d7 42 ac bc
       0.020225817 0.005864151 -0.018006435 -0.021027965
000190 c8 c3 66 3c 70 89 ae 3b a9 f7 36 bd f0 7b bf 3c
       0.014084764 0.0053264424 -0.04466978 0.023374528
0001a0 3c b3 2f 3d de d6 49 3d 2d aa 21 3c 0a 26 57 bd
       0.04289554 0.04927718 0.009867233 -0.05252651
0001b0 c4 61 b9 bc 7e 0e 32 3d e2 f5 1a bd 0d 38 e7 bc
       -0.022629626 0.043470852 -0.03783215 -0.02822497
0001c0 40 01 b2 3b 9a 94 7f 3d e4 de 43 bd 58 b8 35 bd
       0.005432278 0.062397577 -0.047819987 -0.044365257
0001d0 b0 ee a0 3b 2b d6 50 3d 41 06 94 3d 3d 40 e9 3d
       0.0049112663 0.050985496 0.07227755 0.113892056
0001e0 91 7d 73 3c d6 d9 cd 3c 25 06 43 3d 70 1c fe 3b
       0.01486148 0.025128286 0.04761328 0.007754855
0001f0 c4 99 3c bd d9 4c 17 3b 50 00 fb bb a8 b4 76 3c
       -0.04604508 0.0023086576 -0.0076599494 0.01505772
000200 d8 ca 90 3c 79 86 bb 3c d8 5f 24 3c 54 f5 a0 bc
       0.017674848 0.02289127 0.010032617 -0.019648232
000210 3f e9 1f 3d 20 16 21 bc b2 61 c2 bc 88 cf d8 bc
       0.0390408 -0.009831935 -0.023728225 -0.026466146
000220 c4 eb 51 bd 4f 43 50 3d e6 e3 66 3d 39 77 1f 3d
       -0.051250234 0.05084544 0.056369685 0.03893206
000230 0d 6e 5f bb de 89 15 bd a2 8c 61 3d 08 cc 5a bc
       -0.0034092695 -0.036508434 0.05506576 -0.013354309
000240 80 50 0a 3a 12 8e 34 bd 54 6f b4 3d 06 40 69 3d
       0.00052762777 -0.0440808 0.08810297 0.056945823
000250 fc 42 4f 3d 84 cd ef bc 8d df 76 3d 43 9a 81 39
       0.05060099 -0.029272802 0.06027179 0.0002471973
000260 fc bf 05 bd ec f3 83 bc f4 4b d1 3c 0b 33 d6 3b
       -0.032653794 -0.016107522 0.025548913 0.0065368465
000270 7f 2f 17 3c 6b 8e 00 bd 31 bd 69 bb ea 1a a5 3d
       0.009227633 -0.03138582 -0.0035665745 0.08061774
000280 50 50 a7 bb 29 f6 80 3d 00 42 88 3b 4e c3 9e bd
       -0.0051060095 0.06296951 0.0041582584 -0.07752095
000290 10 2f ea 3b 28 8b 45 3c 38 1c 8d 3d 14 85 7b 3d
       0.0071467236 0.012057103 0.06890148 0.06140621
0002a0 1c 2c 91 bc 8a 57 53 bd 89 52 9c 3b d8 d1 40 3d
       -0.017721228 -0.051597156 0.004770581 0.047075123
0002b0 04 c7 9f bc b0 11 cb 3b 15 4f 51 bd f0 88 af 3c
       -0.019504078 0.006197177 -0.05110081 0.021427602
0002c0 a5 07 19 3c 60 0a 5b 3d 14 80 47 3d 5e ed 82 bd
       0.0093402015 0.05347669 0.04870613 -0.063929304
0002d0 a8 45 bc bc 54 26 aa 3c 17 17 9a 3d c2 4e 8b bb
       -0.022982433 0.02077023 0.07523935 -0.004251332
0002e0 47 52 da bc b4 a3 8d bc 10 10 1a 3c 21 c0 78 ba
       -0.026650561 -0.017289974 0.009403244 -0.00094890787
0002f0 7a 7a 1f 3d 96 e2 34 3e e2 e8 d4 bb b8 8d 07 3d
       0.038935162 0.1766456 -0.0064974884 0.033094138
000300 38 5e 55 3d 98 76 60 3c a3 60 33 3d 06 3b 8e 3c
       0.052091807 0.01370015 0.04379333 0.017362129
000310 26 61 23 bd 62 41 b7 3c 9b 77 82 bc 7f 58 f3 3d
       -0.03988757 0.022370044 -0.015926173 0.11882114
000320 f5 07 0d 3d 34 9e 2c 3d de 75 17 3d f1 b3 86 3d
       0.034431417 0.04214306 0.03697764 0.0657729
000330 3e f0 c5 3c 49 27 95 3d 47 22 97 3d 2e f4 15 bb
       0.024162408 0.07282884 0.07379585 -0.0022881138
000340 5e 21 74 3c ae 39 1c bd a2 66 1c 3d 46 e9 06 3d
       0.0149005335 -0.038140945 0.038183816 0.03293731
000350 84 12 c5 3d 00 45 39 bc 96 3f 4f bd e6 18 49 3d
       0.09622672 -0.011307955 -0.05059775 0.04909601
000360 06 b4 7f 3d 20 36 36 3d 3a bb 86 3d da 7c 09 3d
       0.062427543 0.04448521 0.065786794 0.033566333
000370 10 ba 21 bd 1c 0e f0 3c 5c 50 b0 3c 00 51 bc b9
       -0.039484084 0.029303603 0.021522693 -0.00035918504
000380 18 ff d7 3c 53 94 15 3d 56 7f 26 3d 12 f2 5f 3d
       0.026366755 0.036518406 0.04064878 0.054674216
000390 54 8b 3a 3d 02 47 06 bd f2 54 79 bd fa 2c 0a 3d
       0.04554303 -0.032782562 -0.060872026 0.0337343
0003a0 3e 20 2e 3d 2a dc ca 3c df 5b f7 3d d2 70 ff bc
       0.042511217 0.024763186 0.1207807 -0.031181727
0003b0 7e 33 30 bd 90 5d 64 3d 63 f7 5f 3c bb f6 e9 3c
       -0.043017857 0.05575329 0.013669821 0.028560033
0003c0 64 07 1a bc fd df 3b 3d c0 14 9b 3a 20 72 f2 3c
       -0.009401176 0.04586791 0.0011831746 0.029595435
0003d0 0c 83 42 bd d7 3c 3f 3d f8 70 45 bc e2 6b 75 bd
       -0.047488257 0.04668888 -0.01205086 -0.05991734
0003e0 87 78 e9 3c d2 03 34 3d 2e 0f 4a 3d 30 d7 86 3b
       0.028499855 0.043948956 0.049330883 0.004115008
0003f0 6c ef 5c bd 5a e0 38 3d 14 f1 55 3c 07 dc 17 bc
       -0.053939268 0.045135833 0.013057966 -0.009268767

net2.2.bias f4 [256]
000000 bf 46 4d 3c 25 82 ce 3c 73 cc 05 bd 66 7a be 3c
       0.012529074 0.025208542 -0.03266568 0.023251723
000010 d2 47 f8 bc 86 46 2c 3d 70 1f 81 3d 70 87 fb bb
       -0.030307684 0.042059444 0.06304824 -0.0076760575
000020 91 2e e4 bb 9b 00 af bc a8 36 30 3d 4b 07 e0 3c
       -0.006963559 -0.021362593 0.043020874 0.027347228
000030 f2 a3 23 bd 3a 08 3d bd ab 10 4c 3d d0 0e 12 bd
       -0.039951272 -0.046150424 0.049820583 -0.035658658
000040 cc 63 ec bc 97 80 34 3d 50 3e 38 bd a2 09 3e bd
       -0.02885618 0.044067945 -0.0449813 -0.046395905
000050 4b eb 48 3d 8a f4 17 bd 98 a7 5a bd c2 73 49 3d
       0.049052518 -0.037098445 -0.053382486 0.04918266
000060 bf 90 2f bd e8 43 90 3b 4f f7 89 3d a9 9f 9b 3c
       -0.04286265 0.0044026263 0.067366235 0.01899703
000070 87 8f 97 bc 7b 74 58 3d 75 b8 0d 3c 0c 7d cf 3c
       -0.018501056 0.05284546 0.008649935 0.025328182
000080 c1 7a 09 3d 74 6b c1 bc 10 87 b3 3c a5 5c f0 3b
       0.033564333 -0.023610808 0.021914989 0.007335263
000090 ab 17 5e 3c 94 32 73 bd 0a 60 48 bd f2 f4 6d 3d
       0.013555448 -0.059374407 -0.048919715 0.058094926
0000a0 bc 06 44 3d 4e 1e 3c bd 65 a8 88 ba 96 90 3b bd
       0.047857985 -0.04592734 -0.0010426162 -0.045792185
0000b0 c6 4d 89 3d 61 32 43 3d 98 64 2c bd 2d 2c 1e 3d
       0.06704287 0.047655467 -0.04208812 0.038616348
0000c0 0c 09 45 bd a4 55 d1 bb f0 89 01 bc 96 56 30 bd
       -0.04810433 -0.006388383 -0.007906422 -0.043051325
0000d0 f2 be 3b 3d 45 43 56 3c 73 0b 0b 3d 02 40 8a 3d
       0.045836397 0.013077562 0.033946466 0.0675049
0000e0 3b 85 5e bd 70 b5 aa 3a 3b e3 98 3d eb a6 9f 3c
       -0.054326277 0.0013024043 0.07465216 0.019488772
0000f0 dc 32 20 3c a5 20 19 3d 91 bb 18 3d f5 ab 83 3a
       0.009777751 0.037384648 0.037288252 0.0010045754
000100 c0 ac ee bc b9 95 a7 bc 74 db b8 bc 64 ce 9a 3c
       -0.029135108 -0.020457136 -0.02256558 0.018897243
000110 5c 5d 89 3d f0 6d 66 3d ad 00 f5 bb b4 e6 d4 bc
       0.0670726 0.05625719 -0.007476887 -0.025988914
000120 a7 ab 3f bd f7 21 58 bd 6c 0f 32 3d 60 e7 69 bd
       -0.04679456 -0.052766766 0.04347174 -0.057105422
000130 77 68 0f bd 71 11 0d bc 9d b2 30 3d 39 f6 ba 3c
       -0.035011735 -0.008610115 0.04313909 0.022822486
000140 3b e1 2b 3d 54 78 39 3c 00 49 d1 bb d1 9c 20 bd
       0.041962843 0.011320192 -0.006386876 -0.03921205
000150 34 bd 27 3d d9 9f 62 3b 30 71 8a bc 64 4c 91 bc
       0.040951923 0.003458014 -0.016899675 -0.017736621
000160 81 ab 7d 3d ca 9e bc 3c bf 5f 5e bc 64 24 1a 3d
       0.061931137 0.023024935 -0.013572632 0.03763236
000170 dc 7c fe bc 19 a4 38 3d a0 e5 63 3b ef 9d 4d 3d
       -0.031065397 0.04507837 0.0034774318 0.050199445
000180 f5 ee a8 bc 11 2a 79 3d 63 4d 31 bd 50 94 65 bc
       -0.020621756 0.060831133 -0.043286692 -0.014012411
000190 1a d8 79 3c ee 4c 11 3d 57 62 51 3d a0 08 63 bd
       0.0152492765 0.035473756 0.051119175 -0.055428147
0001a0 6f b0 84 3d 1b 51 06 bd 68 48 55 3c 5e 52 32 3d
       0.064789645 -0.032792192 0.013017751 0.043535583
0001b0 14 b9 ae bc 47 38 14 bd 1a cf e8 3c 72 bf 2e 3d
       -0.021328487 -0.036186483 0.028419066 0.042663045
0001c0 01 d4 df ba c7 ba 9f 3c ea cb 64 bc 59 90 0b 3d
       -0.0017076732 0.019498242 -0.0139646325 0.034073208
0001d0 88 59 89 3d 2c 8b d1 3c 75 e5 ff bc 7d 73 6e 3d
       0.0670653 0.025579058 -0.031237343 0.058215607
0001e0 4c 79 14 3d c1 5b db 3c 59 08 a2 3b 12 27 39 3c
       0.03624849 0.02677715 0.004944843 0.011300819
0001f0 ea 5e 05 3d e9 b8 2b bd 00 8e b7 39 17 fe d4 bc
       0.03256122 -0.04192439 0.00035010278 -0.026000066
000200 78 b1 80 bc 74 b5 09 bd a6 b9 4b 3d 63 0d 0f 3d
       -0.015709624 -0.033620313 0.049737595 0.034924876
000210 26 05 3b bd d0 12 e1 bc 4d af 4b 3d f6 bb 38 b8
       -0.045659207 -0.02747479 0.049727727 -4.404407e-05
000220 18 15 39 bc 16 9c b2 3c 8a a3 41 3d 06 33 61 bc
       -0.011296533 0.021802943 0.047275104 -0.013745075
000230 36 5a 03 bd 19 89 a3 3d be 40 69 bd 5a 0c 45 bd
       -0.032068454 0.07985134 -0.05694651 -0.048107482
000240 ac c2 5d 3d 25 09 5f bd 6c 4e 23 bc 4d e3 34 3d
       0.05414073 -0.05445208 -0.009967428 0.044162083
000250 2f 53 2e bd 28 76 8e 3d d3 e0 d1 bb 5c d7 38 bd
       -0.0425598 0.0695613 -0.006404975 -0.045127258
000260 d3 21 0a 3d fe bd 38 bd 40 c0 63 bc 47 86 ea 3b
       0.033723664 -0.045103066 -0.013900816 0.0071571204
000270 e5 c2 25 3d 81 0f 5f b7 40 2d 63 3d 4b 42 88 3d
       0.04046907 -1.3295446e-05 0.055463076 0.066532694
000280 5c 43 3a bd 98 d6 91 3c d2 bd 37 3c cb 86 07 bd
       -0.045474395 0.017802522 0.01121469 -0.033087533
000290 ad 38 43 3d f9 eb bb 3c a7 01 80 3d 02 10 0c bd
       0.047661472 0.022939669 0.06250315 -0.034194954
0002a0 02 cf 31 bd 24 06 7a 3c 89 99 15 3d ee ea 7a bd
       -0.04341031 0.015260253 0.036523376 -0.061259203
0002b0 4c fc 09 3d e1 59 83 3c a2 6d 2b 3d 94 e3 64 bd
       0.033687875 0.016034069 0.0418526 -0.055881098
0002c0 19 96 0b 3d c9 52 50 3d cc 7f 5d bd b1 b7 1f 3d
       0.03407869 0.0508602 -0.054076955 0.03899354
0002d0 21 2e 22 bd 88 4d a9 3c c0 24 c6 bc 80 c2 b2 bc
       -0.039594773 0.020666853 -0.024187446 -0.02182126
0002e0 29 3a 28 bd c0 bb 02 bd 1a 65 21 3d a4 21 a4 bc
       -0.04107109 -0.031917334 0.03940306 -0.020035572
0002f0 88 a2 6a bd bf 32 5d bc b4 46 5f bd d3 1c 22 bd
       -0.057283908 -0.013500868 -0.054510787 -0.03957827
000300 c0 99 6d 3c 08 a6 80 3c 7c 62 69 bd 3e 7f 97 3b
       0.014501989 0.01570417 -0.056978688 0.0046233227
000310 e0 90 81 3c 86 12 00 bd 51 09 ad bc 9d a9 4b bd
       0.015816152 -0.031267665 -0.021122606 -0.049722303
000320 9d 19 8d ba 57 24 de 3b df 2c fb bc 59 86 1e bd
       -0.001076508 0.0067792344 -0.030661045 -0.038702343
000330 f3 33 d7 bc a7 68 2b bc 88 16 87 3c dd 04 41 bd
       -0.026269889 -0.010461963 0.016490236 -0.04712378
000340 cb 28 0a bd 37 59 1e bc f4 b8 61 3d 4a c0 3b bd
       -0.03373031 -0.009664825 0.055108026 -0.045837678
000350 da de 07 3d e5 d0 b3 3c 5d 82 02 3b 0c 3a e0 bc
       0.033171512 0.021950195 0.0019914128 -0.027371429
000360 c1 c6 d5 bc a4 f9 3d bd c5 d9 60 3d b0 91 bc 3b
       -0.02609575 -0.046380654 0.05489518 0.005754672
000370 ca 64 88 3c a0 44 96 bc ce 93 5b bd 80 e5 4e bd
       0.016649622 -0.01834327 -0.053607754 -0.050511837
000380 45 69 47 bd b1 eb 9f bc 48 a4 5a 3c ce 61 86 3d
       -0.048684377 -0.019521566 0.013344832 0.065616235
000390 90 48 4e bd b9 4d 5e 3d 44 04 19 3d a4 a5 43 bc
       -0.05036217 0.05427334 0.037357584 -0.011941347
0003a0 20 11 b3 3c 9a e4 5d bc ce 0d 03 3d dc 14 56 bd
       0.021858752 -0.013543272 0.031995587 -0.052265987
0003b0 d8 5f 5b 3d 85 9b 5e 3d 66 29 64 3d a4 e2 89 bc
       0.0535582 0.054347534 0.055703543 -0.016831703
0003c0 bc 40 3b 3d 48 b4 39 bd 77 eb ce bb 5e 4c 35 bd
       0.045716032 -0.045337945 -0.0063146907 -0.044262283
0003d0 24 52 24 bd e4 17 90 3b 21 f9 63 bc c6 9a 58 3d
       -0.040117398 0.0043973792 -0.013914377 0.05288198
0003e0 97 2c 2e bd ef c1 b3 bc d0 5f 41 3c 1f f1 5b bc
       -0.042522993 -0.02194306 0.011802629 -0.013424187
0003f0 c3 26 d4 3c f1 d0 70 3c ba 4c 05 3d ce d1 d9 bb
       0.02589739 0.014698253 0.032543875 -0.006647325

net2.4.weight f4 [256, 256]
000000 e3 b8 56 3d 8c 96 d1 bc 85 62 f2 bc ff f0 16 3d
       0.052422415 -0.025584482 -0.029587993 0.036850926
000010 49 4c 25 bd 10 1b 8f bb 13 57 70 3c d6 d7 42 bd
       -0.040355954 -0.00436724 0.014669198 -0.04756912
000020 d2 a5 44 3d 07 b8 ae bd b2 ba c0 3c 4d 97 55 3d
       0.0480097 -0.08531194 0.023526523 0.052146245
000030 98 2d 80 bc 69 e3 6e 3c 7f 4c 52 bd 29 83 26 3d
       -0.01564674 0.014580586 -0.051342484 0.040652428
000040 81 da 71 3d ac 6e 46 bd 98 c1 1c bc e0 f4 47 3c
       0.059046272 -0.04844539 -0.009567641 0.012204379
000050 a3 80 5a 3b a8 06 51 bc f2 d2 31 bd 0f 36 70 3d
       0.0033340834 -0.012757935 -0.043414064 0.058645304
000060 e1 6b 92 3d fa 0f 15 3d b2 ba 44 3d 8f a3 0b 3d
       0.071494825 0.03639219 0.04802961 0.03409153
000070 5d ee 4c 3d 41 89 8d 3b 14 1a 5c bd 90 c1 f5 3c
       0.05003201 0.0043193405 -0.053735808 0.029999524
000080 fa 3d 83 bc c0 30 03 3b 82 fe 28 bd 74 d2 d9 bb
       -0.016020764 0.002001807 -0.041258343 -0.0066474024
000090 5b 91 90 3d 00 80 35 b8 c9 69 c8 bc ab fc 89 3d
       0.07058974 -4.3272972e-05 -0.024464505 0.06737646
0000a0 a5 d1 67 3d d4 b8 d8 3c d4 64 8e 3d 42 56 1c 3d
       0.056596417 0.02645532 0.06952825 0.0381682
0000b0 b7 85 2b bd 23 54 be 3d c9 27 45 3c 8c 45 10 3d
       -0.041875567 0.092933916 0.012033411 0.035222575
0000c0 42 69 49 3c 3e 6f e4 bb d6 63 18 3d 16 0f 23 3d
       0.012293162 -0.006971269 0.037204586 0.03980931
0000d0 2b 48 9e bc 1c 0a 58 bd 14 e7 0b 3c 0e ca 38 3d
       -0.019321522 -0.052744016 0.00853898 0.04511457
0000e0 9f 5f b9 3c 2a d3 9d 3d 03 7f 2c bd 3f 65 1f 3d
       0.022628604 0.07706292 -0.042113315 0.038914915
0000f0 a0 62 c7 3d 6b 82 64 3d 55 19 73 bc 86 c4 b6 3d
       0.09735608 0.05578844 -0.014837583 0.089242026
000100 38 42 90 bc 41 9c 42 3d 1b 63 49 bd 3d 43 93 3d
       -0.0176097 0.047512297 -0.04916678 0.07190559
000110 5d 5b 1a 3d 78 f5 e7 bc 1e 17 e9 3b 00 6e e6 39
       0.037684787 -0.02831529 0.0071133515 0.00043950975
000120 89 10 c5 bc 6d 0b 25 3d 87 3e e4 bc a0 5f 42 bd
       -0.024055736 0.0402941 -0.027861847 -0.047454476
000130 91 7a 93 bd 3c 23 8a bc 06 75 c6 3a 28 8a 9d bc
       -0.07201112 -0.016862504 0.0015141077 -0.019230917
000140 51 db 0a 3d cb b2 bb 3d 86 77 95 3d 48 d5 87 3d
       0.033900563 0.091649614 0.07298188 0.06632477
000150 84 8e 1b 3d de f3 53 3d e4 04 ce bc 00 1a 26 3c
       0.03797771 0.05174624 -0.025148816 0.010138035
000160 3c 66 ca bc 13 b7 8c bd c5 fb d1 bc ac c6 f4 bc
       -0.024706952 -0.06870856 -0.025632748 -0.02987989
000170 18 3e 42 3d d7 66 ef bc 34 22 70 bd ed cc 51 3d
       0.0474225 -0.029223843 -0.05862637 0.051220823
000180 3d 03 a1 3c e9 b7 c9 3d 74 c4 89 3d 7c 3c d4 3c
       0.019654864 0.09849531 0.067269236 0.025907747
000190 09 20 ba bd c8 14 6a 3d e8 7c 2e 3c 4e c0 92 3d
       -0.090881415 0.057148725 0.010649897 0.071655855
0001a0 6f b2 b3 bc b6 e7 14 bc db 80 fe bc 6d 94 9b 3d
       -0.02193567 -0.009088447 -0.031067302 0.07596669
0001b0 c6 5d 32 3d 6c c4 82 bc 5e 47 bf bc bf 8d a4 3d
       0.04354646 -0.015962802 -0.02334946 0.080348484
0001c0 ef e8 94 3d a9 65 3a bc e8 a8 03 3d 31 1d 82 bc
       0.07270991 -0.011376777 0.032143503 -0.01588306
0001d0 e9 47 38 3d 6e 40 52 3d 00 3d 29 bc 36 40 6a bc
       0.044990454 0.051330976 -0.010329485 -0.014297536
0001e0 1c 8f 57 bd 69 da d3 3d cb 57 91 bc 10 6a 0a 3d
       -0.052626714 0.10344393 -0.017742058 0.033792555
0001f0 e0 52 89 bb 2f 01 b5 3d 68 9c b3 bc 50 01 c4 3b
       -0.0041907877 0.088381164 -0.021925166 0.005981602
000200 ec 71 f2 bb b0 8e 78 bc 1f 3a b2 3c 6f 31 b8 3c
       -0.0073988345 -0.015170738 0.02175623 0.02248451
000210 70 23 f1 3c ac 26 69 bd 9a 44 31 3c ff 00 3a be
       0.029435843 -0.056921646 0.010819579 -0.18164442
000220 bc fc b8 bc 60 9d 28 3d 5c f3 46 3d 1c a6 ad 3d
       -0.02258145 0.04116571 0.04857193 0.084789485
000230 30 f9 f9 bc 95 d1 16 3d 74 34 c2 bc 04 05 92 bc
       -0.03051433 0.036820967 -0.023706652 -0.017824657
000240 d4 bc 02 bd f8 0e 4f 3c b0 af 71 3d 3d 86 3e 3d
       -0.03191836 0.012637846 0.05900544 0.04651474
000250 20 c6 35 bc ab b7 2c 3b f9 55 a3 bd 40 52 7e bd
       -0.0110946 0.0026354592 -0.07975382 -0.06209016
000260 2d 56 e8 3b 33 c5 a7 3d e1 b6 34 3d 54 d1 97 3d
       0.007090351 0.0819191 0.04411972 0.07412973
000270 39 ce ac 3b af 9f 66 3d 93 0e 32 bc 7a 7c f1 bc
       0.005273607 0.05630463 -0.010867733 -0.0294783
000280 e1 e6 d2 3d 5c 76 60 bd 65 67 02 3d 57 d1 34 3d
       0.10297943 -0.054800376 0.031836886 0.044144955
000290 82 4f 08 bd 6b 46 29 3d 9d 9d 89 3c 64 18 b3 3c
       -0.03327895 0.04132692 0.016798789 0.021862216
0002a0 45 e3 24 3b e0 34 85 3c b7 8b 8c bb da 47 8b bb
       0.0025159877 0.016260564 -0.0042891162 -0.0042505087
0002b0 d4 4d 54 3d dc 2a 40 bd 54 95 68 3d f4 64 95 3c
       0.051832035 -0.046915874 0.056783035 0.018236615
0002c0 91 7b ec 3c 63 8a 4b bd 60 28 80 3c 39 b2 90 bc
       0.028867515 -0.049692523 0.015644252 -0.017663108
0002d0 f9 c9 7d bd 95 b4 40 3d c0 89 a3 3c c2 af 2d 3d
       -0.061960194 0.047047216 0.019963145 0.042403944
0002e0 31 a0 96 3d 79 c0 1c 3d fc e4 ca 3d 9a cd 37 bd
       0.07354773 0.038269494 0.099069566 -0.04487381
0002f0 5a 0d 20 3d f5 29 39 3d 2c e9 87 bb 8a 0a fe ba
       0.039075233 0.04520603 -0.0041476693 -0.0019381803
000300 aa 93 22 bd b0 31 07 bd b6 fe 31 bd 4d db 4b bd
       -0.039691605 -0.03300637 -0.043455802 -0.04976969
000310 0f 49 16 3c 01 74 b7 3d ca b3 48 3d 36 19 4d 3d
       0.009172692 0.08957673 0.048999585 0.05007287
000320 23 4d 18 3d 44 7d 19 3e 24 b6 54 3b e6 24 5a bd
       0.03718294 0.14989191 0.0032457197 -0.053257845
000330 44 44 34 39 90 85 56 3d 70 4f 6b 3c 08 88 eb 3c
       0.00017191569 0.05237347 0.014362201 0.028751388
000340 7b ad 91 3c cc 6b 29 3d eb 92 ff 3b 26 54 dc bc
       0.017782917 0.04136257 0.0077994964 -0.026895594
000350 f6 3a 10 bd 86 a1 99 3d 48 06 98 3c 14 3c 8f 3c
       -0.03521248 0.07501511 0.018557683 0.017484702
000360 42 c5 ed 3c 80 11 68 bb c4 97 cf bb 5c 04 cc 3c
       0.029024724 -0.0035410821 -0.0063352305 0.024904422
000370 68 99 1c bd b0 b7 6f bc 18 1a e9 bc fe ef 74 bd
       -0.038232237 -0.014631197 -0.028454825 -0.059799187
000380 22 aa 29 3d f7 13 d5 bc 50 09 4a bc a2 32 53 3d
       0.041422017 -0.026010497 -0.012331322 0.05156196
000390 23 0c 4d 3c 38 9d 6b 3d 40 2d 15 3d 0a 36 4d 3d
       0.012515101 0.057522982 0.036420107 0.050100364
0003a0 78 90 63 bd 76 52 25 bd 5e 37 12 bd 28 41 a2 bc
       -0.055557698 -0.040361844 -0.035697334 -0.01980646
0003b0 e8 e2 24 bd 26 c5 b9 3c f4 0e 69 bd f7 30 4b 3d
       -0.040255457 0.022677016 -0.056899026 0.049607243
0003c0 d8 14 0b bd f4 9e b6 bc b5 77 25 3d 38 a5 76 bd
       -0.033955425 -0.022292592 0.040397365 -0.06021616
0003d0 ec 4f 44 3c 45 48 fe 3c 4f 96 1b 3d 4e 6d 1c 3c
       0.0119819455 0.03104032 0.037985142 0.009547545
0003e0 3d 9a 0a 3d 33 b6 c9 3c b4 ce 07 bd 8b fd 40 3d
       0.0338385 0.024623012 -0.03315611 0.047116797
0003f0 8c 4a c9 bd 2c 55 88 bc 8a 02 73 bd 14 fe b1 3d
       -0.09828672 -0.016642176 -0.059328593 0.0869104

net2.4.bias f4 [256]
000000 f6 80 92 3c 0f 47 b7 bc 35 67 25 3d af fc 89 3d
       0.017883759 -0.02237275 0.04038163 0.06737649
000010 98 2b 1a bc 7d 8f 90 bc 86 8a 8d bc 14 8a 8d bc
       -0.009409808 -0.017646546 -0.017277967 -0.017277755
000020 9e bf 04 3c ca 23 e6 3a 29 fa 0f b9 94 a2 f1 3c
       0.008102326 0.0017558273 -0.00013730735 0.029496469
000030 f1 90 27 3d c8 d0 4e 3d 3c 5b f3 bc 6f 10 88 3d
       0.04090971 0.050492078 -0.02970659 0.066437595
000040 12 79 4f 3d c5 64 81 3c 74 6e 11 3d ef a6 1b 3d
       0.05065257 0.015795121 0.035505727 0.038000997
000050 3a 77 2c bd 68 d0 95 3c cb 81 11 3d 3f 10 b6 bc
       -0.04210589 0.018287852 0.03552417 -0.022224544
000060 d7 63 f6 bc 6c 5f 51 bd 01 c5 1a bc a0 04 2c 3d
       -0.030076904 -0.051116392 -0.009446383 0.0419966
000070 25 94 ab bc b1 8f a1 3c 21 5e ad bc c5 06 76 3d
       -0.020944664 0.019721838 -0.021163048 0.06006505
000080 09 33 68 bb 9e 02 43 bd e4 db 67 bd f8 a2 48 bc
       -0.003543081 -0.047609918 -0.05660619 -0.012245886
000090 ef cb 15 3d 78 ce 90 3c 90 3f ff bc 65 7d f7 3c
       0.03657144 0.017676577 -0.031158239 0.03021116
0000a0 1c 54 82 bc b8 5a 8c 3c 58 79 08 3d ab cb 57 3d
       -0.015909247 0.017133102 0.033318847 0.052684467
0000b0 ce 89 6c bd 6e 9e 27 3d 4f 0e 5c 3d 75 d4 14 bd
       -0.05774861 0.040922575 0.053724583 -0.036335427
0000c0 1e 56 49 bd 28 e2 6c 3d 3f 8d 2f bd b2 d6 23 3d
       -0.049154393 0.057832867 -0.042859312 0.03999967
0000d0 11 f9 5e 3c 75 4b 68 3d 26 62 2c bd 59 c0 71 3d
       0.013609187 0.056712586 -0.04208579 0.059021328
0000e0 bd b5 3a bb e8 54 ea 3c 8d 75 32 3c e2 43 02 3d
       -0.0028489672 0.02860494 0.010892284 0.03180302
0000f0 b6 33 bb bc 40 9d a9 3b 9f 97 1a 3d 5d df 07 3c
       -0.022851806 0.0051762164 0.037742253 0.008293
000100 16 68 53 bd da d0 64 bd c2 45 1d bd be 94 64 bb
       -0.051612936 -0.05586324 -0.038396604 -0.0034878696
000110 e1 64 8b 3c aa 7c 83 bc eb aa 29 3d e0 8a 04 3c
       0.017015876 -0.016050655 0.041422766 0.008089751
000120 20 ca 4a bd 44 7e 59 3d 7c fb 5d 3d a0 5c 69 3c
       -0.049509168 0.053098932 0.054194912 0.014243275
000130 68 6a 9d bc 86 c2 58 3d 79 68 32 bd e8 fb 19 3d
       -0.019215778 0.052919887 -0.043556664 0.037593752
000140 3f 7d 00 3d 33 7f 08 3d 99 42 3b 3c 29 b4 e3 bc
       0.031369444 0.03332443 0.011429452 -0.027795868
000150 77 10 84 3c 6c 31 4e bd b6 0f ad 3c fc aa 5e bd
       0.016121132 -0.0503401 0.021125656 -0.054362282
000160 4a c1 09 bd 63 4a d2 3c ec a1 c6 bc af 9d 94 bc
       -0.0336316 0.025670236 -0.024247132 -0.018141596
000170 c4 47 75 3d 55 59 24 bc 4b af e0 3c 88 58 4b 3d
       0.059882894 -0.010031064 0.027427336 0.049644977
000180 47 70 06 bd 88 6e fd bc b9 da c0 3b b7 b8 b8 3c
       -0.03282192 -0.030936494 0.005885449 0.022549016
000190 ef 87 ca bc 0e 75 74 bd 3c 9d 3a bd 17 4e 72 3d
       -0.024723021 -0.059681945 -0.045560107 0.059156504
0001a0 9d fd cb 3c 38 2b af 3c a4 e6 89 bc 48 d9 13 bd
       0.024901206 0.021382913 -0.01683361 -0.036095887
0001b0 c8 97 35 3d 8b 27 51 3d c1 12 17 bd 62 9e 24 3d
       0.044334203 0.0510631 -0.03688312 0.040190108
0001c0 5c ac 5c 3c 15 87 62 3d 72 52 5e bd 24 39 5f bc
       0.013468828 0.055304606 -0.054277845 -0.013624463
0001d0 0a 9c 1a 3d 00 98 6f 3b a8 1d db 3c 91 4b 5e 3d
       0.037746467 0.0036559105 0.02674754 0.054271284
0001e0 5b 9b 85 3d 23 1b 8e 3d 2d 22 43 bd 39 34 50 bb
       0.06523772 0.0693877 -0.047640014 -0.0031769408
0001f0 ab f4 96 3d 32 95 20 3c 3c ef 54 bd 56 b3 02 bd
       0.073708855 0.009801196 -0.051985964 -0.03190931
000200 55 2c 35 3d 04 81 07 bc f0 f7 77 bc 80 f8 8e bc
       0.04423173 -0.008270506 -0.0151347965 -0.017452478
000210 f6 46 1c bd 4a 32 79 bc 3d 94 61 3d c7 e6 2a bd
       -0.03815361 -0.015209744 0.05507301 -0.041723993
000220 f1 31 0d 3d 8d 48 61 bc a8 49 9d 3c fc df f8 bc
       0.034471456 -0.013750208 0.019200161 -0.030380242
000230 70 80 48 3d 40 7f 2f bd 70 16 a8 bb 9e 89 b7 3c
       0.048950613 -0.042845964 -0.005129628 0.022404488
000240 76 b2 67 bd 60 78 de bb bb cf 2b 3c c4 5b d9 3c
       -0.056566678 -0.006789252 0.0104865385 0.026533015
000250 59 39 98 bc 57 90 64 3d cf 8c 6c 3c 1a 8b 14 3c
       -0.018582033 0.055801716 0.014437868 0.0090663675
000260 22 7b 12 bd 79 86 26 3d 39 22 8f 3c e5 b9 10 bd
       -0.03576196 0.040655587 0.017472373 -0.035333533
000270 e1 2e 80 bd 2a 9d 64 3c fd 98 3d bc 1c e1 e6 bc
       -0.062589414 0.013953486 -0.01157212 -0.028183512
000280 f4 7f 5e 3d 07 be 94 bc 26 62 25 3b 64 1a 2f 3d
       0.054321244 -0.018157018 0.0025235503 0.042749777
000290 89 15 07 3d a9 0d cf bb e9 41 00 3d 9b c4 6e 3d
       0.032979522 -0.006318767 0.031312857 0.058292966
0002a0 81 74 af 3c cc f8 f1 bc 42 18 95 3c dd 47 64 3d
       0.021417858 -0.02953758 0.018200044 0.055732597
0002b0 19 fa 16 3d bd 6e 1b 3d 90 30 96 bc 82 f1 4d 3c
       0.036859605 0.037947405 -0.018333703 0.012569787
0002c0 f3 90 21 bd 63 68 6f 3b d6 d2 22 3d 09 ad fb 3c
       -0.039444875 0.0036530725 0.03975185 0.030722158
0002d0 30 71 80 3c 7c b9 00 3d 90 a9 99 3d 39 00 e2 bc
       0.015678972 0.03142689 0.075030446 -0.027587997
0002e0 34 cf dd bc 7e 41 46 3d c0 0b 30 3c d3 4a 85 bd
       -0.027076341 0.048402302 0.010744989 -0.06508412
0002f0 b3 c0 14 3d e0 a5 cf bc db 53 cb 3c 97 0d b0 3c
       0.036316585 -0.02534765 0.024820259 0.021490855
000300 47 6a dc 3c 02 b6 2b 3d 20 db 02 3d 27 e6 dd 3c
       0.026906146 0.041921623 0.031947255 0.027087284
000310 12 89 a5 bb 73 9e 62 bd 5d c0 3c bd 90 b6 1e bd
       -0.0050517404 -0.05532689 -0.04608189 -0.038748324
000320 55 d0 28 3c c4 f5 d1 bc 34 24 52 bc 19 3d 98 3c
       0.0103035765 -0.025629885 -0.012826014 0.018583821
000330 b2 62 70 bd 54 41 94 bc 10 2f 97 bc 86 85 10 3d
       -0.058687873 -0.018097557 -0.018455058 0.035283588
000340 23 e3 67 3d c2 87 0c bd 77 33 bd bb 4f 26 10 3d
       0.0566131 -0.034309156 -0.0057739574 0.035192784
000350 76 6f 49 bd 07 49 4f bd 39 03 32 3d fa 8f 31 bc
       -0.049178563 -0.050606754 0.043460105 -0.010837549
000360 1d a7 10 bd 48 ed 6c bd f3 0d 0a bc 4f 8f 5c 3d
       -0.03531562 -0.057843477 -0.008426177 0.053847607
000370 7b 34 73 3c 77 75 19 3d fd f1 2a 3d d7 39 56 bc
       0.014844055 0.03746554 0.041734684 -0.0130753135
000380 a8 2f 70 bc 40 c2 ce 3b 0c cd 05 bd 8c 12 48 bd
       -0.0146598 0.0063097775 -0.03266625 -0.048845813
000390 d4 8b f8 3c 39 08 d3 3c 56 88 17 3d 0a 1b 72 bd
       0.030340113 0.025760757 0.036995254 -0.059107818
0003a0 4a fd 74 bc c0 21 17 bd da bd 2d 3d a3 c4 d7 bc
       -0.014952967 -0.03689742 0.042417385 -0.02633888
0003b0 c2 de d5 bc 63 a8 13 3c e2 ba 28 bb 2b 91 8b bc
       -0.026107196 0.0090123145 -0.0025746156 -0.017036995
0003c0 00 91 fc 3b d0 ea 0d 3c dd 2f 0c 3d ec bb 0d 3d
       0.007707715 0.008661941 0.034225333 0.034603044
0003d0 e3 38 59 3d 57 c3 f6 3c 53 e1 e7 ba c4 ad 01 bd
       0.053032767 0.030122442 -0.0017691053 -0.031659856
0003e0 8e cc f4 3c 66 29 74 bd bf ff 4a bd 9c 5d 24 3d
       0.029882696 -0.059609793 -0.049560305 0.040128335
0003f0 46 4b 48 3d 95 83 ed 3c 3f 49 cd bc 13 e1 08 bd
       0.04889991 0.028993407 -0.02505934 -0.033417773
