training/save_ddpg_weights/DDPG_R1_actor_network_s7.pt (torch, 734843 bytes, 13 tensors)

net1.0.weight f4 [3, 1, 3, 3]
00000000: b34f 13be d0de e83d 65d8 543e b9a6 e43c
00000010: 92ef ff3c f460 863e 7ac2 503e 6a59 633e
00000020: a22b 8a3e 83a0 473e 8673 2d3e 0e76 a4be
00000030: 1ef2 41be a2d3 8e3e c2e9 a7be 8b1e 083d
00000040: 56de f7bc 5e30 203e 53fa 193e 482d 29be
00000050: 0ac9 a5be 1624 a93d 3398 4f3e 0bdc 06bd
00000060: e621 2f3e f4ad 86be 2efd 5cbe
-0.14385872 0.11370623 0.20785673 0.02791153 0.031242166 0.26245844 0.20386687 0.22202078
0.26986414 0.19494824 0.169386 -0.3212132 -0.18940017 0.27895838 -0.3279553 0.033232253
-0.030257385 0.1564345 0.15036897 -0.1652118 -0.32379943 0.08258836 0.20272903 -0.032924693
0.17102775 -0.2630459 -0.21580955

net1.0.bias f4 [3]
00000000: ee53 343e 061a 6bbe b384 21be
0.17610142 -0.22959146 -0.15773277

net1.2.weight f4 [3, 3, 2, 2]
00000000: a6af bdbd be14 5bbd 6cf4 133e c871 8fbe
00000010: b5b6 503e 7a9c 2f3e a610 113e ee35 b63d
00000020: 5cf4 c63d 6e31 69be facb bf3d 5639 603e
00000030: b8ed 83be 9b8b d93d 3d1d 803e 3471 693e
00000040: 2934 193e 8242 d2bc 15bd 82be 1c04 87be
00000050: b28c 903e 839c 29be 1fe7 1b3e d00c b5bb
00000060: d958 bebd 6a56 35be ea0a 163e f2a0 8f3e
00000070: 5561 29be d796 6dbd 7a1a 90be a0a7 89be
00000080: 4b30 2a3e fc75 6c3e d926 513d 13e2 923e
-0.09262018 -0.05348658 0.14448708 -0.28016496 0.20382197 0.17149535 0.14166507 0.08897005
0.097145766 -0.22772762 0.09365077 0.21896872 -0.25767303 0.10622331 0.25022307 0.2279709
0.14961304 -0.025666479 -0.25534883 -0.26370323 0.28232342 -0.1656361 0.15224884 -0.005525209
-0.0929429 -0.17708746 0.14652601 0.2805248 -0.16541035 -0.05800518 -0.281452 -0.268857
0.16619985 0.23091882 0.05106244 0.28688106

net1.2.bias f4 [3]
00000000: 9b39 11bd e0ea a1bd f01f 27be
-0.035455327 -0.07906127 -0.16320777

net1.4.weight f4 [1, 3, 2, 2]
00000000: a362 3d3e c9a2 263e 825e 1c3d d406 19be
00000010: 4db2 8a3e 4565 d73d 6db5 db3d dd5f cb3b
00000020: 4a8b d03d d2e8 4d3e 195a 43be 8ad7 87bc
0.18494658 0.16273035 0.038176067 -0.14944011 0.27089158 0.105173625 0.107279636 0.006206496
0.10182817 0.20108345 -0.19077338 -0.01658227

net2.0.weight f4 [256, 196]
00000000: abdb 803d 257c 43bb 0590 73bd ca82 4c3d
00000010: c0ce a3bc cea3 913c 5c0b c63b 1351 0abd
00000020: 705b 0fbd 17f1 59bd c776 153d dccd 493b
00000030: 9a10 5fbd 4ea2 fb3c 78b9 773d 4f27 92bd
00000040: 3727 93bc 3774 85bd 81ef e33c 3783 2bbc
00000050: 3e17 65bd 88ee 6a3d 2cc1 393d 4aed 14bd
00000060: a5c0 5abd 1196 2c3d dc1d 47bc 5e16 8bbd
00000070: 7311 25bd ee1c 4ebd 8118 4f3d 9371 703c
00000080: e382 65bd e8e9 753d 1c54 233d a53f 983b
00000090: b700 0bbd b726 34bc d38c 96bc d8f2 ecbc
000000a0: c1a1 5ebd 6aed 8ebc acae 7bbd 16b4 8cbd
000000b0: 33bc 5c3d 4ab1 333b 6caa 74bd 0369 85bd
000000c0: bce1 1cbd 3763 ac3c d710 09bd 842b 82bd
000000d0: dce5 b93c 1763 94bc 1cd0 05bd 21d0 ad3c
000000e0: a519 b03c 1cd0 f9bc 9526 623d ea4b 753d
000000f0: 9341 0f3c d3d8 9c3c 7ca5 90bd a839 61bd
00000100: 474d 383d b83e 65bd 0a9f f0bc 8126 e83b
00000110: 71c7 34bd 6ec4 ca3c 85e8 57bd 80bb 21bd
00000120: 21ea c9bc da87 2fbd a78f 34bd e53f 5cbc
00000130: da13 57bd 6114 f33c f335 5ebd 859c c6bc
00000140: 17e5 8fbc bcee af3c 556e 833d 6c6e 603d
00000150: 6201 923d c5ea 323d 852b c0bc 136a ad3c
00000160: a55a 7dbc ba07 173d b79f a5bc cca6 7ebd
00000170: deb8 59bd 2583 2bbd 757b 853d bcc3 65bd
00000180: ca49 b1bb fc02 ffbc b5cb 0dbd 3c4d bb3c
00000190: f4a1 8ebd 1c0a ff3c dc4d ddbc 45df e83c
000001a0: f50e 3dbd 9aeb 6f3d 350d 05bd 4587 6ebd
000001b0: dacd 66bd 2ef3 213c d451 89bd 559d 7e3d
000001c0: 93e9 68bb 1acc 263d b851 6f3c 0098 073c
000001d0: 9eb7 2f3d 4aaa 133a aeea 133d 4e9c 86bd
000001e0: 4138 f03c f78a 9b3c 1c44 1c3c 8df5 83bd
000001f0: e596 aabc 6edb a7ba 2244 8b3d 93fc a8bc
00000200: 7c77 363d e8ab 8d3d d6c8 87bd 9aec 3e3d
00000210: 471a 27bd bd73 91bd 9a50 3c3d 43c8 36bd
00000220: 0149 e93b 93ea ef3a 25c6 d9bb 3e2a 4c3d
00000230: 4a8c 7fbc a804 89bd 0131 2c3b 37dc d03b
00000240: dc6b 26bc ca48 6abd 4ead 783d b785 c13a
00000250: 6e41 dbbb 0514 5b3d a1df 52bd c8cd 5cbd
00000260: 17b2 d3bc 075f 2ebd 25f2 60bb 2755 4bbd
00000270: 1c78 2e3c e523 583d ce1b f0bc 1790 2d3d
00000280: b333 863c 7767 27bc ee79 0dbd e7ae 4dbd
00000290: 1328 89bc 839a 14bd 5a3c 153d 97c2 123d
000002a0: ae67 5dbc 0eb5 8dbc 0a59 603d 93eb ca3b
000002b0: 8a5f 063d 5366 29bc a361 203d 3317 9ebc
000002c0: 2c4a 0b3d 9e12 4f3d 3caa febc 18ff ed3c
000002d0: c377 3c3d 5c2e cabc 1787 9c3c 2acd 8a3d
000002e0: d387 173d d75e b63c 4a20 ee3a 2ed7 79bd
000002f0: 2e7c 0a3d ae7c 433c 7c59 65bd 25d9 abb9
00000300: 5c44 8bbc 2eab 45bd 45de cdbc 9c71 76bc
00000310: 4ca3 09bd 45b9 3a3d b508 10bd 379c 9a3c
00000320: 4a67 593d c5b5 8abd e188 50bd 00db 833c
00000330: f358 81bc f2bb 86bd d318 b7bc 0ef1 fc3c
00000340: 3b6a 843d 0003 9bbb 8eba e33c 233b 433d
00000350: 8302 733d e79e 533d c322 713d eac4 163d
00000360: 1ad7 723d dce3 15bc b813 e6bc d821 62bd
00000370: 45bc 6fbd b767 093c ca5b 8e3d 53fe a1bc
00000380: 21c0 e13c 9338 7dbc 45d1 b0bc f587 553d
00000390: 6eb4 023c 9eb9 003d b7ff 8abb 9e30 3ebd
000003a0: eac9 ff3c dc5f 02bd 25c7 dcbc 2ab8 61bd
000003b0: 6ef7 443b aebb bd3c e3c0 283d 6546 3c3c
000003c0: aedc 753d 1285 83bd a5a0 d63b 9355 583c
000003d0: 25fd 093c d3df a43c 1566 66bd 20cb 953c
000003e0: b01a 263d cac8 923c dc63 51bc 0194 b0ba
000003f0: 8586 4ebd 4691 91bd ce40 b83c fcff 51bd
0.06291898 -0.0029828635 -0.05946352 0.049929418 -0.019996047 0.017778303 0.0060438346 -0.033768725
-0.03499931 -0.053208437 0.036490228 0.0030792868 -0.05445919 0.030717041 0.06047961 -0.07136404
-0.017963035 -0.06516307 0.027824165 -0.010468296 -0.05593037 0.057356387 0.04535024 -0.03635911
-0.053406376 0.042135302 -0.012153115 -0.067913756 -0.040299844 -0.05032056 0.050560478 0.014675516
-0.056033026 0.060037524 0.039875135 0.004646259 -0.03393623 -0.010995558 -0.018377697 -0.02892439
-0.05435348 -0.017447192 -0.061445877 -0.06870286 0.05389042 0.0027418905 -0.05973284 -0.0651417
-0.038301215 0.021043403 -0.033463325 -0.06355956 0.022692613 -0.018113656 -0.03266917 0.021217408
0.021496603 -0.030494742 0.055212576 0.05988685 0.008743661 0.019146359 -0.07062814 -0.054986626
0.044995572 -0.055968016 -0.02937271 0.007084668 -0.044135515 0.024751868 -0.052711982 -0.039485455
-0.024647774 -0.042854168 -0.04408231 -0.013442968 -0.052509166 0.029672803 -0.05425067 -0.024244556
-0.017565293 0.021476142 0.064175285 0.054792807 0.0712917 0.043680925 -0.023458252 0.021168744
-0.015463506 0.036872603 -0.02021776 -0.06217079 -0.05315482 -0.041873116 0.06517688 -0.05609487
-0.0054104077 -0.031129353 -0.0346181 0.022863977 -0.06964484 0.03113275 -0.027014665 0.028426776
-0.046156842 0.058574297 -0.0324833 -0.05823447 -0.05634866 0.009884639 -0.067050606 0.062161762
-0.0035539612 0.04072199 0.014606886 0.008275986 0.04289972 0.000563298 0.03611248 -0.065727815
0.029323699 0.018987162 0.009537723 -0.064433195 -0.020823905 -0.0012806484 0.06800105 -0.02062825
0.044547543 0.06917554 -0.06630103 0.04661236 -0.040796544 -0.071021535 0.045975305 -0.04462458
0.0071192984 0.0018304161 -0.006645935 0.049844973 -0.015597412 -0.06690341 0.0026274326 0.006373908
-0.010157552 -0.057198323 0.06071215 0.0014764582 -0.0066911494 0.05348589 -0.0514828 -0.053907186
-0.025841756 -0.042571094 -0.0034324017 -0.049641754 0.0106487535 0.052768607 -0.029310133 0.042373743
0.016382074 -0.010217539 -0.03454011 -0.050215628 -0.016742742 -0.036280166 0.03643451 0.035830107
-0.013513489 -0.017298248 0.054772414 0.0061926334 0.032805957 -0.010339337 0.039155614 -0.019298172
0.034006283 0.050554864 -0.031087033 0.029052302 0.04601265 -0.024680309 0.019107385 0.06777413
0.036994766 0.02226202 0.0018167582 -0.060996227 0.033809833 0.011931581 -0.055993542 -0.00032777447
-0.01700037 -0.048258953 -0.0251304 -0.015041735 -0.033602998 0.045586843 -0.035164554 0.018873317
0.05307702 -0.06772951 -0.050911788 0.016095638 -0.015789485 -0.065788165 -0.022350704 0.030876663
0.06465574 -0.0047305822 0.027798917 0.04766382 0.059328567 0.051665213 0.058871042 0.036808886
0.059287168 -0.009148564 -0.028085575 -0.055208057 -0.058529157 0.008386544 0.06951101 -0.019774592
0.027557435 -0.015455383 -0.021584162 0.05213161 0.007977588 0.03142702 -0.0042419094 -0.046433084
0.03122421 -0.0318297 -0.026950428 -0.055107273 0.0030054706 0.023160782 0.041199576 0.011491393
0.06002491 -0.064218655 0.006549912 0.013203996 0.008422171 0.020126259 -0.056249697 0.018285334
0.040552795 0.01791801 -0.012780156 -0.0013471843 -0.050421257 -0.07107787 0.022491839 -0.051269516

net2.0.bias f4 [256]
00000000: 6a4b 7dbd 0844 74bd 2906 523d 2e35 ecbc
00000010: cbd2 46bd 47b3 50ba 6343 6a3d 63b8 7abd
00000020: 120b 9a3c 8a83 6a3c 4e46 54bd 5af1 773d
00000030: a15e e43c 6e94 c1bb 057d 913c c908 733b
00000040: 8cae 653d 1d26 4b3d 48d1 333b 73d0 e5bc
00000050: 9165 31bd 3f8c 653d dbbe 6c3d 4e7a 83bc
00000060: 0a39 50bc e70e edbc 73e7 873d 133f 25bd
00000070: 0e7d af3b 8371 913d f799 96bc afed b13d
00000080: 491d 273d 164d 6abd 46dd debc 1788 ed3c
00000090: 4a2d 413d 5753 48bd d59f 343d fa9b 90bd
000000a0: 02af 743c 4e36 713d 9854 4d3d 8e97 fdbc
000000b0: 2af4 2cbc e397 59bd 6a80 c2bc a168 d9bc
000000c0: a830 603d 4a60 a6ba be91 313c dc1b 06bd
000000d0: d036 083d 7758 f23c d1b6 423d 8b09 8e3d
000000e0: f1c5 35bd f034 42bc 6d0c d8b9 1df5 853d
000000f0: 132c fd3b cea6 533d 8d2a 62bb 1826 c8bc
00000100: 2e96 32bd a32c 66bd e6d8 6d3d 2220 ec3c
00000110: a1af 47bc aa46 603d 6d90 733d a734 20bd
00000120: 5dfa 8a3d c11f 63bd 8c54 953d 0ace 4b3d
00000130: 405b 1abc 9ca6 edbc 2719 993d a8dd fabc
00000140: 2a79 1fbd 0b3f 84bd 57b3 5a3d b7e0 713d
00000150: 4888 62bd b6a8 9e3c e30b 92bd 0232 eabc
00000160: 983e 06bd d19f 733d b5ba 05bc e8a3 893d
00000170: 5ab6 10bd 0123 f6bb 5f26 f53c 5d51 c2bb
00000180: 012a 063c f855 84bd df26 bfbc 66ab 703d
00000190: 7328 203d 0e44 f8bc eb82 b03c 91db d03c
000001a0: 5551 273d 38c9 b1bc 259e 31bc 8e82 5ebd
000001b0: aa91 1b3d 512d 133d b5a9 08bd 5561 a83c
000001c0: 6e71 ebbc b54e 72bd 7525 62bd 0591 083d
000001d0: 5382 e83c b959 7fbc 1e77 3dbd 7ef2 953c
000001e0: e069 27bd 8677 6a3c 6c30 90bd 7e10 73bd
000001f0: 3c59 e33c bdc1 3f3d 0595 f5bc dc56 aeba
00000200: 1cb2 383d c999 7f3d fc5d babc a559 bb3b
00000210: c616 0f3d 0e1e b63c 39e8 833c ddc3 91bd
00000220: 65d4 a4bc ea28 883c 8e6e 4fbd 7cc1 523d
00000230: c073 cdbc b6b2 093c 38a1 64bd 3758 193d
00000240: cea1 f9bc 6e53 33bd 5ddf 3f3b ea94 79bd
00000250: 018a dc3c 154b 16bd d696 2c3c cbd6 2ebb
00000260: 6e29 95ba 75ff 7a3d 8ade da3c 2c7a e0bc
00000270: ffea 313d e3dc 773d 843b 23bd 8ee2 673c
00000280: 6eff 3c3c 3736 ba3c 513e 6e3d a594 733d
00000290: eecb 823b 8571 673d a8df 4c3d 9c97 663d
000002a0: 859d b9bc ba30 01bd 7be7 1e3d 3c5e 99bc
000002b0: 00ee 8bbd 6e32 873c fb11 533c feac 6cbd
000002c0: 3b4d 4abd ed22 23bd 0d06 aabc 2cf0 453b
000002d0: d2e5 143d 9571 a73d f8b4 a03c aea4 cdbc
000002e0: b30e 2ebc d777 863d 85d1 d83c 54ba 42bd
000002f0: eee2 d33b 82ac 04b9 9a4c 1e3d ee95 1abd
00000300: 0039 823d 489a 613d 8f7e 0e3d 9fd4 023c
00000310: e5b7 a9bc 422a 603d 8afb cf3c 2218 5d3d
00000320: e563 c83c 6709 823d c5f4 21bd c39f b53c
00000330: 998e 283d ae10 49bd 3eb0 82bd e247 ebbc
00000340: dac9 1c3d 8eb9 813c f317 ea3c 5e78 0f3c
00000350: 54a4 133c ac9d 6e3d c83d ca3b 9245 583d
00000360: 9a17 643d 0af4 7abd 09a9 85bd 9ab6 893d
00000370: b3f4 b23c 5bb7 89bd fedf 36bd 2327 3abd
00000380: 1d76 83bd 59d1 893d b297 84bd 1cfd 4b3d
00000390: 5ddd 5e3d ea80 5bbd ee92 1fbd 5d99 2a3c
000003a0: e300 67bd eeb8 c2bc a02f 2abd 4bd2 7dbb
000003b0: 7a91 7fbd 50a1 1cbd a4fa 823c 1bcd 7c3d
000003c0: 7b6a fabb fb92 bf3c 9c4e 69bd ea22 123d
000003d0: 5c8f 1cbc 7e56 cc3c 2eee 70bc ff1a 283d
000003e0: 2bdf 163d 3fac 943d 81ae 4f3c 8e5b babc
000003f0: 9027 1d3d 3751 59bd b326 503d 7d5a 1f3d
-0.0618395 -0.059635192 0.051275406 -0.028833952 -0.04854087 -0.0007961285 0.05719317 -0.061211
0.018804107 0.014313588 -0.05182486 0.060532905 0.027877154 -0.005907587 0.01775981 0.0037084094
0.056074664 0.049596895 0.0027437974 -0.028053498 -0.043309752 0.056041952 0.0577992 -0.01604953
-0.012708912 -0.02893777 0.06635942 -0.040343355 0.005355484 0.07101729 -0.018383963 0.08687913
0.040799413 -0.05720242 -0.02720512 0.028995557 0.04716233 -0.048907604 0.04409774 -0.07061
0.014934303 0.05888968 0.050129503 -0.030956056 -0.01055626 -0.053123366 -0.023742873 -0.026539149
0.054733902 -0.0012693491 0.01083797 -0.032741413 0.0332554 0.029583199 0.04753763 0.06935414
-0.044378225 -0.011853442 -0.00041207988 0.06540892 0.0077262013 0.05167275 -0.0034510226 -0.024432227
-0.043600254 -0.056194913 0.05806818 0.028823916 -0.012187869 0.05475489 0.059463907 -0.039112713
0.06786034 -0.055450205 0.07291517 0.04975704 -0.00942117 -0.02901011 0.074755006 -0.030623272
-0.03893391 -0.06457337 0.053393688 0.059052195 -0.05530575 0.019367557 -0.071311735 -0.028588299
-0.032774538 0.059478585 -0.00816219 0.06720716 -0.035330154 -0.007511497 0.029925523 -0.0059301094
0.008188725 -0.0646171 -0.023333965 0.05875721 0.039101075 -0.030305889 0.021546802 0.025495322
0.04084905 -0.021702394 -0.010840927 -0.054323725 0.037980713 0.03593189 -0.03336497 0.020554224
-0.02874061 -0.059157092 -0.055211503 0.033341426 0.028382456 -0.015585356 -0.046256177 0.018304106
-0.040872455 0.014310723 -0.07040486 -0.0593419 0.027752511 0.046815623 -0.029978285 -0.0013301033
0.045091733 0.06240252 -0.022749893 0.0057174736 0.034933828 0.022231128 0.016101943 -0.07117436
-0.020120809 0.016621072 -0.050642543 0.051454052 -0.025079608 0.008404424 -0.055817813 0.037437644
-0.030472662 -0.043780737 0.0029277422 -0.06093303 0.026921274 -0.036692698 0.010534009 -0.002667832
-0.0011380145 0.06127878 0.026717443 -0.027402006 0.043437 0.06051339 -0.03985168 0.014153136
0.011535509 0.02273093 0.0581649 0.05946793 0.0039915955 0.056504745 0.050017983 0.05629693
-0.022658119 -0.03154061 0.038794976 -0.018721692 -0.06832504 0.016503539 0.012882705 -0.057782166
-0.04939006 -0.03982823 -0.020754838 0.0030202968 0.036351986 0.08175961 0.019617543 -0.02510294
-0.010623622 0.065658264 0.026467094 -0.047540978 0.006466261 -0.00012652765 0.03864727 -0.03774064
0.06358528 0.055078775 0.034788664 0.007985263 -0.02071757 0.0547278 0.025388498 0.053978093
0.024461696 0.063494496 -0.03954007 0.022170907 0.041151617 -0.049088173 -0.06381272 -0.0287208
0.03827844 0.01583555 0.028575873 0.008756725 0.009011347 0.058255836 0.0061719157 0.052800722
0.05568657 -0.06126789 -0.065263815 0.067242816 0.021845197 -0.067244254 -0.04464721 -0.04544748
-0.06419013 0.06729383 -0.06474246 0.04980193 0.054410327 -0.05358974 -0.038958482 0.010412541
-0.05639733 -0.023769822 -0.041549325 -0.003873008 -0.062394597 -0.038239777 0.015988655 0.06171904
-0.007642088 0.023385515 -0.056959733 0.035677828 -0.009555664 0.024943586 -0.014705224 0.04104137
0.036833923 0.07259416 0.012675882 -0.022748735 0.038367808 -0.053055968 0.050818156 0.038904656

net2.2.weight f4 [256, 256]
00000000: 7a95 2ebd 12e4 083d 22db 353d 90c9 943c
00000010: 35c7 2ebd c00a a93c bf22 a93c 144c 69bd
00000020: 4464 f73c 92a9 1a3d 8af4 053d b239 323d
00000030: 0c72 833c 30ca dbbc 724c 1dbd 74e3 c93c
00000040: 94d1 24bd f9cf 983c 7af7 8abc 4346 213b
00000050: 603b efbc 26b8 083d 2077 633d 3843 3c3d
00000060: 7668 28bd 8fb0 d23d 60ad 953b 6480 49bd
00000070: 4cf8 423d 76d9 243d bbaa a7bc f29b afbd
00000080: 277f 403d cbab 7ebc 7cc8 18bd 0946 39bd
00000090: 38e0 7dbc 2c6f d3bc 682d 0a3d 5509 89bc
000000a0: 3321 bc3b 2773 e1bc 179a 343d 5004 393d
000000b0: 7c4f e83c a0f2 28bd 60fa 573d f859 d53c
000000c0: 8e0e 6abd bcd3 acbc 40e5 41bd afff b03d
000000d0: 6535 49bd 4c2c 4bbb 3444 ca3d 281b 98bc
000000e0: 80c0 423d ea8b 653d bc35 3a3c 3a88 21bd
000000f0: 4c11 1a3d 0462 8cbc 870a 1e3c 6f02 d1bc
00000100: 67f9 0c3e 56ac 553d 5dbb 193c dec8 eeb9
00000110: 8ee9 d93d 4c71 833c 5a64 b43c a47c 3a3d
00000120: 36f5 1ebd ac2c 78bd 72a4 24bd 3dc1 7d3d
00000130: 185e 7b3c abcb df3c 43f8 793c b0a4 743d
00000140: 7ab3 c63c 8057 663d 407b ca3b dc48 8abd
00000150: 5967 82bc 8ce7 443b 8ed8 30bd 5470 7dbd
00000160: 3aed 113d a441 8dbc bc85 4d3d d0d1 273d
00000170: 2a0f 7c3c f0b6 8f3c e553 fcbc 0578 77bd
00000180: 57c3 a23c 1028 c03b ec80 95bc 79eb abbc
00000190: c8c3 663c 7089 ae3b a9f7 36bd eb58 b93c
000001a0: 3cb3 2f3d e635 473d 42ca 233c 0a26 57bd
000001b0: c461 b9bc 8a87 313d e2f5 1abd 0d38 e7bc
000001c0: 4001 b23b 9a94 7f3d 99ed 43bd 58b8 35bd
000001d0: b0ee a03b 56e5 4e3d 8e0e 943d 6481 e63d
000001e0: 4dff 6a3c 2d51 cd3c 2506 433d 701c fe3b
000001f0: c499 3cbd d94c 173b 5000 fbbb a8b4 763c
00000200: d8ca 903c b16c ba3c d85f 243c 54f5 a0bc
00000210: e559 1f3d 2016 21bc 9419 c3bc 88cf d8bc
00000220: c4eb 51bd fb9f 483d e6e3 663d 49ba 1f3d
00000230: 9e6f 83bb de89 15bd a28c 613d 08cc 5abc
00000240: 8050 0a3a ad90 34bd b09b b33d 0640 693d
00000250: a6e4 4e3d 84cd efbc 0e6a 773d f07b 2839
00000260: fcbf 05bd ecf3 83bc f44b d13c 0b33 d63b
00000270: a68a 143c 6b8e 00bd 41d6 68bb 1afb a33d
00000280: 5050 a7bb 1164 803d 0042 883b 5a46 9fbd
00000290: 102f ea3b 288b 453c 09b0 8c3d 1485 7b3d
000002a0: 1c2c 91bc 1e1f 54bd dccb 993b fe04 403d
000002b0: 04c7 9fbc b011 cb3b 154f 51bd f088 af3c
000002c0: a507 193c 3d09 5b3d 1480 473d 3d1b 83bd
000002d0: a845 bcbc 8b26 aa3c e253 9a3d 9dbc 91bb
000002e0: 4752 dabc b4a3 8dbc 1010 1a3c 21c0 78ba
000002f0: 7a7a 1f3d 670f 3c3e c2e6 d4bb b88d 073d
00000300: 385e 553d 9876 603c f8c8 323d 621a 8d3c
00000310: 2661 23bd 2d29 b53c 9b77 82bc 920b f33d
00000320: 7938 0c3d 349e 2c3d de75 173d a56b 853d
00000330: 0643 c33c a66e 943d 934a 963d 855a 2ebb
00000340: 28ee 6d3c ae39 1cbd a266 1c3d 81b5 053d
00000350: a0d9 c53d 0045 39bc 18da 4fbd c878 463d
00000360: 06b4 7f3d 2036 363d 701c 863d fe74 083d
00000370: 10ba 21bd 1c0e f03c 5c50 b03c 0051 bcb9
00000380: 18ff d73c 3100 153d 567f 263d 12f2 5f3d
00000390: 04c4 333d 0247 06bd f254 79bd 9065 093d
000003a0: 3e20 2e3d 329d ca3c c226 f73d 5601 01bd
000003b0: 7e33 30bd 905d 643d 9d55 5b3c 90fe ea3c
000003c0: 6407 1abc fddf 3b3d c014 9b3a 2072 f23c
000003d0: 0c83 42bd d73c 3f3d f870 45bc b165 76bd
000003e0: 8778 e93c ed3f 323d 2e0f 4a3d 30d7 863b
000003f0: 6cef 5cbd 5ae0 383d 14f1 553c 07dc 17bc
-0.04262302 0.03342063 0.044398434 0.018162519 -0.042670447 0.020635009 0.020646451 -0.05695732
0.030199178 0.03775937 0.032703914 0.043512054 0.016045593 -0.026829809 -0.038402982 0.02464459
-0.04023893 0.018653857 -0.01696371 0.002460853 -0.029203117 0.033378743 0.05553353 0.045962542
-0.041115247 0.10287582 0.004567787 -0.04919471 0.047600076 0.04024645 -0.020467153 -0.08574666
0.046996262 -0.015543888 -0.03730057 -0.045232806 -0.015495352 -0.025809847 0.03373471 -0.016728083
0.0057412623 -0.02752073 0.044092264 0.04517013 0.028358214 -0.04124701 0.05272901 0.026043877
-0.057142787 -0.021097057 -0.04733777 0.08642518 -0.049123187 -0.0031001745 0.0987629 -0.018567637
0.047546864 0.056041636 0.01136535 -0.039436556 0.03761415 -0.017136581 0.009646065 -0.025513856
0.13767014 0.052166305 0.00938305 -0.00045544555 0.1064025 0.016045235 0.022020508 0.045529023
-0.03880807 -0.060589477 -0.04019589 0.061951865 0.015342258 0.027318796 0.015256944 0.05972737
0.024255503 0.05623579 0.0061792433 -0.06752178 -0.01591842 0.003004524 -0.043175273 -0.061874703
0.035626628 -0.017243214 0.050176367 0.040971577 0.015384475 0.017543286 -0.030801723 -0.060417194
0.019868536 0.005864151 -0.018249951 -0.020986306 0.014084764 0.0053264424 -0.04466978 0.022625407
0.04289554 0.048635386 0.0099969525 -0.05252651 -0.022629626 0.04334215 -0.03783215 -0.02822497
0.005432278 0.062397577 -0.047834013 -0.044365257 0.0049112663 0.05051168 0.072293386 0.11255148
0.014343095 0.025063122 0.04761328 0.007754855 -0.04604508 0.0023086576 -0.0076599494 0.01505772
0.017674848 0.022756906 0.010032617 -0.019648232 0.03890409 -0.009831935 -0.023815908 -0.026466146
-0.051250234 0.048980694 0.056369685 0.038996015 -0.0040111085 -0.036508434 0.05506576 -0.013354309
0.00052762777 -0.044083286 0.087699294 0.056945823 0.050511025 -0.029272802 0.060403876 0.00016067899
-0.032653794 -0.016107522 0.025548913 0.0065368465 0.0090662595 -0.03138582 -0.0035528096 0.08006878
-0.0051060095 0.06269086 0.0041582584 -0.0777709 0.0071467236 0.012057103 0.068695135 0.06140621
-0.017721228 -0.05178749 0.0046934914 0.04687976 -0.019504078 0.006197177 -0.05110081 0.021427602
0.0093402015 0.053475607 0.04870613 -0.0640168 -0.022982433 0.020770332 0.075355306 -0.0044475333
-0.026650561 -0.017289974 0.009403244 -0.00094890787 0.038935162 0.1836525 -0.006497235 0.033094138
0.052091807 0.01370015 0.04364869 0.017224494 -0.03988757 0.02211436 -0.015926173 0.11867441
0.034233544 0.04214306 0.03697764 0.06514672 0.02383567 0.07247667 0.07338443 -0.0026604247
0.014522113 -0.038140945 0.038183816 0.0326438 0.09660649 -0.011307955 -0.0507451 0.04845503
0.062427543 0.04448521 0.06548393 0.033314697 -0.039484084 0.029303603 0.021522693 -0.00035918504
0.026366755 0.036377136 0.04064878 0.054674216 0.043888107 -0.032782562 -0.060872026 0.033544123
0.042511217 0.02473316 0.12067939 -0.031495415 -0.043017857 0.05575329 0.013387111 0.028685838
-0.009401176 0.04586791 0.0011831746 0.029595435 -0.047488257 0.04668888 -0.01205086 -0.060155574
0.028499855 0.043517996 0.049330883 0.004115008 -0.053939268 0.045135833 0.013057966 -0.009268767

net2.2.bias f4 [256]
00000000: adf8 483c 2336 ce3c 73cc 05bd 667a be3c
00000010: 9554 fabc 8646 2c3d 95a0 7f3d 7087 fbbb
00000020: 8ef1 05bc eb24 b2bc 8ced 2f3d b43c de3c
00000030: f2a3 23bd 3a08 3dbd ab10 4c3d 0566 13bd
00000040: ed10 efbc 5fb9 2b3d 503e 38bd a209 3ebd
00000050: b54d 493d 8af4 17bd 98a7 5abd c273 493d
00000060: 5132 30bd 1890 873b 9ecd 883d a99f 9b3c
00000070: 878f 97bc 0fac 563d 9756 153c 0c7d cf3c
00000080: c17a 093d 746b c1bc 1345 b23c 481d e53b
00000090: b972 543c 9432 73bd 0a60 48bd 03be 6c3d
000000a0: 2896 423d 4e1e 3cbd 4ec5 9dba 9690 3bbd
000000b0: d30d 873d 9212 433d 9864 2cbd 2d2c 1e3d
000000c0: 0c09 45bd e3a2 e4bb dd3d 06bc 9656 30bd
000000d0: a235 413d 4543 563c c423 0a3d 70ba 873d
000000e0: 3b85 5ebd f68a 883a 56cd 973d eba6 9f3c
000000f0: 19c2 1e3c a520 193d 61ca 173d ea95 043a
00000100: c0ac eebc b995 a7bc 74db b8bc d54e 9e3c
00000110: d349 893d f06d 663d a4b9 2ebc b4e6 d4bc
00000120: 2db4 40bd 9024 5abd ea59 303d 60e7 69bd
00000130: 3c54 12bd 7111 0dbc 9db2 303d 4744 bb3c
00000140: 3be1 2b3d d861 323c c7ba dfbb 1d6e 22bd
00000150: 34bd 273d d99f 623b 3071 8abc 644c 91bc
00000160: 1457 803d 2b07 bb3c eee6 5fbc 6424 1a3d
00000170: dc7c febc 3b6d 373d a0e5 633b ef9d 4d3d
00000180: f5ee a8bc 7714 773d 5c72 32bd 5094 65bc
00000190: 2a43 753c ee4c 113d e2cf 523d 6640 63bd
000001a0: 3de1 833d 421e 07bd 8ff2 463c 785b 323d
000001b0: 14b9 aebc 4738 14bd 12fe e73c 1cfd 2d3d
000001c0: f73b e5ba c7ba 9f3c 8aec 5fbc 89bf 093d
000001d0: 4a6b 893d 9388 d13c db39 04bd 7d73 6e3d
000001e0: 4c79 143d 2ed8 da3c 1eac 993b 6465 333c
000001f0: ea5e 053d a5a3 2bbd 008e b739 f402 d4bc
00000200: d66d 82bc 74b5 09bd a6b9 4b3d 630d 0f3d
00000210: 2605 3bbd cf5d e3bc 4daf 4b3d 4eb3 a93a
00000220: 1815 39bc bd4c af3c 8aa3 413d a410 68bc
00000230: 365a 03bd 82be a23d be40 69bd 5a0c 45bd
00000240: acc2 5d3d 2509 5fbd 7ea0 2bbc 44c5 333d
00000250: 2f53 2ebd 3cd9 8d3d fd74 e1bb 5cd7 38bd
00000260: cf35 0a3d 5108 3dbd 67b4 64bc 561b e63b
00000270: 3b26 203d 1e7a 1cb9 4b86 623d 8d59 873d
00000280: cc7f 38bd 98d6 913c cd80 363c 8eb9 07bd
00000290: ad38 433d 7c41 b93c 231e 7f3d 0210 0cbd
000002a0: 4074 31bd 488a 713c 651a 153d eeea 7abd
000002b0: 4cfc 093d e159 833c a26d 2b3d 94e3 64bd
000002c0: 64b5 0a3d c952 503d cc7f 5dbd 3c34 1f3d
000002d0: 212e 22bd c6a1 a83c 7cc0 cbbc 80c2 b2bc
000002e0: d8de 28bd c0bb 02bd c73e 203d a421 a4bc
000002f0: 88a2 6abd f33a 59bc 2098 5ebd d31c 22bd
00000300: c099 6d3c 08a6 803c 7c62 69bd 5da6 8d3b
00000310: e7e4 813c 05a3 01bd 5109 adbc 01ab 4bbd
00000320: e600 39bb 9ce5 ee3b 9992 fdbc 68fb 1fbd
00000330: e863 d8bc 8ff4 2dbc 8816 873c 515e 63bd
00000340: cb28 0abd 3759 1ebc 78f3 603d e4b6 3dbd
00000350: dade 073d 39f0 b93c a95b fa3a 0c3a e0bc
00000360: b1bd d8bc a4f9 3dbd 10fc 5b3d 672f b03b
00000370: ca64 883c a044 96bc ce93 5bbd 80e5 4ebd
00000380: 4569 47bd 55b0 a5bc 48a4 5a3c 94e1 823d
00000390: 02ad 4dbd 04cc 583d bc30 123d a4a5 43bc
000003a0: 2011 b33c 9223 67bc ce0d 033d dc14 56bd
000003b0: 5e26 593d 41c5 5d3d 6629 643d 3207 a2bc
000003c0: bc40 3b3d 48b4 39bd 77eb cebb 5e4c 35bd
000003d0: 1fd2 25bd 1813 fe3a 24fc 83bc dd1c 583d
000003e0: aaff 2fbd 5487 b5bc 7d14 403c 8b29 6bbc
000003f0: 1aa7 ce3c f1d0 703c ba4c 053d 068d debb
0.01226632 0.025172299 -0.03266568 0.023251723 -0.03055791 0.042059444 0.062409002 -0.0076760575
-0.008175267 -0.02174612 0.04295115 0.027128555 -0.039951272 -0.046150424 0.049820583 -0.035985965
-0.029182876 0.04192483 -0.0449813 -0.046395905 0.049146373 -0.037098445 -0.053382486 0.04918266
-0.043016735 0.0041370504 0.06679843 0.01899703 -0.018501056 0.05241018 0.009114883 0.025328182
0.033564333 -0.023610808 0.021761453 0.006992016 0.012966805 -0.059374407 -0.048919715 0.057798397
0.04750648 -0.04592734 -0.0012036951 -0.045792185 0.06594434 0.047625132 -0.04208812 0.038616348
-0.04810433 -0.0069774254 -0.00819346 -0.043051325 0.04717029 0.013077562 0.033725515 0.06627357
-0.054326277 0.001041739 0.074122116 0.019488772 0.009689831 0.037384648 0.037058238 0.00050577393
-0.029135108 -0.020457136 -0.02256558 0.0193247 0.06703534 0.05625719 -0.010664377 -0.025988914
-0.04704683 -0.053257525 0.0430545 -0.057105422 -0.035724863 -0.008610115 0.04313909 0.022859706
0.041962843 0.010887586 -0.0068276855 -0.039655793 0.040951923 0.003458014 -0.016899675 -0.017736621
0.06266609 0.022830566 -0.013665898 0.03763236 -0.031065397 0.044781905 0.0034774318 0.050199445
-0.020621756 0.06032225 -0.043566093 -0.014012411 0.014969626 0.035473756 0.051467784 -0.055481337
0.06439445 -0.03298784 0.012142791 0.043544263 -0.021328487 -0.036186483 0.028319392 0.042477712
-0.0017489184 0.019498242 -0.013667235 0.033629928 0.06709917 0.025577819 -0.032281738 0.058215607
0.03624849 0.02671441 0.0046897074 0.010949466 0.03256122 -0.04190411 0.00035010278 -0.025880314
-0.015921514 -0.033620313 0.049737595 0.034924876 -0.045659207 -0.027754692 0.049727727 0.0012947114
-0.011296533 0.021398896 0.047275104 -0.014164124 -0.032068454 0.07946493 -0.05694651 -0.048107482
0.05414073 -0.05445208 -0.010475276 0.0438893 -0.0425598 0.069262 -0.006880401 -0.045127258
0.033742722 -0.04615051 -0.013959027 0.0070223017 0.03909896 -0.00014922812 0.055303853 0.06608877
-0.04504375 0.017802522 0.011139107 -0.033135943 0.047661472 0.022614233 0.0622846 -0.034194954
-0.043323755 0.0147424415 0.036402125 -0.061259203 0.033687875 0.016034069 0.0418526 -0.055881098
0.033864394 0.0508602 -0.054076955 0.038868174 -0.039594773 0.020584952 -0.024872057 -0.02182126
-0.041228145 -0.031917334 0.03912237 -0.020035572 -0.057283908 -0.0132586835 -0.054344296 -0.03957827
0.014501989 0.01570417 -0.056978688 0.0043228106 0.01585622 -0.03164961 -0.021122606 -0.04972363
-0.0028229295 0.007290555 -0.030953692 -0.03905812 -0.026414827 -0.010617389 0.016490236 -0.05550987
-0.03373031 -0.009664825 0.05491969 -0.046316996 0.033171512 0.022697555 0.0019100803 -0.027371429
-0.02645764 -0.046380654 0.053707182 0.0053767445 0.016649622 -0.01834327 -0.053607754 -0.050511837
-0.048684377 -0.020225683 0.013344832 0.06390682 -0.05021382 0.05292894 0.035691008 -0.011941347
0.021858752 -0.014107602 0.031995587 -0.052265987 0.053015105 0.054143194 0.055703543 -0.019778822
0.045716032 -0.045337945 -0.0063146907 -0.044262283 -0.04048359 0.0019384352 -0.016111441 0.0527619
-0.04296843 -0.022159256 0.011723635 -0.014353166 0.025226165 0.014698253 0.032543875 -0.0067917136

net2.4.weight f4 [256, 256]
00000000: d45f 523d e696 d1bc 8562 f2bc fff0 163d
00000010: 3f68 1fbd 101b 8fbb 058d 5a3c d6d7 42bd
00000020: 7ba4 463d e805 a8bd fcfe 9a3c 6358 513d
00000030: 982d 80bc 69e3 6e3c 7f4c 52bd c845 1d3d
00000040: 0d37 6b3d 6c8f 41bd 98c1 1cbc e0f4 473c
00000050: caa3 cdba a806 51bc f2d2 31bd 0f36 703d
00000060: c966 893d fb12 153d a00d 493d 8fa3 0b3d
00000070: 5dee 4c3d e45b 5d3a ad8e 4abd 90c1 f53c
00000080: fa3d 83bc c030 033b 2db3 1cbd 1290 9abb
00000090: 6611 8b3d 0080 35b8 c969 c8bc 0832 853d
000000a0: 0f5f 5b3d d4b8 d83c 784a 8e3d 4256 1c3d
000000b0: 04ce 29bd 056d b53d c927 453c 8c45 103d
000000c0: 4269 493c 868b afbb d2b1 0c3d 160f 233d
000000d0: 61c2 60bc 1c0a 58bd 6947 de3b 3741 3a3d
000000e0: 9f5f b93c ae83 9a3d 9781 23bd 3f65 1f3d
000000f0: a14a bf3d 6b82 643d c0a7 55bc 0c06 b43d
00000100: 3842 90bc 419c 423d 1b63 49bd 54e7 943d
00000110: 153d 093d 78f5 e7bc f785 023c 006e e639
00000120: a57a a8bc ea6f 203d a1f1 d6bc a05f 42bd
00000130: 5710 90bd 3c23 8abc 0675 c63a 6f97 9dbc
00000140: 51db 0a3d 6e1f b73d 4310 913d 548d 813d
00000150: 848e 1b3d def3 533d e404 cebc 001a 263c
00000160: 9bbc 9cbc 72c3 87bd 1965 f5bc acc6 f4bc
00000170: 183e 423d 69a3 dabc 3422 70bd edcc 513d
00000180: 3d03 a13c 85b6 c43d 03d6 863d 7c3c d43c
00000190: b5cd b4bd c814 6a3d 853d 333c c27c 8a3d
000001a0: 7d40 b0bc 6ca7 44bc 0e36 ffbc bf04 923d
000001b0: c65d 323d 6cc4 82bc dacf a4bc 386f 9b3d
000001c0: b27d 8b3d a965 3abc 01f0 d93c 0180 98bc
000001d0: 0e89 273d 6e40 523d c54c 0fbc 3640 6abc
000001e0: 1c8f 57bd 6d4a ca3d 6f83 9abc 3f4a 053d
000001f0: e052 89bb 298c ac3d 689c b3bc 55b7 293c
00000200: b9e5 07bc b08e 78bc 1f3a b23c 6f31 b83c
00000210: 7023 f13c d955 5dbd 9a44 313c 147e 55be
00000220: bcfc b8bc 6776 253d 5cf3 463d 3419 a93d
00000230: 30f9 f9bc 5c3a 1e3d 7434 c2bc 0405 92bc
00000240: d4bc 02bd f80e 4f3c e3f0 773d d060 373d
00000250: 20c6 35bc 080c 903b ba26 9fbd 4052 7ebd
00000260: ae89 393b bfc5 a73d 7df1 233d 7fdf 8e3d
00000270: 271f ab3b fb13 613d 9364 77bc fdc7 debc
00000280: 2005 c83d 5c76 60bd f907 de3c bfab 323d
00000290: 824f 08bd 15c3 223d 8d05 753c 6418 b33c
000002a0: 2eab 15bb 4372 463c 0c9f a3bb da47 8bbb
000002b0: d44d 543d dc2a 40bd 5495 683d f464 953c
000002c0: 5d28 fd3c 638a 4bbd 6028 803c 1955 b3bc
000002d0: f9c9 7dbd 080e 2f3d 5fe7 b03c c2af 2d3d
000002e0: dc3b 8d3d 79c0 1c3d 2b6b c83d 9acd 37bd
000002f0: 5a0d 203d 6721 243d 896b 10bc 8a0a feba
00000300: aa93 22bd b031 07bd b6fe 31bd 4ddb 4bbd
00000310: 2e95 943b 2cfe ae3d cab3 483d d182 383d
00000320: 4ef3 163d 8db8 133e 346d 403b 6fb5 4cbd
00000330: e266 f8ba ee47 5e3d 704f 6b3c b1c6 ec3c
00000340: 7bad 913c cc6b 293d fac6 843b ecf1 dbbc
00000350: f63a 10bd 6af1 9b3d c745 633c 143c 8f3c
00000360: 5956 d63c 8011 68bb 69d0 98bb fa7b d83c
00000370: 6899 1cbd b0b7 6fbc 181a e9bc feef 74bd
00000380: 22aa 293d b448 d9bc 5009 4abc a372 593d
00000390: 37df 4c3c 8644 713d e783 183d 0a36 4d3d
000003a0: 7890 63bd f326 1ebd 5e37 12bd 2841 a2bc
000003b0: 2bba 24bd 6fd9 993c f40e 69bd 3869 4c3d
000003c0: d814 0bbd f49e b6bc b577 253d 38a5 76bd
000003d0: cb44 1e3c c4d2 023d 603e 1b3d 7d86 b23b
000003e0: 5b6d f43c f70b ba3c 1f5d f9bc 89a1 483d
000003f0: fe9e c6bd 2c55 88bc 8a02 73bd 6764 a93d
0.05136092 -0.02558465 -0.029587993 0.036850926 -0.038917776 -0.00436724 0.013339286 -0.04756912
0.048496705 -0.082042515 0.018920414 0.051109683 -0.01564674 0.014580586 -0.051342484 0.038396627
0.057425547 -0.04725592 -0.009567641 0.012204379 -0.0015689072 -0.012757935 -0.043414064 0.058645304
0.06709058 0.036395054 0.04908526 0.03409153 0.05003201 0.0008444174 -0.049452472 0.029999524
-0.016020764 0.002001807 -0.038256813 -0.0047168816 0.06790428 -4.3272972e-05 -0.024464505 0.06503683
0.05355745 0.02645532 0.069477975 0.0381682 -0.041456237 0.088586845 0.012033411 0.035222575
0.012293162 -0.0053572087 0.03434927 0.03980931 -0.013718219 -0.052744016 0.006783415 0.04547235
0.022628604 0.07544647 -0.03991851 0.038914915 0.09340406 0.05578844 -0.013040483 0.08790216
-0.0176097 0.047512297 -0.04916678 0.07270685 0.033505518 -0.02831529 0.00796651 0.00043950975
-0.020566294 0.03916923 -0.026238265 -0.047454476 -0.070343666 -0.016862504 0.0015141077 -0.019237248
0.033900563 0.089415416 0.0708318 0.06325784 0.03797771 0.05174624 -0.025148816 0.010138035
-0.019132903 -0.06629075 -0.029955434 -0.02987989 0.0474225 -0.026689248 -0.05862637 0.051220823
0.019654864 0.09605125 0.06583788 0.025907747 -0.08828298 0.057148725 0.01093996 0.06762077
-0.021515125 -0.012002807 -0.031153705 0.071298115 0.04354646 -0.015962802 -0.020118643 0.07589573
0.06811084 -0.011376777 0.0266037 -0.018615725 0.04090219 0.051330976 -0.008746331 -0.014297536
-0.052626714 0.09877477 -0.0188615 0.03254151 -0.0041907877 0.08425171 -0.021925166 0.010358651
-0.008294516 -0.015170738 0.02175623 0.02248451 0.029435843 -0.05403695 0.010819579 -0.20848876
-0.02258145 0.04039612 0.04857193 0.0825676 -0.03051433 0.038629875 -0.023706652 -0.017824657
-0.03191836 0.012637846 0.06053246 0.044770062 -0.0110946 0.0043959655 -0.077710584 -0.06209016
0.0028310823 0.08192014 0.040025223 0.06976222 0.0052222195 0.054950695 -0.015099662 -0.027194971
0.097666025 -0.054800376 0.027103411 0.04362082 -0.03327895 0.039736826 0.014954937 0.021862216
-0.0022837627 0.012112203 -0.004993325 -0.0042505087 0.051832035 -0.046915874 0.056783035 0.018236615
0.030903036 -0.049692523 0.015644252 -0.021891164 -0.061960194 0.04273799 0.021594701 0.042403944
0.06896183 0.038269494 0.09786066 -0.04487381 0.039075233 0.040070917 -0.008814701 -0.0019381803
-0.039691605 -0.03300637 -0.043455802 -0.04976969 0.004534385 0.08544573 0.048999585 0.04504663
0.036853127 0.1442587 0.0029361965 -0.049977716 -0.001895156 0.054267816 0.014362201 0.028903337
0.017782917 0.04136257 0.00405204 -0.026848756 -0.03521248 0.076144055 0.013871617 0.017484702
0.02616422 -0.0035410821 -0.0046635163 0.026426304 -0.038232237 -0.014631197 -0.028454825 -0.059799187
0.041422017 -0.026523925 -0.012331322 0.05308784 0.01250439 0.05890324 0.037235167 0.050100364
-0.055557698 -0.038611364 -0.035697334 -0.01980646 -0.040216606 0.018780438 -0.056899026 0.049905032
-0.033955425 -0.022292592 0.040397365 -0.06021616 0.009659956 0.031939283 0.037901282 0.005448161
0.029837301 0.022710783 -0.030439911 0.048982177 -0.09698294 -0.016642176 -0.059328593 0.08271103

net2.4.bias f4 [256]
00000000: 4338 9b3c 93eb c8bc 3567 253d 6f73 8c3d
00000010: 982b 1abc 7d8f 90bc 05d9 96bc 148a 8dbc
00000020: 9ebf 043c 4f33 d73a 0c00 95ba 94a2 f13c
00000030: a9cf 253d c8d0 4e3d 3c5b f3bc 34f8 863d
00000040: 1279 4f3d c564 813c f743 113d 7a7a 1e3d
00000050: 19cc 2cbd 68d0 953c cb81 113d 53b1 c9bc
00000060: b126 02bd 8fb3 4bbd 9b57 10bc 6421 313d
00000070: 060d b2bc 2922 af3c ab8e a7bc 9eda 783d
00000080: eebd 8bb8 94a2 44bd e4db 67bd f8a2 48bc
00000090: efcb 153d 78ce 903c 7e0b 02bd 657d f73c
000000a0: 1c54 82bc 1bc5 763c 0ec3 0c3d be67 613d
000000b0: ce89 6cbd 6e9e 273d 721f 623d 5551 16bd
000000c0: 1e56 49bd 28e2 6c3d 3f8d 2fbd f3f7 273d
000000d0: 8aa1 5c3c 100a 6d3d 2a62 2cbd 0115 803d
000000e0: d115 56bb e854 ea3c d8c3 433c e243 023d
000000f0: 65c2 bbbc 409d a93b 1e81 253d d7dc d23b
00000100: b25f 50bd 3c13 66bd c245 1dbd be94 64bb
00000110: acb4 933c ad87 8abc 7bfd 263d e08a 043c
00000120: 20ca 4abd 447e 593d 7dab 573d a05c 693c
00000130: 6803 96bc 2595 5b3d bce0 39bd d32b 1d3d
00000140: 3f7d 003d 337f 083d 4535 393c 6323 e4bc
00000150: 7710 843c 6c31 4ebd 837c c23c fcaa 5ebd
00000160: 4ac1 09bd 10c3 dc3c ce98 c7bc af9d 94bc
00000170: ac34 7f3d 5559 24bc 4baf e03c 8858 4b3d
00000180: d07a f9bc 886e fdbc a8a8 de3b 851d a73c
00000190: c854 c4bc 0e75 74bd 3c9d 3abd 174e 723d
000001a0: 1efe cb3c 382b af3c a4e6 89bc 9b1a 15bd
000001b0: f7aa 303d abd6 4d3d e73a 1bbd 248a 1e3d
000001c0: 5cac 5c3c 1587 623d 7252 5ebd 3550 69bc
000001d0: 3332 163d 0098 6f3b a81d db3c 914b 5e3d
000001e0: a7a1 873d 1d79 973d a466 45bd 5303 19bb
000001f0: e0d9 923d 6d7a 0c3c 3cef 54bd 7fba 08bd
00000200: b098 393d 0481 07bc f0f7 77bc 80f8 8ebc
00000210: f646 1cbd 51a1 6abc d55d 5f3d c7e6 2abd
00000220: b540 073d 4d08 4bbc a849 9d3c 45f6 fabc
00000230: 7080 483d 30fd 31bd 7016 a8bb 3c22 b73c
00000240: 76b2 67bd 6078 debb 1b26 423c c45b d93c
00000250: 9485 76bc 5790 643d cf8c 6c3c 1b6e f13b
00000260: 9827 0ebd 7986 263d ac3d 8c3c e5b9 10bd
00000270: 7476 80bd 2a9d 643c ff05 4cbc 1ce1 e6bc
00000280: a4bf 643d aa26 96bc 2662 253b eb6f 333d
00000290: 0eec 0b3d 4c68 d1bb e31b 073d 520b 6b3d
000002a0: 5bd9 b73c ccf8 f1bc 4218 953c dd47 643d
000002b0: 19fa 163d 8a76 1e3d 9030 96bc 82f1 4d3c
000002c0: 2bd4 0bbd 6368 6f3b d6d2 223d 09ad fb3c
000002d0: 3071 803c 882c 0b3d 451d 9c3d 3900 e2bc
000002e0: 34cf ddbc a6f0 4a3d c00b 303c 15b9 85bd
000002f0: b3c0 143d e0a5 cfbc c754 c63c 8f0b ae3c
00000300: 3015 db3c 7566 2f3d 87d9 063d c53e e73c
00000310: 46b7 06bb 97a6 63bd 9fa9 33bd 90b6 1ebd
00000320: 55d0 283c 80a4 e2bc 6c17 53bc 5885 9e3c
00000330: b262 70bd 5441 94bc f8bd 7dbc c14b 143d
00000340: 23e3 673d c287 0cbd 7733 bdbb f593 0b3d
00000350: a359 43bd 0ff1 48bd b9df 313d fa8f 31bc
00000360: 1da7 10bd 48ed 6cbd fd90 0dbc 0c79 5c3d
00000370: 590f 843c bf08 203d 014f 233d d739 56bc
00000380: a82f 70bc 40c2 ce3b 0ccd 05bd 8c12 48bd
00000390: d48b f83c c14e c43c a532 1d3d 0a1b 72bd
000003a0: c6f7 5fbc c021 17bd 51ab 293d a3c4 d7bc
000003b0: c2de d5bc 63a8 133c 7317 63bb d92e 92bc
000003c0: 0091 fc3b b10c 233c 7a3e 033d 6f74 143d
000003d0: 5093 5c3d c73b f53c c9ec 5ebb c4ad 01bd
000003e0: e828 053d 6629 74bd 8d40 44bd 9c5d 243d
000003f0: 4cae 4c3d 9f2d fa3c 3f49 cdbc 13e1 08bd
0.018947726 -0.024526393 0.04038163 0.06857955 -0.009409808 -0.017646546 -0.01841403 -0.017277755
0.008102326 0.0016418489 -0.0011367812 0.029496469 0.040481243 0.050492078 -0.02970659 0.0659031
0.05065257 0.015795121 0.035465207 0.03869102 -0.04218683 0.018287852 0.03552417 -0.024620688
-0.03177518 -0.049731787 -0.008809949 0.043244734 -0.021734726 0.021378594 -0.020453772 0.060755365
-6.663414e-05 -0.04800661 -0.05660619 -0.012245886 0.03657144 0.017676577 -0.03174924 0.03021116
-0.015909247 0.015061642 0.034365706 0.055030577 -0.05774861 0.040922575 0.05520577 -0.036698658
-0.049154393 0.057832867 -0.042859312 0.041007947 0.013466248 0.057870924 -0.042085804 0.06254006
-0.0032666812 0.02860494 0.011948548 0.03180302 -0.022919843 0.0051762164 0.04040634 0.0064350176
-0.050872512 -0.056170687 -0.038396604 -0.0034878696 0.018030487 -0.016910398 0.04076908 0.008089751
-0.049509168 0.053098932 0.05265378 0.014243275 -0.018312171 0.053609032 -0.04538034 0.038371872
0.031369444 0.03332443 0.011304204 -0.027848905 0.016121132 -0.0503401 0.023741012 -0.054362282
-0.0336316 0.026948482 -0.024364855 -0.018141596 0.06230609 -0.010031064 0.027427336 0.049644977
-0.03045407 -0.030936494 0.0067950077 0.020399818 -0.023966208 -0.059681945 -0.045560107 0.059156504
0.024901446 0.021382913 -0.01683361 -0.036402326 0.043131795 0.05025355 -0.03789797 0.03870596
0.013468828 0.055304606 -0.054277845 -0.014240314 0.036668967 0.0036559105 0.02674754 0.054271284
0.066226296 0.073961474 -0.04819359 -0.0023347929 0.071704626 0.00857411 -0.051985964 -0.03338098
0.04531163 -0.008270506 -0.0151347965 -0.017452478 -0.03815361 -0.014320687 0.054532845 -0.041723993
0.033020694 -0.012392116 0.019200161 -0.030635009 0.048950613 -0.04345435 -0.005129628 0.022355191
-0.056566678 -0.006789252 0.011849905 0.026533015 -0.015046496 0.055801716 0.014437868 0.007367862
-0.03470573 0.040655587 0.017119251 -0.035333533 -0.06272593 0.013953486 -0.012452601 -0.028183512
0.055846825 -0.018328983 0.0025235503 0.043807905 0.034160666 -0.006390607 0.03298558 0.057383843
0.02244251 -0.02953758 0.018200044 0.055732597 0.036859605 0.038687266 -0.018333703 0.012569787
-0.034137886 0.0036530725 0.03975185 0.030722158 0.015678972 0.033978015 0.0762277 -0.027587997
-0.027076341 0.049545906 0.010744989 -0.06529442 0.036316585 -0.02534765 0.024210347 0.021245746
0.026743501 0.04282232 0.032922294 0.028228173 -0.0020556017 -0.055578794 -0.043862935 -0.038748324
0.0103035765 -0.02766633 -0.012884002 0.019350693 -0.058687873 -0.018097557 -0.015487187 0.036205057
0.0566131 -0.034309156 -0.0057739574 0.03407665 -0.047692906 -0.049058016 0.04342625 -0.010837549
-0.03531562 -0.057843477 -0.008640525 0.053826377 0.0161206 0.03907084 0.039870266 -0.0130753135
-0.0146598 0.0063097775 -0.03266625 -0.048845813 0.030340113 0.023963334 0.038378377 -0.059107818
-0.013669914 -0.03689742 0.041423146 -0.02633888 -0.026107196 0.0090123145 -0.0034651428 -0.017844604
0.007707715 0.009951756 0.032042004 0.036243852 0.053851426 0.02993573 -0.0034015647 -0.031659856
0.032509714 -0.059609793 -0.047913123 0.040128335 0.04997091 0.030539332 -0.02505934 -0.033417773

net2.6.weight f4 [2, 256]
00000000: 383c 21bd 12d4 983d b9db 1d3d 519e 65bd
00000010: 9429 e53c d695 b0bc 8fc6 92ba 9ea7 16bd
00000020: ce6b 7abd fc89 593d 7780 a4bd f835 3fbd
00000030: 2872 7a3d a82a ddbc ba03 783d fc12 b83d
00000040: 8a58 573d 95dc 44bc 6880 5d3d ae01 8ebc
00000050: 7f7e 303b 7650 633c f1e7 f23c ab6f 3d3d
00000060: 02aa 09bd d59a 93bd bf87 4dbc 8dda 63bd
00000070: 6225 a8bd 0506 95bd a7c5 90bc edc4 5abd
00000080: c0ba 953d f574 8e3d 45b0 cf3c cc0e 4a3d
00000090: e055 5c3d 4a50 43bd 6fc9 84bd 0082 d2bc
000000a0: 8a19 273d f226 b13d 6be4 41bd 34c8 1b3f
000000b0: 08f5 fe3c 8ede 3d3d a537 6abd a4bb 783d
000000c0: e0d6 0c3d 1684 76bd 9c43 28bd e6f2 35bd
000000d0: 7c24 d7bc 7a87 1dbd 8950 c23c 1301 f53e
000000e0: b9df 07bd f1c7 ae3c 0fb0 22bd 1cf1 563c
000000f0: a1d9 0c3d 24d9 733d f3e3 b13e 3b02 673d
00000100: 4482 abbc 756e 913c d68e c8bc 0b14 f6bb
00000110: c8ad 39bd 6c32 033e fac1 b83d 6476 61bd
00000120: 90c9 c33b d73b 653d e525 53bd 60a4 203d
00000130: dcc6 11bd 00e4 92bc 5300 39bd 3313 bfbc
00000140: c175 5d3d af8a 86bc e1ca 8abd 94f4 97bd
00000150: fb3f c33c 0bf1 723d d1aa b13e c4f2 74bd
00000160: 71b6 163d 304c 7ebd 3901 1a3d 2026 0a3d
00000170: 53c2 d03e 01d0 263d 1096 633d aa02 293d
00000180: f035 213f 6014 a23c 22a8 29bd 25e2 a73d
00000190: 320b b8bc 88f0 5cbd 5cc0 3b3d eace 383d
000001a0: a33d 0abd 287d e9bc 246f 203d f24e 5b3d
000001b0: e438 77bd 57df a3bd ac7e 57bd 1bd4 bd3d
000001c0: c435 73bd 655a 0f3d 201f 72bd e0d7 5a3d
000001d0: c380 96bd c28a 283d 5820 6ebc 5ed9 5c3d
000001e0: 2d32 44bd 0c84 6d3e 6b36 ce3d b6a0 bdbc
000001f0: 62d5 083e c9e0 2cbd 9228 113d 601a 063e
00000200: d350 59bd 565d 14bd 0cb7 1d3d f03b 073c
00000210: 601a 2ebc 69db 1fbd 9118 c53d c69c cc3c
00000220: 0776 7fba 3fef 2fbd b38c febb 87a0 583d
00000230: ccb7 8b3c 46f5 7ebd 5a1b 0e3c eacb 93bd
00000240: 6c59 1abd 1044 eb3c e52c 8ebd 58d7 223c
00000250: a9b4 0b3f d16d 123d cc79 623c 83ac d93d
00000260: 9cd4 17bd 8a44 29bd d721 bc3d 26c3 c5bc
00000270: e1c6 d7bd 642f 80bd b6e8 f13d bc89 843c
00000280: fd28 93bd b0c5 53bd 580d 5c3d 72da 54bd
00000290: 698c 64bd 7bd7 debc bcaf c6bd aa2f a4bd
000002a0: a485 fcbc 3639 06bd 4299 3fbd e1ef 633d
000002b0: f9d5 c63c 99f9 b0bc 31f1 2bbd 555b 3e3d
000002c0: 3eb3 9c3e 6b81 d33c 3a2f 6b3d 452d ae3c
000002d0: b8ae bcbc b5cc be3e fe97 5cbd f53e 283c
000002e0: c8e0 7bbd 022c 013d cc14 aebc 2ad8 cc3c
000002f0: 499b 9e3b 5463 133d d089 d43d e08d 933d
00000300: f4b6 613d 0747 02bd fb34 23bd 690c 1bbd
00000310: 824d bf3e 3d64 023d 8a07 c23e c07c 70bc
00000320: 1d9c 603d d6d3 fa3d ee32 703c f1ec c8bc
00000330: 12bd 513d 9439 76bd 45ee f63e d7ae 18bd
00000340: c7a4 d53c 8af4 163d 34b7 7cbb eedd 3cbd
00000350: 74ef 99bd aaa8 b7bd af74 143d 427b 443c
00000360: ff7e c53c f826 ad3c df1d 1abd 083c 5f3c
00000370: dce2 45bd 7c6a 6bbd be40 263d 3ef5 563d
00000380: de8f 203d 46c0 5dbd 3866 3fbd 38be c9bc
00000390: 34eb 4bbd ab9b 1f3e 62d0 c1bd 34e2 f1bc
000003a0: 0ac5 5dbd 1dc0 603d b247 f93d 34fd 663d
000003b0: 8e21 233c 5563 9cbc c249 7dbd 9a03 8abd
000003c0: e648 3c3d a234 40bd 3ec5 b93d c532 a1bd
000003d0: 8d92 edbc 9bc8 42bd 5883 5fbd 48a9 42bd
000003e0: 81a2 ba3e fe99 0c3d 04f3 1cbd 65cf 603d
000003f0: 13d1 34bd e985 6dbd 93ff 86bd 9bd7 673d
-0.03936407 0.07462324 0.038539622 -0.056059185 0.027973928 -0.021555822 -0.0011198091 -0.036780946
-0.061137967 0.053110108 -0.08032315 -0.046682328 0.061144024 -0.02699788 0.06055043 0.08987996
0.05257467 -0.0120154815 0.054077536 -0.017334785 0.0026930866 0.013874164 0.029651614 0.046249073
-0.033609398 -0.07207266 -0.012544571 -0.05562835 -0.08210255 -0.07276539 -0.017672373 -0.05341046
0.0731101 0.069559015 0.025352607 0.049330518 0.053792834 -0.04768399 -0.06483733 -0.025696754
0.04079584 0.08650006 -0.047336977 0.6085236 0.0311227 0.046354823 -0.057181973 0.060725823
0.03438461 -0.06018456 -0.041080102 -0.0444211 -0.026262514 -0.03845928 0.023720043 0.47852382
-0.033172343 0.021335574 -0.039718684 0.013119008 0.034387235 0.059533253 0.34744224 0.05639861
-0.020936139 0.017752865 -0.024482172 -0.0075097135 -0.045331746 0.12812203 0.09021373 -0.055044547
0.005974956 0.05596527 -0.05154981 0.03921926 -0.035590038 -0.017930984 -0.045166325 -0.023324585
0.054067377 -0.016423551 -0.06776977 -0.074196965 0.02383422 0.059311908 0.34700635 -0.05980183
0.036795083 -0.062084377 0.037598822 0.033727765 0.40773258 0.04072571 0.055563033 0.041262306
0.6297293 0.019785106 -0.04142011 0.081974305 -0.022466276 -0.053940326 0.045837745 0.045119204
-0.033750188 -0.028502062 0.039168492 0.053542085 -0.06035699 -0.08001583 -0.052611038 0.092689715
-0.059377447 0.034998316 -0.059111714 0.05342853 -0.07348778 0.041147955 -0.014534079 0.053918235
-0.047899414 0.23194903 0.10068973 -0.023147922 0.13362649 -0.04220656 0.03543908 0.13095999
-0.053055596 -0.036221825 0.038504645 0.008254036 -0.0106264055 -0.039027605 0.09623826 0.0249771
-0.00097450655 -0.042952772 -0.0077682375 0.052887466 0.017055415 -0.06224563 0.008673513 -0.07216628
-0.037682936 0.028718978 -0.06942157 0.009939037 0.5457254 0.03574926 0.013822984 0.10628607
-0.037067994 -0.04132513 0.09186142 -0.024140906 -0.1053598 -0.06259039 0.11811964 0.016178958
-0.07185552 -0.0517022 0.053723663 -0.05196614 -0.055797968 -0.027202358 -0.097014874 -0.08016904
-0.030825444 -0.032769404 -0.046777017 0.05564869 0.024271952 -0.021603392 -0.041978065 0.04647382
0.306055 0.025818547 0.057418086 0.02126182 -0.023032531 0.37265554 -0.05385589 0.010268916
-0.061493665 0.03153611 -0.021250151 0.025005419 0.004840289 0.0359834 0.10377848 0.07204795
0.05510612 -0.03180602 -0.039845448 -0.037853632 0.3736382 0.031833876 0.37896377 -0.01467818
0.05483638 0.12247436 0.01466058 -0.024527045 0.051205702 -0.060113505 0.4822866 -0.037276115
0.026079549 0.036854304 -0.0038561346 -0.046110086 -0.07516375 -0.08967717 0.03624409 0.011992278
0.024108408 0.021136746 -0.037626144 0.013625152 -0.048312053 -0.0574746 0.040589087 0.052479975
0.039199702 -0.054138444 -0.046728343 -0.024626836 -0.049784854 0.15586726 -0.09463574 -0.029526807
-0.05414299 0.054870714 0.12171878 0.056393817 0.0099567305 -0.019090334 -0.06183792 -0.06738968
0.04596796 -0.046925195 0.09070824 -0.07871012 -0.029000545 -0.047554594 -0.05456862 -0.04752472
0.36452106 0.034326546 -0.038317695 0.054885287 -0.0441447 -0.057989035 -0.06591716 0.0566021

net2.6.bias f4 [2]
00000000: 85de 753d 937b 763d
0.060026664 0.060176443
