training/save_ddpg_weights/DDPG_R1_actor_network_s4.pt (torch, 734843 bytes, 13 tensors)

net1.0.weight f4 [3, 1, 3, 3]
000000 2c 45 13 be b6 01 e9 3d 86 f1 54 3e 3d 8f e5 3c
       -0.14381856 0.113772795 0.20795259 0.028022403
000010 bd 7c 00 3d ab 6c 86 3e bc da 50 3e 96 71 63 3e
       0.03136896 0.26254782 0.2039594 0.22211298
000020 76 37 8a 3e 83 a0 47 3e 86 73 2d 3e 0e 76 a4 be
       0.26995438 0.19494824 0.169386 -0.3212132
000030 1e f2 41 be a2 d3 8e 3e c2 e9 a7 be 8b 1e 08 3d
       -0.18940017 0.27895838 -0.3279553 0.033232253
000040 56 de f7 bc 5e 30 20 3e 53 fa 19 3e 48 2d 29 be
       -0.030257385 0.1564345 0.15036897 -0.1652118
000050 0a c9 a5 be 16 24 a9 3d 33 98 4f 3e 0b dc 06 bd
       -0.32379943 0.08258836 0.20272903 -0.032924693
000060 e6 21 2f 3e f4 ad 86 be 2e fd 5c be
       0.17102775 -0.2630459 -0.21580955

net1.0.bias f4 [3]
000000 b0 68 34 3e 06 1a 6b be b3 84 21 be
       0.1761806 -0.22959146 -0.15773277

net1.2.weight f4 [3, 3, 2, 2]
000000 a6 af bd bd be 14 5b bd 6c f4 13 3e c8 71 8f be
       -0.09262018 -0.05348658 0.14448708 -0.28016496
000010 b5 b6 50 3e 7a 9c 2f 3e a6 10 11 3e ee 35 b6 3d
       0.20382197 0.17149535 0.14166507 0.08897005
000020 5c f4 c6 3d 6e 31 69 be fa cb bf 3d 56 39 60 3e
       0.097145766 -0.22772762 0.09365077 0.21896872
000030 fe e1 83 be b2 ba d9 3d 5d 29 80 3e b8 89 69 3e
       -0.25758356 0.106313124 0.25031558 0.22806442
000040 29 34 19 3e 82 42 d2 bc 15 bd 82 be 1c 04 87 be
       0.14961304 -0.025666479 -0.25534883 -0.26370323
000050 b2 8c 90 3e 83 9c 29 be 1f e7 1b 3e d0 0c b5 bb
       0.28232342 -0.1656361 0.15224884 -0.005525209
000060 d9 58 be bd 6a 56 35 be ea 0a 16 3e f2 a0 8f 3e
       -0.0929429 -0.17708746 0.14652601 0.2805248
000070 55 61 29 be d7 96 6d bd 7a 1a 90 be a0 a7 89 be
       -0.16541035 -0.05800518 -0.281452 -0.268857
000080 4b 30 2a 3e fc 75 6c 3e d9 26 51 3d 13 e2 92 3e
       0.16619985 0.23091882 0.05106244 0.28688106

net1.2.bias f4 [3]
000000 9b 39 11 bd b3 ba a1 bd f0 1f 27 be
       -0.035455327 -0.07896938 -0.16320777

net1.4.weight f4 [1, 3, 2, 2]
000000 a3 62 3d 3e c9 a2 26 3e 82 5e 1c 3d d4 06 19 be
       0.18494658 0.16273035 0.038176067 -0.14944011
000010 4d b2 8a 3e 2f 65 d7 3d 6d b5 db 3d dd 5f cb 3b
       0.27089158 0.10517346 0.107279636 0.006206496
000020 4a 8b d0 3d d2 e8 4d 3e 19 5a 43 be 8a d7 87 bc
       0.10182817 0.20108345 -0.19077338 -0.01658227

net2.0.weight f4 [256, 196]
000000 ab db 80 3d 25 7c 43 bb 05 90 73 bd ca 82 4c 3d
       0.06291898 -0.0029828635 -0.05946352 0.049929418
000010 c0 ce a3 bc ce a3 91 3c 5c 0b c6 3b 13 51 0a bd
       -0.019996047 0.017778303 0.0060438346 -0.033768725
000020 70 5b 0f bd 17 f1 59 bd c7 76 15 3d dc cd 49 3b
       -0.03499931 -0.053208437 0.036490228 0.0030792868
000030 9a 10 5f bd 4e a2 fb 3c 78 b9 77 3d 4f 27 92 bd
       -0.05445919 0.030717041 0.06047961 -0.07136404
000040 37 27 93 bc 37 74 85 bd 81 ef e3 3c 37 83 2b bc
       -0.017963035 -0.06516307 0.027824165 -0.010468296
000050 3e 17 65 bd 88 ee 6a 3d 2c c1 39 3d 4a ed 14 bd
       -0.05593037 0.057356387 0.04535024 -0.03635911
000060 a5 c0 5a bd 11 96 2c 3d dc 1d 47 bc 5e 16 8b bd
       -0.053406376 0.042135302 -0.012153115 -0.067913756
000070 73 11 25 bd ee 1c 4e bd 81 18 4f 3d 93 71 70 3c
       -0.040299844 -0.05032056 0.050560478 0.014675516
000080 e3 82 65 bd e8 e9 75 3d 1c 54 23 3d a5 3f 98 3b
       -0.056033026 0.060037524 0.039875135 0.004646259
000090 b7 00 0b bd b7 26 34 bc d3 8c 96 bc d8 f2 ec bc
       -0.03393623 -0.010995558 -0.018377697 -0.02892439
0000a0 c1 a1 5e bd 6a ed 8e bc ac ae 7b bd 16 b4 8c bd
       -0.05435348 -0.017447192 -0.061445877 -0.06870286
0000b0 33 bc 5c 3d 4a b1 33 3b 6c aa 74 bd 03 69 85 bd
       0.05389042 0.0027418905 -0.05973284 -0.0651417
0000c0 bc e1 1c bd 37 63 ac 3c d7 10 09 bd 84 2b 82 bd
       -0.038301215 0.021043403 -0.033463325 -0.06355956
0000d0 dc e5 b9 3c 17 63 94 bc 1c d0 05 bd 21 d0 ad 3c
       0.022692613 -0.018113656 -0.03266917 0.021217408
0000e0 a5 19 b0 3c 1c d0 f9 bc 95 26 62 3d ea 4b 75 3d
       0.021496603 -0.030494742 0.055212576 0.05988685
0000f0 93 41 0f 3c d3 d8 9c 3c 7c a5 90 bd a8 39 61 bd
       0.008743661 0.019146359 -0.07062814 -0.054986626
000100 47 4d 38 3d b8 3e 65 bd 0a 9f f0 bc 81 26 e8 3b
       0.044995572 -0.055968016 -0.02937271 0.007084668
000110 71 c7 34 bd 6e c4 ca 3c 85 e8 57 bd 80 bb 21 bd
       -0.044135515 0.024751868 -0.052711982 -0.039485455
000120 21 ea c9 bc da 87 2f bd a7 8f 34 bd e5 3f 5c bc
       -0.024647774 -0.042854168 -0.04408231 -0.013442968
000130 da 13 57 bd 61 14 f3 3c f3 35 5e bd 85 9c c6 bc
       -0.052509166 0.029672803 -0.05425067 -0.024244556
000140 17 e5 8f bc bc ee af 3c 55 6e 83 3d 6c 6e 60 3d
       -0.017565293 0.021476142 0.064175285 0.054792807
000150 62 01 92 3d c5 ea 32 3d 85 2b c0 bc 13 6a ad 3c
       0.0712917 0.043680925 -0.023458252 0.021168744
000160 a5 5a 7d bc ba 07 17 3d b7 9f a5 bc cc a6 7e bd
       -0.015463506 0.036872603 -0.02021776 -0.06217079
000170 de b8 59 bd 25 83 2b bd 75 7b 85 3d bc c3 65 bd
       -0.05315482 -0.041873116 0.06517688 -0.05609487
000180 ca 49 b1 bb fc 02 ff bc b5 cb 0d bd 3c 4d bb 3c
       -0.0054104077 -0.031129353 -0.0346181 0.022863977
000190 f4 a1 8e bd 1c 0a ff 3c dc 4d dd bc 45 df e8 3c
       -0.06964484 0.03113275 -0.027014665 0.028426776
0001a0 f5 0e 3d bd 9a eb 6f 3d 35 0d 05 bd 45 87 6e bd
       -0.046156842 0.058574297 -0.0324833 -0.05823447
0001b0 da cd 66 bd 2e f3 21 3c d4 51 89 bd 55 9d 7e 3d
       -0.05634866 0.009884639 -0.067050606 0.062161762
0001c0 93 e9 68 bb 1a cc 26 3d b8 51 6f 3c 00 98 07 3c
       -0.0035539612 0.04072199 0.014606886 0.008275986
0001d0 9e b7 2f 3d 4a aa 13 3a ae ea 13 3d 4e 9c 86 bd
       0.04289972 0.000563298 0.03611248 -0.065727815
0001e0 41 38 f0 3c f7 8a 9b 3c 1c 44 1c 3c 8d f5 83 bd
       0.029323699 0.018987162 0.009537723 -0.064433195
0001f0 e5 96 aa bc 6e db a7 ba 22 44 8b 3d 93 fc a8 bc
       -0.020823905 -0.0012806484 0.06800105 -0.02062825
000200 7c 77 36 3d e8 ab 8d 3d d6 c8 87 bd 9a ec 3e 3d
       0.044547543 0.06917554 -0.06630103 0.04661236
000210 47 1a 27 bd bd 73 91 bd 9a 50 3c 3d 43 c8 36 bd
       -0.040796544 -0.071021535 0.045975305 -0.04462458
000220 01 49 e9 3b 93 ea ef 3a 25 c6 d9 bb 3e 2a 4c 3d
       0.0071192984 0.0018304161 -0.006645935 0.049844973
000230 4a 8c 7f bc a8 04 89 bd 01 31 2c 3b 37 dc d0 3b
       -0.015597412 -0.06690341 0.0026274326 0.006373908
000240 dc 6b 26 bc ca 48 6a bd 4e ad 78 3d b7 85 c1 3a
       -0.010157552 -0.057198323 0.06071215 0.0014764582
000250 6e 41 db bb 05 14 5b 3d a1 df 52 bd c8 cd 5c bd
       -0.0066911494 0.05348589 -0.0514828 -0.053907186
000260 17 b2 d3 bc 07 5f 2e bd 25 f2 60 bb 27 55 4b bd
       -0.025841756 -0.042571094 -0.0034324017 -0.049641754
000270 1c 78 2e 3c e5 23 58 3d ce 1b f0 bc 17 90 2d 3d
       0.0106487535 0.052768607 -0.029310133 0.042373743
000280 b3 33 86 3c 77 67 27 bc ee 79 0d bd e7 ae 4d bd
       0.016382074 -0.010217539 -0.03454011 -0.050215628
000290 13 28 89 bc 83 9a 14 bd 5a 3c 15 3d 97 c2 12 3d
       -0.016742742 -0.036280166 0.03643451 0.035830107
0002a0 ae 67 5d bc 0e b5 8d bc 0a 59 60 3d 93 eb ca 3b
       -0.013513489 -0.017298248 0.054772414 0.0061926334
0002b0 8a 5f 06 3d 53 66 29 bc a3 61 20 3d 33 17 9e bc
       0.032805957 -0.010339337 0.039155614 -0.019298172
0002c0 2c 4a 0b 3d 9e 12 4f 3d 3c aa fe bc 18 ff ed 3c
       0.034006283 0.050554864 -0.031087033 0.029052302
0002d0 c3 77 3c 3d 5c 2e ca bc 17 87 9c 3c 2a cd 8a 3d
       0.04601265 -0.024680309 0.019107385 0.06777413
0002e0 d3 87 17 3d d7 5e b6 3c 4a 20 ee 3a 2e d7 79 bd
       0.036994766 0.02226202 0.0018167582 -0.060996227
0002f0 2e 7c 0a 3d ae 7c 43 3c 7c 59 65 bd 25 d9 ab b9
       0.033809833 0.011931581 -0.055993542 -0.00032777447
000300 5c 44 8b bc 2e ab 45 bd 45 de cd bc 9c 71 76 bc
       -0.01700037 -0.048258953 -0.0251304 -0.015041735
000310 4c a3 09 bd 45 b9 3a 3d b5 08 10 bd 37 9c 9a 3c
       -0.033602998 0.045586843 -0.035164554 0.018873317
000320 4a 67 59 3d c5 b5 8a bd e1 88 50 bd 00 db 83 3c
       0.05307702 -0.06772951 -0.050911788 0.016095638
000330 f3 58 81 bc f2 bb 86 bd d3 18 b7 bc 0e f1 fc 3c
       -0.015789485 -0.065788165 -0.022350704 0.030876663
000340 3b 6a 84 3d 00 03 9b bb 8e ba e3 3c 23 3b 43 3d
       0.06465574 -0.0047305822 0.027798917 0.04766382
000350 83 02 73 3d e7 9e 53 3d c3 22 71 3d ea c4 16 3d
       0.059328567 0.051665213 0.058871042 0.036808886
000360 1a d7 72 3d dc e3 15 bc b8 13 e6 bc d8 21 62 bd
       0.059287168 -0.009148564 -0.028085575 -0.055208057
000370 45 bc 6f bd b7 67 09 3c ca 5b 8e 3d 53 fe a1 bc
       -0.058529157 0.008386544 0.06951101 -0.019774592
000380 21 c0 e1 3c 93 38 7d bc 45 d1 b0 bc f5 87 55 3d
       0.027557435 -0.015455383 -0.021584162 0.05213161
000390 6e b4 02 3c 9e b9 00 3d b7 ff 8a bb 9e 30 3e bd
       0.007977588 0.03142702 -0.0042419094 -0.046433084
0003a0 ea c9 ff 3c dc 5f 02 bd 25 c7 dc bc 2a b8 61 bd
       0.03122421 -0.0318297 -0.026950428 -0.055107273
0003b0 6e f7 44 3b ae bb bd 3c e3 c0 28 3d 65 46 3c 3c
       0.0030054706 0.023160782 0.041199576 0.011491393
0003c0 ae dc 75 3d 12 85 83 bd a5 a0 d6 3b 93 55 58 3c
       0.06002491 -0.064218655 0.006549912 0.013203996
0003d0 25 fd 09 3c d3 df a4 3c 15 66 66 bd 20 cb 95 3c
       0.008422171 0.020126259 -0.056249697 0.018285334
0003e0 b0 1a 26 3d ca c8 92 3c dc 63 51 bc 01 94 b0 ba
       0.040552795 0.01791801 -0.012780156 -0.0013471843
0003f0 85 86 4e bd 46 91 91 bd ce 40 b8 3c fc ff 51 bd
       -0.050421257 -0.07107787 0.022491839 -0.051269516

net2.0.bias f4 [256]
000000 6a 4b 7d bd 08 44 74 bd 88 af 52 3d e7 ca e7 bc
       -0.0618395 -0.059635192 0.05143693 -0.028294994
000010 dc 0b 40 bd db 8a 83 3a c1 fd 69 3d 63 b8 7a bd
       -0.04688631 0.0010035889 0.057126764 -0.061211
000020 32 f4 93 3c 8a 83 6a 3c 4e 46 54 bd 5a 8b 85 3d
       0.018060777 0.014313588 -0.05182486 0.0652072
000030 a1 5e e4 3c 6e 94 c1 bb 05 7d 91 3c 65 42 09 3c
       0.027877154 -0.005907587 0.01775981 0.008377646
000040 42 ea 6a 3d 1d 26 4b 3d 82 1c 81 3b 0e 7d e1 bc
       0.057352312 0.049596895 0.003940166 -0.027525451
000050 91 65 31 bd e2 a7 6a 3d dc 55 6d 3d 4e 7a 83 bc
       -0.043309752 0.05728901 0.05794321 -0.01604953
000060 0a 39 50 bc 6a 0d ec bc 73 e7 87 3d 13 3f 25 bd
       -0.012708912 -0.02881499 0.06635942 -0.040343355
000070 0e 7d af 3b 83 71 91 3d 7f d5 8f bc c9 fe b2 3d
       0.005355484 0.07101729 -0.017557858 0.08740003
000080 07 66 29 3d 16 4d 6a bd 46 dd de bc 45 53 f2 3c
       0.041357066 -0.05720242 -0.02720512 0.029580722
000090 4a 2d 41 3d 57 53 48 bd d5 9f 34 3d 4d 78 81 bd
       0.04716233 -0.048907604 0.04409774 -0.06321774
0000a0 14 e3 78 3c 13 62 81 3d 4a a9 52 3d 8e 97 fd bc
       0.015190858 0.06317534 0.051430978 -0.030956056
0000b0 09 6a 2c bc e3 97 59 bd 6a 80 c2 bc a1 68 d9 bc
       -0.010523328 -0.053123366 -0.023742873 -0.026539149
0000c0 a8 30 60 3d 4a 60 a6 ba be 91 31 3c f7 27 05 bd
       0.054733902 -0.0012693491 0.01083797 -0.032508817
0000d0 d0 36 08 3d 77 58 f2 3c 35 b9 42 3d 8b 09 8e 3d
       0.0332554 0.029583199 0.04753991 0.06935414
0000e0 f1 c5 35 bd 83 f6 a0 bb 4e fa 03 39 1d f5 85 3d
       -0.044378225 -0.004912199 0.0001258638 0.06540892
0000f0 13 2c fd 3b ce a6 53 3d f1 19 28 bb 18 26 c8 bc
       0.0077262013 0.05167275 -0.0025650228 -0.024432227
000100 a9 69 35 bd a3 2c 66 bd e6 d8 6d 3d 66 e7 ec 3c
       -0.04429022 -0.056194913 0.05806818 0.028918933
000110 3e ab 52 bc aa 46 60 3d 76 9e 79 3d a7 34 20 bd
       -0.01285821 0.05475489 0.060942136 -0.039112713
000120 91 ee 8f 3d c1 1f 63 bd ab 5d 98 3d dd 0d 71 3d
       0.07027925 -0.055450205 0.07439741 0.05885111
000130 40 5b 1a bc 31 3a df bc 7f 97 9a 3d 4f 73 f8 bc
       -0.00942117 -0.027249428 0.07548427 -0.03032842
000140 43 e3 1c bd 0b 3f 84 bd 57 b3 5a 3d 85 ad 77 3d
       -0.03830267 -0.06457337 0.053393688 0.060468215
000150 48 88 62 bd c5 a3 9f 3c e3 0b 92 bd 02 32 ea bc
       -0.05530575 0.019487271 -0.071311735 -0.028588299
000160 98 3e 06 bd d1 9f 73 3d ae cb fd bb e8 a3 89 3d
       -0.032774538 0.059478585 -0.007745228 0.06720716
000170 42 33 06 bd 01 23 f6 bb b5 81 00 3d 5d 51 c2 bb
       -0.032763727 -0.007511497 0.0313737 -0.0059301094
000180 6f d0 07 3c f8 55 84 bd 91 3a bb bc a5 53 71 3d
       0.008289441 -0.0646171 -0.022855075 0.05891766
000190 73 28 20 3d 0e 44 f8 bc 36 d0 bc 3c bf b0 d7 3c
       0.039101075 -0.030305889 0.023048501 0.026329396
0001a0 55 51 27 3d 7d d5 a2 bc 4e 01 01 bc 8e 82 5e bd
       0.04084905 -0.01987719 -0.007873846 -0.054323725
0001b0 aa 91 1b 3d cf 1a 19 3d b5 a9 08 bd 55 61 a8 3c
       0.037980713 0.037379082 -0.03336497 0.020554224
0001c0 6e 71 eb bc b5 4e 72 bd bb b4 57 bd 05 91 08 3d
       -0.02874061 -0.059157092 -0.052662592 0.033341426
0001d0 53 82 e8 3c a3 5c 7b bc e6 b8 3d bd cb 4f 95 3c
       0.028382456 -0.0153419105 -0.04631891 0.018226525
0001e0 dd 4a 24 bd 33 23 81 3c 6c 30 90 bd 7e 10 73 bd
       -0.040110458 0.015763855 -0.07040486 -0.0593419
0001f0 3c 59 e3 3c bd c1 3f 3d 05 95 f5 bc dc 56 ae ba
       0.027752511 0.046815623 -0.029978285 -0.0013301033
000200 1c b2 38 3d 37 21 80 3d fc 5d ba bc a5 59 bb 3b
       0.045091733 0.06256335 -0.022749893 0.0057174736
000210 05 d4 14 3d 0e 1e b6 3c b2 43 90 3c dd c3 91 bd
       0.03633501 0.022231128 0.017610405 -0.07117436
000220 65 d4 a4 bc 80 fb 86 3c 8e 6e 4f bd 1b 66 54 3d
       -0.020120809 0.016477346 -0.050642543 0.051855188
000230 6d 80 c6 bc b6 b2 09 3c 38 a1 64 bd 37 58 19 3d
       -0.02423116 0.008404424 -0.055817813 0.037437644
000240 ce a1 f9 bc b4 86 2d bd a9 2c 48 3b ea 94 79 bd
       -0.030472662 -0.04236479 0.0030544198 -0.06093303
000250 50 22 dd 3c 15 4b 16 bd 54 33 a6 3c f5 d3 79 ba
       0.0269939 -0.036692698 0.020288147 -0.000953018
000260 6e 29 95 ba 75 ff 7a 3d 8a de da 3c 2c 7a e0 bc
       -0.0011380145 0.06127878 0.026717443 -0.027402006
000270 e3 62 39 3d e3 dc 77 3d 5b ef 0c bd cc c7 6f 3c
       0.04526032 0.06051339 -0.034407955 0.014635038
000280 6e ff 3c 3c d5 6c bd 3c 51 3e 6e 3d 9d 4b 79 3d
       0.011535509 0.023123184 0.0581649 0.060863126
000290 ee cb 82 3b 85 71 67 3d 98 d8 4d 3d 9c 97 66 3d
       0.0039915955 0.056504745 0.050255388 0.05629693
0002a0 85 9d b9 bc d0 27 f8 bc b8 39 2b 3d 20 ec 4e bc
       -0.022658119 -0.030292422 0.04180309 -0.012629539
0002b0 00 ee 8b bd 6e 32 87 3c fb 11 53 3c fe ac 6c bd
       -0.06832504 0.016503539 0.012882705 -0.057782166
0002c0 3b 4d 4a bd 74 66 15 bd 0d 06 aa bc 6c d8 b0 3b
       -0.04939006 -0.03647466 -0.020754838 0.0053968932
0002d0 d2 e5 14 3d f1 c6 aa 3d 2e d6 a0 3c 64 27 be bc
       0.036351986 0.08338726 0.019633379 -0.023212142
0002e0 b3 0e 2e bc d7 77 86 3d 85 d1 d8 3c 54 ba 42 bd
       -0.010623622 0.065658264 0.026467094 -0.047540978
0002f0 ee e2 d3 3b b3 c7 85 ba 0c 88 1e 3d ee 95 1a bd
       0.006466261 -0.001020661 0.038703963 -0.03774064
000300 00 39 82 3d 48 9a 61 3d 84 d7 15 3d 5e 5c 29 3c
       0.06358528 0.055078775 0.036582485 0.010336963
000310 e5 b7 a9 bc 20 71 68 3d 8a fb cf 3c 9e 26 5d 3d
       -0.02071757 0.05674851 0.025388498 0.053991906
000320 8a ab cb 3c 67 09 82 3d c5 f4 21 bd df 6a b6 3c
       0.02486207 0.063494496 -0.03954007 0.022267757
000330 e8 ae 29 3d f0 23 47 bd 5c bc 82 bd 70 01 ea bc
       0.04142657 -0.048618257 -0.06383583 -0.028565139
000340 b5 29 2a 3d 8e b9 81 3c f3 17 ea 3c 5e df 0d 3c
       0.04154368 0.01583555 0.028575873 0.008659212
000350 c7 0c 15 3c ac 9d 6e 3d b2 94 f5 3b 97 3d 5b 3d
       0.009097285 0.058255836 0.0074945325 0.053525534
000360 9a 17 64 3d 0a f4 7a bd 79 58 85 bd 82 98 89 3d
       0.05568657 -0.06126789 -0.065110154 0.06718542
000370 b3 f4 b2 3c 5b b7 89 bd fe df 36 bd 23 27 3a bd
       0.021845197 -0.067244254 -0.04464721 -0.04544748
000380 1d 76 83 bd c9 34 8a 3d b2 97 84 bd 1c fd 4b 3d
       -0.06419013 0.06748349 -0.06474246 0.04980193
000390 fc 13 5c 3d ea 80 5b bd ee 92 1f bd d0 48 3b 3c
       0.053729996 -0.05358974 -0.038958482 0.011430934
0003a0 e3 00 67 bd e4 dc a5 bc 0a ce 2a bd d8 f4 21 bb
       -0.05639733 -0.02024693 -0.0417004 -0.0024712589
0003b0 7a 91 7f bd 50 a1 1c bd 4e b6 8f 3c 57 e2 7c 3d
       -0.062394597 -0.038239777 0.017542984 0.061739292
0003c0 7b 6a fa bb fb 92 bf 3c 9c 4e 69 bd ea 22 12 3d
       -0.007642088 0.023385515 -0.056959733 0.035677828
0003d0 5c 8f 1c bc 7e 56 cc 3c 2e ee 70 bc 19 1f 2f 3d
       -0.009555664 0.024943586 -0.014705224 0.042754266
0003e0 2b df 16 3d 5d de 94 3d 81 ae 4f 3c 8e 5b ba bc
       0.036833923 0.07268975 0.012675882 -0.022748735
0003f0 90 27 1d 3d 37 51 59 bd b3 26 50 3d 7d 5a 1f 3d
       0.038367808 -0.053055968 0.050818156 0.038904656

net2.2.weight f4 [256, 256]
000000 7a 95 2e bd 12 e4 08 3d 8e a9 3d 3d 91 0e b3 3c
       -0.04262302 0.03342063 0.046304278 0.021857532
000010 f3 09 30 bd d1 eb a7 3c 88 21 a9 3c 14 4c 69 bd
       -0.04297824 0.020498188 0.020645872 -0.05695732
000020 b7 b2 37 3d 92 a9 1a 3d 8a f4 05 3d 30 d1 2d 3d
       0.04484817 0.03775937 0.032703914 0.042435825
000030 0c 72 83 3c 30 ca db bc 72 4c 1d bd 83 13 c4 3c
       0.016045593 -0.026829809 -0.038402982 0.023935085
000040 3f 5f 27 bd f9 cf 98 3c 6a 7e 8b bc 26 cf 96 3b
       -0.040862318 0.018653857 -0.017028052 0.0046023307
000050 60 3b ef bc 5b 98 08 3d 08 77 63 3d 38 43 3c 3d
       -0.029203117 0.033348422 0.05553344 0.045962542
000060 76 68 28 bd 97 58 d6 3d 60 ad 95 3b 64 80 49 bd
       -0.041115247 0.10466116 0.004567787 -0.04919471
000070 4c f8 42 3d 76 d9 24 3d dc 37 95 bc 08 b6 ae bd
       0.047600076 0.04024645 -0.018215112 -0.085308135
000080 83 67 41 3d cb ab 7e bc 7c c8 18 bd e7 71 29 bd
       0.047217857 -0.015543888 -0.03730057 -0.04136839
000090 38 e0 7d bc 2c 6f d3 bc 68 2d 0a 3d 09 50 85 bc
       -0.015495352 -0.025809847 0.03373471 -0.016273515
0000a0 12 3c bc 3b 23 09 e9 bc ad 1b 33 3d 50 04 39 3d
       0.0057444656 -0.02844674 0.043727566 0.04517013
0000b0 ba 04 0d 3d a0 f2 28 bd 60 fa 57 3d f8 59 d5 3c
       0.034428336 -0.04124701 0.05272901 0.026043877
0000c0 8e 0e 6a bd bc d3 ac bc 40 e5 41 bd 7c 01 b6 3d
       -0.057142787 -0.021097057 -0.04733777 0.08887002
0000d0 65 35 49 bd 4c 2c 4b bb 40 8e d1 3d 28 1b 98 bc
       -0.049123187 -0.0031001745 0.1023221 -0.018567637
0000e0 80 c0 42 3d d8 86 63 3d 29 ef 5d 3c 3a 88 21 bd
       0.047546864 0.05554852 0.01354579 -0.039436556
0000f0 4c 11 1a 3d 04 62 8c bc 46 fe 1a 3c 6f 02 d1 bc
       0.03761415 -0.017136581 0.009460038 -0.025513856
000100 c3 99 14 3e 56 ac 55 3d 5d bb 19 3c f9 06 f0 b9
       0.1451178 0.052166305 0.00938305 -0.00045781562
000110 c9 f0 eb 3d 4c 71 83 3c 9f 53 c2 3c a4 7c 3a 3d
       0.115205355 0.016045235 0.023721514 0.045529023
000120 5a e5 20 bd ac 2c 78 bd f4 94 25 bd 68 e8 74 3d
       -0.039281227 -0.060589477 -0.040425256 0.059791952
000130 18 5e 7b 3c c0 b1 db 3c bf 0f 89 3c e2 f6 81 3d
       0.015342258 0.026818156 0.016731141 0.06345917
000140 12 89 d6 3c 80 57 66 3d 40 7b ca 3b 3c 1c 8a bd
       0.026188407 0.05623579 0.0061792433 -0.067436665
000150 59 67 82 bc 50 09 c2 3b 8e d8 30 bd 54 70 7d bd
       -0.01591842 0.0059215203 -0.043175273 -0.061874703
000160 3a ed 11 3d a4 41 8d bc 2a 81 54 3d d0 d1 27 3d
       0.035626628 -0.017243214 0.051880993 0.040971577
000170 d8 49 8d 3c f0 b6 8f 3c 46 99 ed bc 05 78 77 bd
       0.017247126 0.017543286 -0.02900375 -0.060417194
000180 c7 ed b8 3c 10 28 c0 3b 8b af 87 bc cf c7 9b bc
       0.022574319 0.005864151 -0.016563198 -0.019016175
000190 c8 c3 66 3c 70 89 ae 3b 9c 1f 38 bd 35 cc d4 3c
       0.014084764 0.0053264424 -0.04495202 0.02597628
0001a0 3c b3 2f 3d b0 34 52 3d 54 3f 0b 3c 0a 26 57 bd
       0.04289554 0.051319778 0.008498985 -0.05252651
0001b0 c4 61 b9 bc 5a 64 30 3d e2 f5 1a bd 0d 38 e7 bc
       -0.022629626 0.043064453 -0.03783215 -0.02822497
0001c0 40 01 b2 3b 9a 94 7f 3d 87 7e 46 bd 58 b8 35 bd
       0.005432278 0.062397577 -0.04846051 -0.044365257
0001d0 b0 ee a0 3b ab 6d 59 3d ce 47 9b 3d 3f d5 fa 3d
       0.0049112663 0.053083103 0.07582055 0.12247705
0001e0 ce 88 8b 3c be 80 e7 3c 25 06 43 3d 70 1c fe 3b
       0.017033007 0.028259631 0.04761328 0.007754855
0001f0 c4 99 3c bd d9 4c 17 3b 50 00 fb bb a8 b4 76 3c
       -0.04604508 0.0023086576 -0.0076599494 0.01505772
000200 d8 ca 90 3c b2 d6 d4 3c d8 5f 24 3c 54 f5 a0 bc
       0.017674848 0.025981281 0.010032617 -0.019648232
000210 d9 94 1d 3d 20 16 21 bc d2 d9 ca bc 88 cf d8 bc
       0.03847203 -0.009831935 -0.024762068 -0.026466146
000220 c4 eb 51 bd ed 9d 81 3d e6 e3 66 3d 06 92 26 3d
       -0.051250234 0.0632895 0.056369685 0.040666603
000230 b6 21 ac ba de 89 15 bd a2 8c 61 3d 08 cc 5a bc
       -0.0013132605 -0.036508434 0.05506576 -0.013354309
000240 80 50 0a 3a 1d 14 2b bd a5 71 bb 3d 06 40 69 3d
       0.00052762777 -0.04176723 0.09152535 0.056945823
000250 3e a1 58 3d 84 cd ef bc f3 13 75 3d 38 6e e9 b9
       0.052888148 -0.029272802 0.05983348 -0.00044523343
000260 fc bf 05 bd ec f3 83 bc f4 4b d1 3c 0b 33 d6 3b
       -0.032653794 -0.016107522 0.025548913 0.0065368465
000270 16 cd 10 3c 6b 8e 00 bd dc 13 8a bb aa 4b a9 3d
       0.008837959 -0.03138582 -0.004213793 0.08266385
000280 50 50 a7 bb 73 57 84 3d 00 42 88 3b 2a 60 9f bd
       -0.0051060095 0.06461992 0.0041582584 -0.07782014
000290 10 2f ea 3b 28 8b 45 3c df 1a 91 3d 14 85 7b 3d
       0.0071467236 0.012057103 0.070852034 0.06140621
0002a0 1c 2c 91 bc e6 5f 55 bd 2b f5 77 3b 4d 69 42 3d
       -0.017721228 -0.05209341 0.003783534 0.047463704
0002b0 04 c7 9f bc b0 11 cb 3b 15 4f 51 bd f0 88 af 3c
       -0.019504078 0.006197177 -0.05110081 0.021427602
0002c0 a5 07 19 3c 75 4b 58 3d 14 80 47 3d a2 ea 83 bd
       0.0093402015 0.052806336 0.04870613 -0.06441237
0002d0 a8 45 bc bc d7 ca a3 3c 28 db a3 3d 9e 4c 93 bb
       -0.022982433 0.019994183 0.08000785 -0.0044952175
0002e0 47 52 da bc b4 a3 8d bc 10 10 1a 3c 21 c0 78 ba
       -0.026650561 -0.017289974 0.009403244 -0.00094890787
0002f0 7a 7a 1f 3d f5 00 fc 3d f0 e8 d4 bb b8 8d 07 3d
       0.038935162 0.1230487 -0.006497495 0.033094138
000300 38 5e 55 3d 98 76 60 3c 54 c7 30 3d 37 f6 89 3c
       0.052091807 0.01370015 0.043158844 0.016841037
000310 26 61 23 bd 4b b3 b3 3c 9b 77 82 bc 77 c5 f9 3d
       -0.03988757 0.02193608 -0.015926173 0.121958666
000320 39 e5 13 3d 34 9e 2c 3d de 75 17 3d 7d c3 90 3d
       0.036107276 0.04214306 0.03697764 0.070685364
000330 8a 93 d1 3c 93 c2 98 3d 11 81 9c 3d 45 91 8f 3a
       0.025583047 0.07458987 0.07641805 0.0010953328
000340 54 b8 84 3c ae 39 1c bd a2 66 1c 3d 90 09 0f 3d
       0.016201176 -0.038140945 0.038183816 0.03492123
000350 a4 ac ca 3d 00 45 39 bc 6e d0 51 bd 2a 52 53 3d
       0.0989621 -0.011307955 -0.051224165 0.05159203
000360 06 b4 7f 3d 20 36 36 3d ab 27 8b 3d 80 c6 17 3d
       0.062427543 0.04448521 0.067946754 0.03705454
000370 10 ba 21 bd 1c 0e f0 3c 5c 50 b0 3c 00 51 bc b9
       -0.039484084 0.029303603 0.021522693 -0.00035918504
000380 18 ff d7 3c 97 b7 1e 3d 56 7f 26 3d 12 f2 5f 3d
       0.026366755 0.038749304 0.04064878 0.054674216
000390 b2 31 77 3d 02 47 06 bd f2 54 79 bd cb 93 0e 3d
       0.060350128 -0.032782562 -0.060872026 0.034808915
0003a0 3e 20 2e 3d a9 f1 c5 3c e0 b8 01 3e 39 03 00 bd
       0.042511217 0.024163084 0.1266818 -0.031253073
0003b0 7e 33 30 bd 90 5d 64 3d 2a 1e 71 3c 2f ef fa 3c
       -0.043017857 0.05575329 0.014716664 0.03063163
0003c0 64 07 1a bc fd df 3b 3d c0 14 9b 3a 20 72 f2 3c
       -0.009401176 0.04586791 0.0011831746 0.029595435
0003d0 0c 83 42 bd d7 3c 3f 3d f8 70 45 bc b5 d5 76 bd
       -0.047488257 0.04668888 -0.01205086 -0.0602624
0003e0 87 78 e9 3c 25 43 3f 3d 2e 0f 4a 3d 30 d7 86 3b
       0.028499855 0.046694893 0.049330883 0.004115008
0003f0 6c ef 5c bd 5a e0 38 3d 14 f1 55 3c 07 dc 17 bc
       -0.053939268 0.045135833 0.013057966 -0.009268767

net2.2.bias f4 [256]
000000 a4 da 52 3c 5d a3 cf 3c 73 cc 05 bd 66 7a be 3c
       0.012869511 0.025346452 -0.03266568 0.023251723
000010 d9 2c f3 bc 86 46 2c 3d 62 ca 82 3d 70 87 fb bb
       -0.029684471 0.042059444 0.06386258 -0.0076760575
000020 60 92 9a bb 5c 88 aa bc 9b 48 2a 3d 33 ef e1 3c
       -0.0047171563 -0.020816974 0.04157315 0.02757988
000030 f2 a3 23 bd 15 f9 31 bd ab 10 4c 3d dc 4a 10 bd
       -0.039951272 -0.043450434 0.049820583 -0.03522764
000040 24 eb e7 bc 0f bb 41 3d 50 3e 38 bd a2 09 3e bd
       -0.028310366 0.047297534 -0.0449813 -0.046395905
000050 75 6e 42 3d 8a f4 17 bd 98 a7 5a bd c2 73 49 3d
       0.04746862 -0.037098445 -0.053382486 0.04918266
000060 ea 01 32 bd ee ab 96 3b 64 9b 8c 3d a9 9f 9b 3c
       -0.043458857 0.0045981323 0.06865576 0.01899703
000070 87 8f 97 bc bf 62 59 3d 4e a5 10 3c 0c 7d cf 3c
       -0.018501056 0.053072687 0.008828474 0.025328182
000080 c1 7a 09 3d 74 6b c1 bc b7 c8 b6 3c 88 1a 00 3c
       0.033564333 -0.023610808 0.022312505 0.007818826
000090 47 00 69 3c 94 32 73 bd 0a 60 48 bd 3d 3c 6f 3d
       0.0142212575 -0.059374407 -0.048919715 0.058407057
0000a0 49 77 45 3d 4e 1e 3c bd 26 29 40 ba 96 90 3b bd
       0.048209462 -0.04592734 -0.00073303503 -0.045792185
0000b0 e0 81 8c 3d 4e e9 3f 3d 98 64 2c bd c2 91 28 3d
       0.06860709 0.046853356 -0.04208812 0.04115463
0000c0 0c 09 45 bd 00 c2 b4 bb 61 e7 f9 bb 96 56 30 bd
       -0.04810433 -0.0055162907 -0.0076264595 -0.043051325
0000d0 4c 1c 38 3d 45 43 56 3c 2a 17 0c 3d 51 d1 8e 3d
       0.04494886 0.013077562 0.03420178 0.06973518
0000e0 3b 85 5e bd db 6c cc 3a e8 c3 99 3d eb a6 9f 3c
       -0.054326277 0.0015596406 0.07508069 0.019488772
0000f0 d7 b2 11 3c a5 20 19 3d 6e 6e 19 3d d2 76 e4 3a
       0.008892736 0.037384648 0.03745883 0.0017430431
000100 c0 ac ee bc b9 95 a7 bc 74 db b8 bc dd 3a a5 3c
       -0.029135108 -0.020457136 -0.02256558 0.02016967
000110 8e d1 86 3d f0 6d 66 3d ad 00 f5 bb b4 e6 d4 bc
       0.06582938 0.05625719 -0.007476887 -0.025988914
000120 74 f4 3d bd 59 7a 55 bd 23 b1 34 3d 60 e7 69 bd
       -0.046375707 -0.052118633 0.044114243 -0.057105422
000130 ad 71 0b bd 71 11 0d bc 9d b2 30 3d 72 aa bb 3c
       -0.034043957 -0.008610115 0.04313909 0.022908423
000140 12 4a 35 3d 1c 82 42 3c e6 cd c3 bb ab 23 1e bd
       0.044260092 0.011871841 -0.0059754727 -0.038608234
000150 34 bd 27 3d d9 9f 62 3b 30 71 8a bc 64 4c 91 bc
       0.040951923 0.003458014 -0.016899675 -0.017736621
000160 1d 87 7b 3d 64 7b c0 3c 8b dc 67 bc 64 24 1a 3d
       0.06140815 0.023496337 -0.014151703 0.03763236
000170 dc 7c fe bc 50 86 3a 3d a0 e5 63 3b ef 9d 4d 3d
       -0.031065397 0.045538247 0.0034774318 0.050199445
000180 f5 ee a8 bc 0c 78 7b 3d a5 7a 30 bd 50 94 65 bc
       -0.020621756 0.061393782 -0.043085713 -0.014012411
000190 70 b5 7f 3c ee 4c 11 3d 7b 9e 51 3d 78 ea 66 bd
       0.015607223 0.035473756 0.05117653 -0.05637595
0001a0 dc a4 85 3d ef 80 04 bd 1e aa 6c 3c 08 eb 2c 3d
       0.06525585 -0.032349523 0.014444856 0.04221633
0001b0 14 b9 ae bc 47 38 14 bd f2 e0 ea 3c 8f 3e 2a 3d
       -0.021328487 -0.036186483 0.028671715 0.041563567
0001c0 6d 71 40 bb c7 ba 9f 3c c8 dd 72 bc a5 1e 0e 3d
       -0.0029364482 0.019498242 -0.014823385 0.034697194
0001d0 4b e3 86 3d 73 8b d1 3c d8 36 f4 bc 7d 73 6e 3d
       0.065863214 0.02557919 -0.029811308 0.058215607
0001e0 4c 79 14 3d ee c4 cf 3c 41 0f a7 3b 4c 25 42 3c
       0.03624849 0.025362458 0.005098254 0.011849713
0001f0 ea 5e 05 3d 4b 32 2c bd 00 8e b7 39 e8 8e d1 bc
       0.03256122 -0.04204015 0.00035010278 -0.025580838
000200 67 9d 7b bc 74 b5 09 bd a6 b9 4b 3d 63 0d 0f 3d
       -0.015357352 -0.033620313 0.049737595 0.034924876
000210 26 05 3b bd a7 60 dd bc 4d af 4b 3d c4 87 39 bb
       -0.045659207 -0.027023626 0.049727727 -0.0028309682
000220 18 15 39 bc 6a 5f b6 3c 8a a3 41 3d df e1 57 bc
       -0.011296533 0.022262294 0.047275104 -0.01317641
000230 36 5a 03 bd 89 eb a4 3d be 40 69 bd 5a 0c 45 bd
       -0.032068454 0.08052737 -0.05694651 -0.048107482
000240 ac c2 5d 3d 25 09 5f bd f1 cb 11 bc 4c 65 36 3d
       0.05414073 -0.05445208 -0.008898721 0.044530198
000250 2f 53 2e bd 57 7c 8f 3d 8f a3 bf bb 5c d7 38 bd
       -0.0425598 0.07006138 -0.005848355 -0.045127258
000260 d0 60 06 3d ef 1a 34 bd 03 cf 3e bc 78 f6 bf 3b
       0.03280717 -0.043971 -0.011646035 0.005858239
000270 c5 df 29 3d 8c 22 d0 38 68 c9 5f 3d 0f 2b 89 3d
       0.04147317 9.924648e-05 0.054635435 0.06697666
000280 c2 59 34 bd 98 d6 91 3c e6 6b 20 3c b8 ab 06 bd
       -0.044030912 0.017802522 0.00979135 -0.032878608
000290 ad 38 43 3d c4 cf be 3c 2f 93 80 3d 02 10 0c bd
       0.047661472 0.02329243 0.06278073 -0.034194954
0002a0 99 cb 37 bd 6a db 79 3c 0c c8 16 3d ee ea 7a bd
       -0.0448719 0.015250066 0.036811873 -0.061259203
0002b0 4c fc 09 3d e1 59 83 3c a2 6d 2b 3d 94 e3 64 bd
       0.033687875 0.016034069 0.0418526 -0.055881098
0002c0 df 0c 0d 3d c9 52 50 3d cc 7f 5d bd 22 40 1e 3d
       0.034436103 0.0508602 -0.054076955 0.03863538
0002d0 21 2e 22 bd 80 21 a6 3c 19 c7 bf bc 80 c2 b2 bc
       -0.039594773 0.020279646 -0.023410367 -0.02182126
0002e0 b0 41 2c bd c0 bb 02 bd 54 57 23 3d a4 21 a4 bc
       -0.042054832 -0.031917334 0.039878204 -0.020035572
0002f0 88 a2 6a bd 96 6e 78 bc b1 a7 65 bd d3 1c 22 bd
       -0.057283908 -0.0151630845 -0.056068126 -0.03957827
000300 c0 99 6d 3c 08 a6 80 3c 7c 62 69 bd 71 2b 9c 3b
       0.014501989 0.01570417 -0.056978688 0.004765921
000310 53 1a 68 3c 87 47 02 bd 51 09 ad bc d5 d8 45 bd
       0.014166432 -0.031806495 -0.021122606 -0.04830249
000320 1f 7d 9e 3a 18 73 d9 3b a2 8e f8 bc 6c 6b 1c bd
       0.0012091732 0.0066360347 -0.03034145 -0.038188383
000330 51 23 d4 bc 2e ed 27 bc 88 16 87 3c 57 b2 13 bd
       -0.025895746 -0.010249419 0.016490236 -0.03605875
000340 cb 28 0a bd 37 59 1e bc 61 eb 5d 3d 1a cc 37 bd
       -0.03373031 -0.009664825 0.054179553 -0.04487238
000350 da de 07 3d b4 04 b8 3c d1 4e 42 3a 0c 3a e0 bc
       0.033171512 0.02246318 0.0007412257 -0.027371429
000360 93 77 d1 bc a4 f9 3d bd 67 57 6a 3d 01 47 d7 3b
       -0.025569713 -0.046380654 0.05721226 0.0065697436
000370 ca 64 88 3c a0 44 96 bc ce 93 5b bd 80 e5 4e bd
       0.016649622 -0.01834327 -0.053607754 -0.050511837
000380 45 69 47 bd e2 21 98 bc 48 a4 5a 3c 61 f7 8a 3d
       -0.048684377 -0.018570844 0.013344832 0.06785465
000390 53 f3 4c bd bb 2b 66 3d 78 6d 21 3d a4 a5 43 bc
       -0.05003674 0.05619405 0.03941104 -0.011941347
0003a0 20 11 b3 3c 4d 7f 49 bc ce 0d 03 3d dc 14 56 bd
       0.021858752 -0.012298417 0.031995587 -0.052265987
0003b0 10 6e 5e 3d 70 4a 5c 3d 66 29 64 3d 8c 1e 53 bc
       0.054304183 0.053781927 0.055703543 -0.012885701
0003c0 bc 40 3b 3d 48 b4 39 bd 77 eb ce bb 5e 4c 35 bd
       0.045716032 -0.045337945 -0.0063146907 -0.044262283
0003d0 ed 47 22 bd 8f 14 19 3c 21 f9 63 bc cf 66 56 3d
       -0.039619375 0.00934328 -0.013914377 0.05234414
0003e0 ed 1e 30 bd 75 95 b0 bc f6 f9 43 3c 03 bd 49 bc
       -0.042998243 -0.021555642 0.011961451 -0.01231313
0003f0 07 63 da 3c f1 d0 70 3c ba 4c 05 3d cd cc fe bb
       0.026658548 0.014698253 0.032543875 -0.007775879

net2.4.weight f4 [256, 256]
000000 47 ee 6f 3d b7 95 d1 bc 85 62 f2 bc ff f0 16 3d
       0.05857685 -0.025584085 -0.029587993 0.036850926
000010 45 8e 30 bd 10 1b 8f bb f5 11 b7 3c d6 d7 42 bd
       -0.04310443 -0.00436724 0.02234743 -0.04756912
000020 41 a0 47 3d 40 ff c1 bd b1 34 54 3d c7 c8 70 3d
       0.048736814 -0.09472513 0.051808063 0.058785226
000030 98 2d 80 bc b3 e8 6e 3c 7f 4c 52 bd e4 14 4f 3d
       -0.01564674 0.014581847 -0.051342484 0.050557032
000040 07 cb 86 3d 80 5c 4e bd 98 c1 1c bc e0 f4 47 3c
       0.06581693 -0.050381184 -0.009567641 0.012204379
000050 19 32 09 3d a8 06 51 bc f2 d2 31 bd 0f 36 70 3d
       0.033495042 -0.012757935 -0.043414064 0.058645304
000060 cc 58 c6 3d 5e 0c 15 3d aa 10 3f 3d 8f a3 0b 3d
       0.096849054 0.036388747 0.04664675 0.03409153
000070 5d ee 4c 3d b3 39 b8 3c ee df 84 bd 90 c1 f5 3c
       0.05003201 0.02248845 -0.06488024 0.029999524
000080 fa 3d 83 bc c0 30 03 3b 25 0f 4c bd c8 de 39 bc
       -0.016020764 0.002001807 -0.04981913 -0.011344619
000090 86 c9 aa 3d 00 80 35 b8 c9 69 c8 bc 23 76 a1 3d
       0.08339219 -4.3272972e-05 -0.024464505 0.07883861
0000a0 12 33 91 3d d4 b8 d8 3c 36 b4 93 3d 42 56 1c 3d
       0.07089819 0.02645532 0.07212107 0.0381682
0000b0 61 1a 28 bd 69 e7 f0 3d c9 27 45 3c 3e 43 10 3d
       -0.041040782 0.11762888 0.012033411 0.035220377
0000c0 42 69 49 3c 35 d0 2a bc 59 49 4e 3d 16 0f 23 3d
       0.012293162 -0.010425617 0.05036292 0.03980931
0000d0 a1 09 29 bd 1c 0a 58 bd 7a 84 92 3c f3 9f 3c 3d
       -0.04126895 -0.052744016 0.017885435 0.046050977
0000e0 9f 5f b9 3c f9 95 b0 3d d5 62 44 bd 3f 65 1f 3d
       0.022628604 0.08622355 -0.047945816 0.038914915
0000f0 49 ad f7 3d 6b 82 64 3d 0d af 9b bc 57 94 c3 3d
       0.120935984 0.05578844 -0.01900437 0.09549778
000100 38 42 90 bc 41 9c 42 3d 1b 63 49 bd b4 2a 92 3d
       -0.0176097 0.047512297 -0.04916678 0.07137051
000110 b1 f2 85 3d 78 f5 e7 bc 1e 17 e9 3b 00 6e e6 39
       0.0654043 -0.02831529 0.0071133515 0.00043950975
000120 f5 f8 0d bd 69 0a 3f 3d 85 3e 00 bd a0 5f 42 bd
       -0.034661252 0.046640787 -0.031309623 -0.047454476
000130 02 d2 9a bd 3c 23 8a bc 06 75 c6 3a 3b 47 87 bc
       -0.07559587 -0.016862504 0.0015141077 -0.016513458
000140 92 9c 06 3d 4a d6 d2 3d eb 4b ab 3d dd 92 a2 3d
       0.03286416 0.10294779 0.083640896 0.07938168
000150 84 8e 1b 3d de f3 53 3d e4 04 ce bc 00 1a 26 3c
       0.03797771 0.05174624 -0.025148816 0.010138035
000160 9d 48 3c bd 16 3e 9a bd 88 46 5c ba ac c6 f4 bc
       -0.045967687 -0.07531373 -0.0008402844 -0.02987989
000170 18 3e 42 3d 63 02 14 bd 34 22 70 bd ed cc 51 3d
       0.0474225 -0.03613509 -0.05862637 0.051220823
000180 3d 03 a1 3c af b2 e1 3d de d0 9b 3d 7c 3c d4 3c
       0.019654864 0.11020409 0.07608198 0.025907747
000190 65 30 c9 bd c8 14 6a 3d 3d 7a 44 3c db 8f ca 3d
       -0.09823684 0.057148725 0.0119920345 0.098907195
0001a0 27 be ac bc 1d 2b 2b 3b 7e b9 e9 bc 81 99 d4 3d
       -0.021086765 0.0026118227 -0.028530832 0.10380841
0001b0 c6 5d 32 3d 6c c4 82 bc a2 90 07 bd cc e0 dc 3d
       0.04354646 -0.015962802 -0.033096917 0.10785064
0001c0 b5 cd ce 3d a9 65 3a bc 5c e6 69 3d 77 e9 2e bb
       0.10097829 -0.011376777 0.057104453 -0.002668945
0001d0 a0 99 90 3d 6e 40 52 3d e5 e8 63 bc 36 40 6a bc
       0.07060552 0.051330976 -0.013910507 -0.014297536
0001e0 1c 8f 57 bd 37 63 0a 3e 47 de 2f bc 52 46 2a 3d
       -0.052626714 0.1351441 -0.010734147 0.04157097
0001f0 e0 52 89 bb 45 3c d5 3d 68 9c b3 bc 76 58 fd bb
       -0.0041907877 0.10411886 -0.021925166 -0.0077314926
000200 62 fb a6 b9 b0 8e 78 bc 1f 3a b2 3c 6f 31 b8 3c
       -0.00031849282 -0.015170738 0.02175623 0.02248451
000210 70 23 f1 3c 11 aa 84 bd 9a 44 31 3c 66 cc ee bd
       0.029435843 -0.0647775 0.010819579 -0.1166008
000220 bc fc b8 bc 1e e6 3e 3d 5c f3 46 3d 51 b9 c4 3d
       -0.02258145 0.046606176 0.04857193 0.09605659
000230 30 f9 f9 bc 20 18 06 3d 74 34 c2 bc 04 05 92 bc
       -0.03051433 0.03273785 -0.023706652 -0.017824657
000240 d4 bc 02 bd f8 0e 4f 3c 87 43 65 3d f6 50 6a 3d
       -0.03191836 0.012637846 0.055972602 0.057206117
000250 20 c6 35 bc 4a 98 b5 ba 15 c3 ad bd 40 52 7e bd
       -0.0110946 -0.001385459 -0.084844746 -0.06209016
000260 6d a8 f7 3c 42 fa ac 3d f3 e3 a9 3c cc a3 cb 3d
       0.030231679 0.084461704 0.020738577 0.09943351
000270 a3 2a f4 3b 54 8c 82 3d da 9b 51 3c e7 c7 11 bd
       0.0074513718 0.06374422 0.012793506 -0.035591032
000280 30 d8 a1 3d 5c 76 60 bd 88 9b 73 3d 3e e8 46 3d
       0.079025626 -0.054800376 0.059474498 0.048561327
000290 82 4f 08 bd f0 d9 4a 3d ec 8e d8 3c 64 18 b3 3c
       -0.03327895 0.049524248 0.026435338 0.021862216
0002a0 1e 29 e8 3c b3 6e 17 3d 9c db 8f 3a da 47 8b bb
       0.028339919 0.036970805 0.0010975483 -0.0042505087
0002b0 d4 4d 54 3d dc 2a 40 bd 54 95 68 3d f4 64 95 3c
       0.051832035 -0.046915874 0.056783035 0.018236615
0002c0 98 39 c3 3c 63 8a 4b bd 60 28 80 3c 09 7a f7 3a
       0.023831174 -0.049692523 0.015644252 0.0018880974
0002d0 f9 c9 7d bd 90 b5 87 3d 16 42 86 3c c2 af 2d 3d
       -0.061960194 0.06626427 0.016388934 0.042403944
0002e0 fc 6b d1 3d 79 c0 1c 3d 6f 6f db 3d 9a cd 37 bd
       0.102256745 0.038269494 0.10714614 -0.04487381
0002f0 5a 0d 20 3d e6 54 98 3d e2 1a b5 3c 8a 0a fe ba
       0.039075233 0.07438068 0.022107545 -0.0019381803
000300 aa 93 22 bd b0 31 07 bd b6 fe 31 bd 4d db 4b bd
       -0.039691605 -0.03300637 -0.043455802 -0.04976969
000310 0a 3d 22 3d e4 46 eb 3d ca b3 48 3d 50 2d ff 3c
       0.039608993 0.11488131 0.048999585 0.031149536
000320 ce 3a 24 3d a8 5b 00 3e e2 02 f3 3b 4d 81 7e bd
       0.040095143 0.12534964 0.007416115 -0.06213503
000330 c9 8e 37 3c df d2 43 3d 70 4f 6b 3c be 4e e6 3c
       0.011203476 0.047808524 0.014362201 0.02811372
000340 7b ad 91 3c cc 6b 29 3d c0 17 03 3d 0c e9 c6 bc
       0.017782917 0.04136257 0.03200507 -0.024281047
000350 f6 3a 10 bd d6 7a 96 3d 2f db 3b 3d 14 3c 8f 3c
       -0.03521248 0.07347648 0.045863327 0.017484702
000360 73 0c 27 3d 80 11 68 bb 22 ec 20 bc 4e 04 b3 3c
       0.040783357 -0.0035410821 -0.009821923 0.021852639
000370 68 99 1c bd b0 b7 6f bc 18 1a e9 bc fe ef 74 bd
       -0.038232237 -0.014631197 -0.028454825 -0.059799187
000380 22 aa 29 3d 1e 94 ae bc 50 09 4a bc 67 9d 45 3d
       0.041422017 -0.021310862 -0.012331322 0.048245814
000390 b3 73 7d 3c be 2d 60 3d f1 1f 11 3d 0a 36 4d 3d
       0.015469479 0.054731123 0.035430852 0.050100364
0003a0 78 90 63 bd 99 da 35 bd 5e 37 12 bd 28 41 a2 bc
       -0.055557698 -0.044397924 -0.035697334 -0.01980646
0003b0 c4 75 1b bd 4b e4 31 3d f4 0e 69 bd d4 3f 4d 3d
       -0.037954107 0.043430608 -0.056899026 0.0501097
0003c0 d8 14 0b bd f4 9e b6 bc b5 77 25 3d 38 a5 76 bd
       -0.033955425 -0.022292592 0.040397365 -0.06021616
0003d0 83 90 b8 3c ea 97 f4 3c 4f 96 1b 3d 7f bb f0 3c
       0.022529846 0.029857595 0.037985142 0.02938628
0003e0 2f 26 74 3d 33 f5 09 3d 02 e3 27 bd 5e fe 2e 3d
       0.059606727 0.033681106 -0.040987976 0.042723052
0003f0 3c ad cd bd 2c 55 88 bc 8a 02 73 bd f9 f1 e9 3d
       -0.100428075 -0.016642176 -0.059328593 0.11423106

net2.4.bias f4 [256]
000000 23 6d 8a 3c 22 5c aa bc 35 67 25 3d db f1 86 3d
       0.016897744 -0.020795885 0.04038163 0.06589099
000010 98 2b 1a bc 7d 8f 90 bc 26 15 77 bc 14 8a 8d bc
       -0.009409808 -0.017646546 -0.015080726 -0.017277755
000020 9e bf 04 3c 89 a4 1f 3a 5b 9f ef 3a 94 a2 f1 3c
       0.008102326 0.00060898863 0.0018281745 0.029496469
000030 6e ee 24 3d c8 d0 4e 3d 3c 5b f3 bc 82 fe 86 3d
       0.040266447 0.050492078 -0.02970659 0.06591512
000040 12 79 4f 3d c5 64 81 3c 98 74 11 3d b3 88 18 3d
       0.05065257 0.015795121 0.035511583 0.03723974
000050 3a 77 2c bd 68 d0 95 3c cb 81 11 3d 0c d8 a5 bc
       -0.04210589 0.018287852 0.03552417 -0.02024462
000060 d2 6f cd bc 90 3f 5a bd 3c 7e 27 bc e8 f6 22 3d
       -0.025077734 -0.053283274 -0.010222968 0.03978625
000070 c2 3a 9a bc 3d be 85 3c 6d ad b5 bc aa 0c 6f 3d
       -0.018826846 0.016326064 -0.022177422 0.058361687
000080 b5 b1 00 bc 79 01 45 bd e4 db 67 bd f8 a2 48 bc
       -0.007854869 -0.048097108 -0.05660619 -0.012245886
000090 ef cb 15 3d 78 ce 90 3c 93 2f f2 bc 65 7d f7 3c
       0.03657144 0.017676577 -0.0295637 0.03021116
0000a0 1c 54 82 bc 81 7e 98 3c 78 1b 06 3d ad 95 4f 3d
       -0.015909247 0.01861501 0.03274104 0.05067985
0000b0 ce 89 6c bd 6e 9e 27 3d 5a 25 52 3d 5f 23 18 bd
       -0.05774861 0.040922575 0.051305152 -0.037143108
0000c0 1e 56 49 bd 28 e2 6c 3d 3f 8d 2f bd 84 a0 1e 3d
       -0.049154393 0.057832867 -0.042859312 0.0387273
0000d0 11 f9 5e 3c 2a fc 5f 3d d2 61 2c bd 19 c2 69 3d
       0.013609187 0.05468384 -0.042085476 0.05706987
0000e0 14 25 30 bb e8 54 ea 3c 73 b7 25 3c e2 43 02 3d
       -0.002687757 0.02860494 0.0101145385 0.03180302
0000f0 b6 33 bb bc 40 9d a9 3b 09 fa 16 3d 5c 90 24 3c
       -0.022851806 0.0051762164 0.036859546 0.010044184
000100 c5 89 56 bd 71 bc 63 bd c2 45 1d bd be 94 64 bb
       -0.05237748 -0.055599634 -0.038396604 -0.0034878696
000110 25 4c 86 3c ea a1 7a bc 18 cc 2b 3d e0 8a 04 3c
       0.01639373 -0.015297392 0.041942686 0.008089751
000120 20 ca 4a bd 44 7e 59 3d 63 0e 69 3d a0 5c 69 3c
       -0.049509168 0.053098932 0.056898486 0.014243275
000130 ea c2 a4 bc 0a c4 55 3d 25 22 23 bd 64 78 16 3d
       -0.020112474 0.05218891 -0.039827485 0.036735907
000140 3f 7d 00 3d 33 7f 08 3d 4b a4 61 3c b2 11 d6 bc
       0.031369444 0.03332443 0.013772081 -0.026131485
000150 77 10 84 3c 6c 31 4e bd 93 26 a7 3c fc aa 5e bd
       0.016121132 -0.0503401 0.020404136 -0.054362282
000160 4a c1 09 bd 67 0f c1 3c 8f 54 c6 bc af 9d 94 bc
       -0.0336316 0.023566915 -0.024210243 -0.018141596
000170 ec 29 72 3d 55 59 24 bc 4b af e0 3c 88 58 4b 3d
       0.05912201 -0.010031064 0.027427336 0.049644977
000180 36 02 10 bd 88 6e fd bc 83 60 85 3b db 78 c4 3c
       -0.03515836 -0.030936494 0.004070343 0.02398341
000190 bf 42 d1 bc 0e 75 74 bd 3c 9d 3a bd 17 4e 72 3d
       -0.025544522 -0.059681945 -0.045560107 0.059156504
0001a0 9d fd cb 3c 38 2b af 3c a4 e6 89 bc 90 3f 15 bd
       0.024901206 0.021382913 -0.01683361 -0.03643757
0001b0 7b f6 3f 3d 5f e0 58 3d 86 60 0f bd db cc 29 3d
       0.04686592 0.052948352 -0.03500416 0.04145513
0001c0 a3 88 5e 3c 15 87 62 3d 72 52 5e bd 20 72 68 bc
       0.013582381 0.055304606 -0.054277845 -0.014187366
0001d0 49 91 22 3d 00 98 6f 3b a8 1d db 3c 91 4b 5e 3d
       0.039689336 0.0036559105 0.02674754 0.054271284
0001e0 21 ed 83 3d 7d 78 5f 3d 98 db 43 bd ce c8 6e bb
       0.06441713 0.054558266 -0.047816843 -0.0036435607
0001f0 d4 4b 99 3d 7f 09 4f 3c 3c ef 54 bd cc c6 fa bc
       0.07485166 0.012636541 -0.051985964 -0.030612372
000200 9b 6c 32 3d 04 81 07 bc f0 f7 77 bc 80 f8 8e bc
       0.043560605 -0.008270506 -0.0151347965 -0.017452478
000210 f6 46 1c bd f5 0a 84 bc 85 96 5f 3d c7 e6 2a bd
       -0.03815361 -0.016118506 0.054586906 -0.041723993
000220 f1 31 0d 3d f3 a1 83 bc 5b 88 9d 3c 81 78 00 bd
       0.034471456 -0.016068434 0.019230058 -0.03136492
000230 70 80 48 3d bd ca 26 bd 70 16 a8 bb 98 55 c9 3c
       0.048950613 -0.04072069 -0.005129628 0.024576947
000240 76 b2 67 bd 60 78 de bb a7 7a 07 3c c4 5b d9 3c
       -0.056566678 -0.006789252 0.008268989 0.026533015
000250 0d f3 b4 bc 57 90 64 3d cf 8c 6c 3c ea fa 2c 3c
       -0.022088552 0.055801716 0.014437868 0.010557869
000260 02 d2 18 bd 79 86 26 3d 35 03 8d 3c e5 b9 10 bd
       -0.037309654 0.040655587 0.017213443 -0.035333533
000270 09 4d 78 bd 2a 9d 64 3c d3 7b 2e bc 1c e1 e6 bc
       -0.06062034 0.013953486 -0.010649639 -0.028183512
000280 2c 22 52 3d 94 3d 79 bc 26 62 25 3b 3f e6 28 3d
       0.05130212 -0.015212435 0.0025235503 0.041235205
000290 af 15 fd 3c 63 86 cd bb cb 32 e9 3c 7b 85 77 3d
       0.030894129 -0.0062721237 0.028466603 0.06043003
0002a0 a7 dd a5 3c cc f8 f1 bc 42 18 95 3c dd 47 64 3d
       0.020247294 -0.02953758 0.018200044 0.055732597
0002b0 19 fa 16 3d 94 f6 17 3d 90 30 96 bc 82 f1 4d 3c
       0.036859605 0.03710039 -0.018333703 0.012569787
0002c0 86 97 6b bd 63 68 6f 3b d6 d2 22 3d 09 ad fb 3c
       -0.05751755 0.0036530725 0.03975185 0.030722158
0002d0 30 71 80 3c a2 26 fa 3c 93 c6 95 3d 39 00 e2 bc
       0.015678972 0.030536 0.07313266 -0.027587997
0002e0 34 cf dd bc 7e 41 46 3d c0 0b 30 3c e9 49 85 bd
       -0.027076341 0.048402302 0.010744989 -0.06508238
0002f0 b3 c0 14 3d e0 a5 cf bc 55 54 cd 3c 3c 0e ac 3c
       0.036316585 -0.02534765 0.025064627 0.021002881
000300 21 04 dd 3c eb 49 2a 3d b0 dc fd 3c af b3 cc 3c
       0.026979508 0.0415744 0.030989021 0.024988024
000310 a9 fe d0 bb 1f 9e 62 bd a5 88 3e bd 90 b6 1e bd
       -0.006378014 -0.055326577 -0.046517033 -0.038748324
000320 55 d0 28 3c 84 ad c7 bc ef 0d 52 bc 0c 54 91 3c
       0.0103035765 -0.02437473 -0.012820705 0.017740272
000330 b2 62 70 bd 54 41 94 bc de 4d a7 bc 95 38 0d 3d
       -0.058687873 -0.018097557 -0.020422872 0.03447779
000340 23 e3 67 3d c2 87 0c bd 77 33 bd bb 8d 44 19 3d
       0.0566131 -0.034309156 -0.0057739574 0.03741889
000350 9b 71 52 bd b8 0f 5a bd 39 03 32 3d fa 8f 31 bc
       -0.051377874 -0.053237647 0.043460105 -0.010837549
000360 1d a7 10 bd 48 ed 6c bd 05 15 05 bc 4f 8f 5c 3d
       -0.03531562 -0.057843477 -0.008122687 0.053847607
000370 fa 83 51 3c 96 bf 0e 3d 85 39 33 3d d7 39 56 bc
       0.012787813 0.03485068 0.043756027 -0.0130753135
000380 a8 2f 70 bc 40 c2 ce 3b 0c cd 05 bd 8c 12 48 bd
       -0.0146598 0.0063097775 -0.03266625 -0.048845813
000390 d4 8b f8 3c 6c bc dd 3c 3c e6 10 3d 0a 1b 72 bd
       0.030340113 0.027067386 0.03537582 -0.059107818
0003a0 68 e9 84 bc c0 21 17 bd b9 3a 2e 3d a3 c4 d7 bc
       -0.016224578 -0.03689742 0.04253647 -0.02633888
0003b0 a1 dc d5 bc 63 a8 13 3c 7a fb 80 ba 87 20 75 bc
       -0.02610618 0.0090123145 -0.0009840571 -0.014961368
0003c0 00 91 fc 3b e4 52 d3 3b 4e a9 10 3d 51 a4 02 3d
       0.007707715 0.0064490903 0.03531771 0.031894986
0003d0 14 a8 55 3d e6 79 f8 3c 87 b8 a7 3a c4 ad 01 bd
       0.052162245 0.030331563 0.0012796082 -0.031659856
0003e0 cf 9e ec 3c 66 29 74 bd 62 68 3f bd 9c 5d 24 3d
       0.02888432 -0.059609793 -0.046730407 0.040128335
0003f0 73 e2 43 3d 5f 1b d6 3c 3f 49 cd bc 13 e1 08 bd
       0.04782338 0.026136098 -0.02505934 -0.033417773
