training/save_ddpg_weights/DDPG_R1_actor_network_s2.pt (torch, 734843 bytes, 13 tensors)

net1.0.weight f4 [3, 1, 3, 3]
00000000: 2a29 00be c2c5 053e da49 653e 86ec 573d
00000010: 299b 5b3d be3c 913e 5ef9 6b3e 1f71 7c3e
00000020: a2f0 953e 83a0 473e 8673 2d3e 0e76 a4be
00000030: 1ef2 41be a2d3 8e3e c2e9 a7be 8b1e 083d
00000040: 56de f7bc 5e30 203e 53fa 193e 482d 29be
00000050: 0ac9 a5be 1624 a93d 3398 4f3e 0bdc 06bd
00000060: e621 2f3e f4ad 86be 2efd 5cbe
-0.12515703 0.1306372 0.22391453 0.0527158 0.05361477 0.28366655 0.23044345 0.24652527
0.2928515 0.19494824 0.169386 -0.3212132 -0.18940017 0.27895838 -0.3279553 0.033232253
-0.030257385 0.1564345 0.15036897 -0.1652118 -0.32379943 0.08258836 0.20272903 -0.032924693
0.17102775 -0.2630459 -0.21580955

net1.0.bias f4 [3]
00000000: 8330 4f3e 061a 6bbe b384 21be
0.2023335 -0.22959146 -0.15773277

net1.2.weight f4 [3, 3, 2, 2]
00000000: a6af bdbd be14 5bbd 6cf4 133e c871 8fbe
00000010: b5b6 503e 7a9c 2f3e a610 113e ee35 b63d
00000020: 5cf4 c63d 6e31 69be facb bf3d 5639 603e
00000030: 5e56 69be 9f41 0b3e a97b 8f3e e310 843e
00000040: 2934 193e 8242 d2bc 15bd 82be 1c04 87be
00000050: b28c 903e 839c 29be 1fe7 1b3e d00c b5bb
00000060: d958 bebd 6a56 35be ea0a 163e f2a0 8f3e
00000070: 5561 29be d796 6dbd 7a1a 90be a0a7 89be
00000080: 4b30 2a3e fc75 6c3e d926 513d 13e2 923e
-0.09262018 -0.05348658 0.14448708 -0.28016496 0.20382197 0.17149535 0.14166507 0.08897005
0.097145766 -0.22772762 0.09365077 0.21896872 -0.22786853 0.13599251 0.28024033 0.25794134
0.14961304 -0.025666479 -0.25534883 -0.26370323 0.28232342 -0.1656361 0.15224884 -0.005525209
-0.0929429 -0.17708746 0.14652601 0.2805248 -0.16541035 -0.05800518 -0.281452 -0.268857
0.16619985 0.23091882 0.05106244 0.28688106

net1.2.bias f4 [3]
00000000: 9b39 11bd 3b5c 48bd f01f 27be
-0.035455327 -0.048916083 -0.16320777

net1.4.weight f4 [1, 3, 2, 2]
00000000: a362 3d3e c9a2 263e 825e 1c3d d406 19be
00000010: d8a4 913e 03df f13d a666 f93d 260c a83c
00000020: 4a8b d03d d2e8 4d3e 195a 43be 8ad7 87bc
0.18494658 0.16273035 0.038176067 -0.14944011 0.28446078 0.11810114 0.12177782 0.020513605
0.10182817 0.20108345 -0.19077338 -0.01658227

net2.0.weight f4 [256, 196]
00000000: abdb 803d 257c 43bb 0590 73bd ca82 4c3d
00000010: c0ce a3bc cea3 913c 5c0b c63b 1351 0abd
00000020: 705b 0fbd 17f1 59bd c776 153d dccd 493b
00000030: 9a10 5fbd 4ea2 fb3c 78b9 773d 4f27 92bd
00000040: 3727 93bc 3774 85bd 81ef e33c 3783 2bbc
00000050: 3e17 65bd 88ee 6a3d 2cc1 393d 4aed 14bd
00000060: a5c0 5abd 1196 2c3d dc1d 47bc 5e16 8bbd
00000070: 7311 25bd ee1c 4ebd 8118 4f3d 9371 703c
00000080: e382 65bd e8e9 753d 1c54 233d a53f 983b
00000090: b700 0bbd b726 34bc d38c 96bc d8f2 ecbc
000000a0: c1a1 5ebd 6aed 8ebc acae 7bbd 16b4 8cbd
000000b0: 33bc 5c3d 4ab1 333b 6caa 74bd 0369 85bd
000000c0: bce1 1cbd 3763 ac3c d710 09bd 842b 82bd
000000d0: dce5 b93c 1763 94bc 1cd0 05bd 21d0 ad3c
000000e0: a519 b03c 1cd0 f9bc 9526 623d ea4b 753d
000000f0: 9341 0f3c d3d8 9c3c 7ca5 90bd a839 61bd
00000100: 474d 383d b83e 65bd 0a9f f0bc 8126 e83b
00000110: 71c7 34bd 6ec4 ca3c 85e8 57bd 80bb 21bd
00000120: 21ea c9bc da87 2fbd a78f 34bd e53f 5cbc
00000130: da13 57bd 6114 f33c f335 5ebd 859c c6bc
00000140: 17e5 8fbc bcee af3c 556e 833d 6c6e 603d
00000150: 6201 923d c5ea 323d 852b c0bc 136a ad3c
00000160: a55a 7dbc ba07 173d b79f a5bc cca6 7ebd
00000170: deb8 59bd 2583 2bbd 757b 853d bcc3 65bd
00000180: ca49 b1bb fc02 ffbc b5cb 0dbd 3c4d bb3c
00000190: f4a1 8ebd 1c0a ff3c dc4d ddbc 45df e83c
000001a0: f50e 3dbd 9aeb 6f3d 350d 05bd 4587 6ebd
000001b0: dacd 66bd 2ef3 213c d451 89bd 559d 7e3d
000001c0: 93e9 68bb 1acc 263d b851 6f3c 0098 073c
000001d0: 9eb7 2f3d 4aaa 133a aeea 133d 4e9c 86bd
000001e0: 4138 f03c f78a 9b3c 1c44 1c3c 8df5 83bd
000001f0: e596 aabc 6edb a7ba 2244 8b3d 93fc a8bc
00000200: 7c77 363d e8ab 8d3d d6c8 87bd 9aec 3e3d
00000210: 471a 27bd bd73 91bd 9a50 3c3d 43c8 36bd
00000220: 0149 e93b 93ea ef3a 25c6 d9bb 3e2a 4c3d
00000230: 4a8c 7fbc a804 89bd 0131 2c3b 37dc d03b
00000240: dc6b 26bc ca48 6abd 4ead 783d b785 c13a
00000250: 6e41 dbbb 0514 5b3d a1df 52bd c8cd 5cbd
00000260: 17b2 d3bc 075f 2ebd 25f2 60bb 2755 4bbd
00000270: 1c78 2e3c e523 583d ce1b f0bc 1790 2d3d
00000280: b333 863c 7767 27bc ee79 0dbd e7ae 4dbd
00000290: 1328 89bc 839a 14bd 5a3c 153d 97c2 123d
000002a0: ae67 5dbc 0eb5 8dbc 0a59 603d 93eb ca3b
000002b0: 8a5f 063d 5366 29bc a361 203d 3317 9ebc
000002c0: 2c4a 0b3d 9e12 4f3d 3caa febc 18ff ed3c
000002d0: c377 3c3d 5c2e cabc 1787 9c3c 2acd 8a3d
000002e0: d387 173d d75e b63c 4a20 ee3a 2ed7 79bd
000002f0: 2e7c 0a3d ae7c 433c 7c59 65bd 25d9 abb9
00000300: 5c44 8bbc 2eab 45bd 45de cdbc 9c71 76bc
00000310: 4ca3 09bd 45b9 3a3d b508 10bd 379c 9a3c
00000320: 4a67 593d c5b5 8abd e188 50bd 00db 833c
00000330: f358 81bc f2bb 86bd d318 b7bc 0ef1 fc3c
00000340: 3b6a 843d 0003 9bbb 8eba e33c 233b 433d
00000350: 8302 733d e79e 533d c322 713d eac4 163d
00000360: 1ad7 723d dce3 15bc b813 e6bc d821 62bd
00000370: 45bc 6fbd b767 093c ca5b 8e3d 53fe a1bc
00000380: 21c0 e13c 9338 7dbc 45d1 b0bc f587 553d
00000390: 6eb4 023c 9eb9 003d b7ff 8abb 9e30 3ebd
000003a0: eac9 ff3c dc5f 02bd 25c7 dcbc 2ab8 61bd
000003b0: 6ef7 443b aebb bd3c e3c0 283d 6546 3c3c
000003c0: aedc 753d 1285 83bd a5a0 d63b 9355 583c
000003d0: 25fd 093c d3df a43c 1566 66bd 20cb 953c
000003e0: b01a 263d cac8 923c dc63 51bc 0194 b0ba
000003f0: 8586 4ebd 4691 91bd ce40 b83c fcff 51bd
0.06291898 -0.0029828635 -0.05946352 0.049929418 -0.019996047 0.017778303 0.0060438346 -0.033768725
-0.03499931 -0.053208437 0.036490228 0.0030792868 -0.05445919 0.030717041 0.06047961 -0.07136404
-0.017963035 -0.06516307 0.027824165 -0.010468296 -0.05593037 0.057356387 0.04535024 -0.03635911
-0.053406376 0.042135302 -0.012153115 -0.067913756 -0.040299844 -0.05032056 0.050560478 0.014675516
-0.056033026 0.060037524 0.039875135 0.004646259 -0.03393623 -0.010995558 -0.018377697 -0.02892439
-0.05435348 -0.017447192 -0.061445877 -0.06870286 0.05389042 0.0027418905 -0.05973284 -0.0651417
-0.038301215 0.021043403 -0.033463325 -0.06355956 0.022692613 -0.018113656 -0.03266917 0.021217408
0.021496603 -0.030494742 0.055212576 0.05988685 0.008743661 0.019146359 -0.07062814 -0.054986626
0.044995572 -0.055968016 -0.02937271 0.007084668 -0.044135515 0.024751868 -0.052711982 -0.039485455
-0.024647774 -0.042854168 -0.04408231 -0.013442968 -0.052509166 0.029672803 -0.05425067 -0.024244556
-0.017565293 0.021476142 0.064175285 0.054792807 0.0712917 0.043680925 -0.023458252 0.021168744
-0.015463506 0.036872603 -0.02021776 -0.06217079 -0.05315482 -0.041873116 0.06517688 -0.05609487
-0.0054104077 -0.031129353 -0.0346181 0.022863977 -0.06964484 0.03113275 -0.027014665 0.028426776
-0.046156842 0.058574297 -0.0324833 -0.05823447 -0.05634866 0.009884639 -0.067050606 0.062161762
-0.0035539612 0.04072199 0.014606886 0.008275986 0.04289972 0.000563298 0.03611248 -0.065727815
0.029323699 0.018987162 0.009537723 -0.064433195 -0.020823905 -0.0012806484 0.06800105 -0.02062825
0.044547543 0.06917554 -0.06630103 0.04661236 -0.040796544 -0.071021535 0.045975305 -0.04462458
0.0071192984 0.0018304161 -0.006645935 0.049844973 -0.015597412 -0.06690341 0.0026274326 0.006373908
-0.010157552 -0.057198323 0.06071215 0.0014764582 -0.0066911494 0.05348589 -0.0514828 -0.053907186
-0.025841756 -0.042571094 -0.0034324017 -0.049641754 0.0106487535 0.052768607 -0.029310133 0.042373743
0.016382074 -0.010217539 -0.03454011 -0.050215628 -0.016742742 -0.036280166 0.03643451 0.035830107
-0.013513489 -0.017298248 0.054772414 0.0061926334 0.032805957 -0.010339337 0.039155614 -0.019298172
0.034006283 0.050554864 -0.031087033 0.029052302 0.04601265 -0.024680309 0.019107385 0.06777413
0.036994766 0.02226202 0.0018167582 -0.060996227 0.033809833 0.011931581 -0.055993542 -0.00032777447
-0.01700037 -0.048258953 -0.0251304 -0.015041735 -0.033602998 0.045586843 -0.035164554 0.018873317
0.05307702 -0.06772951 -0.050911788 0.016095638 -0.015789485 -0.065788165 -0.022350704 0.030876663
0.06465574 -0.0047305822 0.027798917 0.04766382 0.059328567 0.051665213 0.058871042 0.036808886
0.059287168 -0.009148564 -0.028085575 -0.055208057 -0.058529157 0.008386544 0.06951101 -0.019774592
0.027557435 -0.015455383 -0.021584162 0.05213161 0.007977588 0.03142702 -0.0042419094 -0.046433084
0.03122421 -0.0318297 -0.026950428 -0.055107273 0.0030054706 0.023160782 0.041199576 0.011491393
0.06002491 -0.064218655 0.006549912 0.013203996 0.008422171 0.020126259 -0.056249697 0.018285334
0.040552795 0.01791801 -0.012780156 -0.0013471843 -0.050421257 -0.07107787 0.022491839 -0.051269516

net2.0.bias f4 [256]
00000000: 6a4b 7dbd 0844 74bd d655 533d 9328 e5bc
00000010: 1e11 3ebd da7a d23a c1fd 693d 63b8 7abd
00000020: e73d 943c 8a83 6a3c 4e46 54bd ec24 883d
00000030: a15e e43c 6e94 c1bb 057d 913c 2c84 293c
00000040: ba63 6c3d 1d26 4b3d a852 8c3b 7657 dfbc
00000050: 9165 31bd 74f9 6b3d dc55 6d3d 4e7a 83bc
00000060: 0a39 50bc 72d7 eabc 73e7 873d 133f 25bd
00000070: 0e7d af3b 8371 913d d423 8dbc cf2a b33d
00000080: df62 293d 164d 6abd 46dd debc 1323 f53c
00000090: 4a2d 413d 5753 48bd d59f 343d e84f 73bd
000000a0: c340 793c 20d8 833d 556f 543d 8e97 fdbc
000000b0: 9f21 2abc e397 59bd 6a80 c2bc a168 d9bc
000000c0: a830 603d 4a60 a6ba be91 313c 3f4f 04bd
000000d0: d036 083d 7758 f23c ea2f 433d 8b09 8e3d
000000e0: f1c5 35bd 8f83 3ebb 04d6 b439 1df5 853d
000000f0: 132c fd3b cea6 533d 47ff 1bbb 1826 c8bc
00000100: 8588 35bd a32c 66bd e6d8 6d3d c1e7 ec3c
00000110: 4a98 52bc aa46 603d c7ac 7b3d a734 20bd
00000120: 18b0 913d c11f 63bd a305 993d e393 803d
00000130: 405b 1abc 68dd d7bc 984b 9b3d 54d5 f6bc
00000140: ee05 1cbd 0b3f 84bd 57b3 5a3d 4075 793d
00000150: 4888 62bd 81d5 a03c e30b 92bd 0232 eabc
00000160: 983e 06bd d19f 733d 0f77 f3bb e8a3 893d
00000170: 781f 02bd 0123 f6bb 7194 023d 5d51 c2bb
00000180: 5bc6 0a3c f855 84bd ce38 b9bc 220d 723d
00000190: 7328 203d 0e44 f8bc c19b bc3c cc91 db3c
000001a0: 5551 273d 2ffa 9cbc f5da e5bb 8e82 5ebd
000001b0: aa91 1b3d 6c83 1a3d b5a9 08bd 5561 a83c
000001c0: 6e71 ebbc b54e 72bd 56b6 54bd 0591 083d
000001d0: 5382 e83c 9771 77bc ab3e 3dbd 3527 963c
000001e0: 39f8 22bd 7314 863c 6c30 90bd 7e10 73bd
000001f0: 3c59 e33c bdc1 3f3d 0595 f5bc dc56 aeba
00000200: 1cb2 383d ba70 803d fc5d babc a559 bb3b
00000210: 314d 163d 0e1e b63c 4180 933c ddc3 91bd
00000220: 65d4 a4bc 2b1f 883c 8e6e 4fbd c682 553d
00000230: 681e c4bc b6b2 093c 38a1 64bd 3758 193d
00000240: cea1 f9bc 92fc 2abd 2879 513b ea94 79bd
00000250: 5070 de3c 154b 16bd f97e c63c 694a c1b9
00000260: 6e29 95ba 75ff 7a3d 8ade da3c 2c7a e0bc
00000270: 9bf0 3a3d e3dc 773d dc23 07bd c06f 733c
00000280: 6eff 3c3c 8060 bf3c 513e 6e3d 285c 7a3d
00000290: eecb 823b 8571 673d bc61 4e3d 9c97 663d
000002a0: 859d b9bc 147e f6bc 44d5 2d3d a8d8 39bc
000002b0: 00ee 8bbd 6e32 873c fb11 533c feac 6cbd
000002c0: 3b4d 4abd 4204 12bd 0d06 aabc df42 cf3b
000002d0: d2e5 143d 46ea ab3d c3dd a13c fa4e b8bc
000002e0: b30e 2ebc d777 863d 85d1 d83c 54ba 42bd
000002f0: eee2 d33b 9a47 36b8 0c88 1e3d ee95 1abd
00000300: 0039 823d 489a 613d 3fc1 173d 4fe1 313c
00000310: e5b7 a9bc 6fff 6a3d 8afb cf3c edb1 5d3d
00000320: b75d cd3c 6709 823d c5f4 21bd 6e9e b73c
00000330: 597b 2a3d 07e7 45bd 496d 82bd e7b7 e8bc
00000340: dc90 2e3d 8eb9 813c f317 ea3c 25f5 0f3c
00000350: cb26 173c ac9d 6e3d 1179 ff3b 1f68 5c3d
00000360: 9a17 643d 0af4 7abd 2bfd 84bd add0 893d
00000370: b3f4 b23c 5bb7 89bd fedf 36bd 2327 3abd
00000380: 1d76 83bd eb83 8a3d b297 84bd 1cfd 4b3d
00000390: c52b 5c3d ea80 5bbd ee92 1fbd 5a17 413c
000003a0: e300 67bd 08ec 9ebc bc4f 2abd 845d 0bbb
000003b0: 7a91 7fbd 50a1 1cbd 5086 953c 216b 7d3d
000003c0: 7b6a fabb fb92 bf3c 9c4e 69bd ea22 123d
000003d0: 5c8f 1cbc 7e56 cc3c 2eee 70bc a13e 313d
000003e0: 2bdf 163d 253f 953d 81ae 4f3c 8e5b babc
000003f0: 9027 1d3d 3751 59bd b326 503d 7d5a 1f3d
-0.0618395 -0.059635192 0.05159553 -0.027973449 -0.046403043 0.0016058341 0.057126764 -0.061211
0.018095924 0.014313588 -0.05182486 0.06647667 0.027877154 -0.005907587 0.01775981 0.010346454
0.057712294 0.049596895 0.0042823143 -0.027263384 -0.043309752 0.057610944 0.05794321 -0.01604953
-0.012708912 -0.028667185 0.06635942 -0.040343355 0.005355484 0.07101729 -0.017228998 0.087483995
0.041354056 -0.05720242 -0.02720512 0.029923951 0.04716233 -0.048907604 0.04409774 -0.059402376
0.015213194 0.06437707 0.051863987 -0.030956056 -0.010383992 -0.053123366 -0.023742873 -0.026539149
0.054733902 -0.0012693491 0.01083797 -0.032302137 0.0332554 0.029583199 0.047653116 0.06935414
-0.044378225 -0.0029070114 0.0003449173 0.06540892 0.0077262013 0.05167275 -0.002380328 -0.024432227
-0.04431965 -0.056194913 0.05806818 0.028919103 -0.012853691 0.05475489 0.06144407 -0.039112713
0.07113665 -0.055450205 0.07471778 0.06278207 -0.00942117 -0.026350692 0.07582778 -0.03013102
-0.038091592 -0.06457337 0.053393688 0.060902834 -0.05530575 0.019633057 -0.071311735 -0.028588299
-0.032774538 0.059478585 -0.0074299644 0.06720716 -0.031768292 -0.007511497 0.031879846 -0.0059301094
0.008470143 -0.0646171 -0.022610094 0.059094556 0.039101075 -0.030305889 0.023023488 0.02680292
0.04084905 -0.019162266 -0.007014627 -0.054323725 0.037980713 0.03772299 -0.03336497 0.020554224
-0.02874061 -0.059157092 -0.0519317 0.033341426 0.028382456 -0.0151027655 -0.046202343 0.018329242
-0.039787505 0.016367173 -0.07040486 -0.0593419 0.027752511 0.046815623 -0.029978285 -0.0013301033
0.045091733 0.06271501 -0.022749893 0.0057174736 0.03669471 0.022231128 0.018005492 -0.07117436
-0.020120809 0.016616425 -0.050642543 0.05212667 -0.02394028 0.008404424 -0.055817813 0.037437644
-0.030472662 -0.041744776 0.0031963084 -0.06093303 0.027153164 -0.036692698 0.024230467 -0.00036867268
-0.0011380145 0.06127878 0.026717443 -0.027402006 0.045639616 0.06051339 -0.032993183 0.014858186
0.011535509 0.023361444 0.0581649 0.061123043 0.0039915955 0.056504745 0.050386176 0.05629693
-0.022658119 -0.030089416 0.042439714 -0.011343159 -0.06832504 0.016503539 0.012882705 -0.057782166
-0.04939006 -0.03564859 -0.020754838 0.0063251103 0.036351986 0.083942935 0.019759065 -0.022498596
-0.010623622 0.065658264 0.026467094 -0.047540978 0.006466261 -4.3458866e-05 0.038703963 -0.03774064
0.06358528 0.055078775 0.03704953 0.01085694 -0.02071757 0.057372507 0.025388498 0.05412476
0.0250691 0.063494496 -0.03954007 0.022414412 0.04162154 -0.048316028 -0.06368501 -0.028408004
0.042618617 0.01583555 0.028575873 0.008786474 0.009225558 0.058255836 0.0077964147 0.053810235
0.05568657 -0.06126789 -0.064936005 0.06729255 0.021845197 -0.067244254 -0.04464721 -0.04544748
-0.06419013 0.067634426 -0.06474246 0.04980193 0.05375268 -0.05358974 -0.038958482 0.011785353
-0.05639733 -0.019399658 -0.041579947 -0.0021265456 -0.062394597 -0.038239777 0.018252522 0.061869744
-0.007642088 0.023385515 -0.056959733 0.035677828 -0.009555664 0.024943586 -0.014705224 0.04327262
0.036833923 0.072874345 0.012675882 -0.022748735 0.038367808 -0.053055968 0.050818156 0.038904656

net2.2.weight f4 [256, 256]
00000000: 7a95 2ebd 12e4 083d a977 3d3d 656d b43c
00000010: 34a2 2fbd f7e1 a83c 8821 a93c 144c 69bd
00000020: 6950 353d 92a9 1a3d 8af4 053d dfba 2d3d
00000030: 0c72 833c 30ca dbbc 724c 1dbd 3bb8 c43c
00000040: 89f1 26bd f9cf 983c e29a 89bc 0c02 9a3b
00000050: 603b efbc d27d 093d 0877 633d 3843 3c3d
00000060: 7668 28bd b7ae d53d 60ad 953b 6480 49bd
00000070: 4cf8 423d 76d9 243d 709c 92bc 2559 aebd
00000080: 8c67 413d cbab 7ebc 7cc8 18bd a4f6 27bd
00000090: 38e0 7dbc 2c6f d3bc 682d 0a3d c203 82bc
000000a0: 9341 bc3b 5596 e8bc f6b6 333d 5004 393d
000000b0: 6a72 0a3d a0f2 28bd 60fa 573d f859 d53c
000000c0: 8e0e 6abd bcd3 acbc 40e5 41bd e7ac b53d
000000d0: 6535 49bd 4c2c 4bbb 711f d13d 281b 98bc
000000e0: 80c0 423d 0193 633d feb1 5c3c 3a88 21bd
000000f0: 4c11 1a3d 0462 8cbc 5ad4 1e3c 6f02 d1bc
00000100: 4726 133e 56ac 553d 5dbb 193c 0007 f0b9
00000110: 3115 e93d 4c71 833c 11d7 c33c a47c 3a3d
00000120: 04e1 20bd ac2c 78bd ea27 25bd d6ff 733d
00000130: 185e 7b3c 27ed db3c a121 8a3c 8d4d 813d
00000140: 6a83 d73c 8057 663d 407b ca3b b7bb 89bd
00000150: 5967 82bc be19 b23b 8ed8 30bd 5470 7dbd
00000160: 3aed 113d a441 8dbc cb77 543d d0d1 273d
00000170: 79ed 8f3c f0b6 8f3c 9376 ebbc 0578 77bd
00000180: 02db b73c 1028 c03b 4d10 87bc 2201 9dbc
00000190: c8c3 663c 7089 ae3b 941f 38bd 9a1b d73c
000001a0: 3cb3 2f3d 50ba 533d e457 0b3c 0a26 57bd
000001b0: c461 b9bc 3cc8 303d e2f5 1abd 0d38 e7bc
000001c0: 4001 b23b 9a94 7f3d 176f 46bd 58b8 35bd
000001d0: b0ee a03b 71a4 593d 3de2 993d beea f93d
000001e0: cc23 8d3c b32d e83c 2506 433d 701c fe3b
000001f0: c499 3cbd d94c 173b 5000 fbbb a8b4 763c
00000200: d8ca 903c d922 d33c d85f 243c 54f5 a0bc
00000210: db34 1e3d 2016 21bc 63d9 c9bc 88cf d8bc
00000220: c4eb 51bd 3d21 843d e6e3 663d da9e 263d
00000230: e88e 95ba de89 15bd a28c 613d 08cc 5abc
00000240: 8050 0a3a 4e4a 2abd c6cf ba3d 0640 693d
00000250: bf1a 573d 84cd efbc e8e9 743d 55be b9b9
00000260: fcbf 05bd ecf3 83bc f44b d13c 0b33 d63b
00000270: 1f6a 123c 6b8e 00bd 6d4f 88bb 7394 a93d
00000280: 5050 a7bb 6870 843d 0042 883b 2fff 9ebd
00000290: 102f ea3b 288b 453c 3298 903d 1485 7b3d
000002a0: 1c2c 91bc 9e9c 54bd eb0e 7e3b d42a 443d
000002b0: 04c7 9fbc b011 cb3b 154f 51bd f088 af3c
000002c0: a507 193c 1171 583d 1480 473d 5bb1 83bd
000002d0: a845 bcbc 015e a43c 7655 a23d 986c 8fbb
000002e0: 4752 dabc b4a3 8dbc 1010 1a3c 21c0 78ba
000002f0: 7a7a 1f3d aeea ef3d f0e8 d4bb b88d 073d
00000300: 385e 553d 9876 603c 1644 313d ccf1 8a3c
00000310: 2661 23bd d6f2 b43c 9b77 82bc bbc3 f83d
00000320: deb2 133d 349e 2c3d de75 173d d739 903d
00000330: 9523 d13c 5fef 983d 85f3 9b3d cd01 833a
00000340: 8b24 863c ae39 1cbd a266 1c3d 6bec 0d3d
00000350: b392 c93d 0045 39bc 0e31 51bd 6ee2 533d
00000360: 06b4 7f3d 2036 363d 8428 8b3d b386 163d
00000370: 10ba 21bd 1c0e f03c 5c50 b03c 0051 bcb9
00000380: 18ff d73c 3d6e 1e3d 567f 263d 12f2 5f3d
00000390: d2cf 763d 0247 06bd f254 79bd cc42 0f3d
000003a0: 3e20 2e3d 89f0 c53c c026 013e b203 febc
000003b0: 7e33 30bd 905d 643d 12b8 753c d7d5 f73c
000003c0: 6407 1abc fddf 3b3d c014 9b3a 2072 f23c
000003d0: 0c83 42bd d73c 3f3d f870 45bc f938 76bd
000003e0: 8778 e93c 8784 3e3d 2e0f 4a3d 30d7 863b
000003f0: 6cef 5cbd 5ae0 383d 14f1 553c 07dc 17bc
-0.04262302 0.03342063 0.046256695 0.02202482 -0.0428793 0.020615561 0.020645872 -0.05695732
0.04426614 0.03775937 0.032703914 0.042414542 0.016045593 -0.026829809 -0.038402982 0.02401363
-0.04075769 0.018653857 -0.016797487 0.004699951 -0.029203117 0.033567257 0.05553344 0.045962542
-0.041115247 0.10433715 0.004567787 -0.04919471 0.047600076 0.04024645 -0.01789686 -0.08513097
0.04721789 -0.015543888 -0.03730057 -0.0410067 -0.015495352 -0.025809847 0.03373471 -0.015870932
0.0057451217 -0.028391996 0.043875657 0.04517013 0.03380052 -0.04124701 0.05272901 0.026043877
-0.057142787 -0.021097057 -0.04733777 0.08870869 -0.049123187 -0.0031001745 0.10211075 -0.018567637
0.047546864 0.055560116 0.013470171 -0.039436556 0.03761415 -0.017136581 0.009694183 -0.025513856
0.1437007 0.052166305 0.00938305 -0.00045781583 0.11380995 0.016045235 0.023906263 0.045529023
-0.03927709 -0.060589477 -0.04032127 0.059570156 0.015342258 0.026846481 0.016861739 0.0631362
0.02630778 0.05623579 0.0061792433 -0.06725257 -0.01591842 0.0054351976 -0.043175273 -0.061874703
0.035626628 -0.017243214 0.051872056 0.040971577 0.01756929 0.017543286 -0.028743064 -0.060417194
0.022443298 0.005864151 -0.016487265 -0.01916558 0.014084764 0.0053264424 -0.04495199 0.026258279
0.04289554 0.051691353 0.0085048415 -0.05252651 -0.022629626 0.04315971 -0.03783215 -0.02822497
0.005432278 0.062397577 -0.048445787 -0.044365257 0.0049112663 0.05313534 0.07513855 0.12202977
0.017228983 0.028342104 0.04761328 0.007754855 -0.04604508 0.0023086576 -0.0076599494 0.01505772
0.017674848 0.025773453 0.010032617 -0.019648232 0.038624626 -0.009831935 -0.02463979 -0.026466146
-0.051250234 0.06451652 0.056369685 0.040678836 -0.0011410387 -0.036508434 0.05506576 -0.013354309
0.00052762777 -0.04157477 0.09121661 0.056945823 0.05251574 -0.029272802 0.059793383 -0.00035427758
-0.032653794 -0.016107522 0.025548913 0.0065368465 0.008936434 -0.03138582 -0.004159859 0.082802676
-0.0051060095 0.06466752 0.0041582584 -0.07763516 0.0071467236 0.012057103 0.07060279 0.06140621
-0.017721228 -0.051907174 0.0038766216 0.047892407 -0.019504078 0.006197177 -0.05110081 0.021427602
0.0093402015 0.052842204 0.04870613 -0.06430312 -0.022982433 0.020064356 0.07926457 -0.004376959
-0.026650561 -0.017289974 0.009403244 -0.00094890787 0.038935162 0.117146835 -0.006497495 0.033094138
0.052091807 0.01370015 0.043277822 0.016961 -0.03988757 0.02208845 -0.015926173 0.121467076
0.036059253 0.04214306 0.03697764 0.07042282 0.025529662 0.074675314 0.07614807 0.0009995044
0.016374847 -0.038140945 0.038183816 0.034649294 0.09842434 -0.011307955 -0.051072173 0.051729612
0.062427543 0.04448521 0.06794837 0.036749553 -0.039484084 0.029303603 0.021522693 -0.00035918504
0.026366755 0.03867935 0.04064878 0.054674216 0.060256787 -0.032782562 -0.060872026 0.03497581
0.042511217 0.024162548 0.12612438 -0.031007621 -0.043017857 0.05575329 0.014997499 0.030253334
-0.009401176 0.04586791 0.0011831746 0.029595435 -0.047488257 0.04668888 -0.01205086 -0.060112927
0.028499855 0.046513107 0.049330883 0.004115008 -0.053939268 0.045135833 0.013057966 -0.009268767

net2.2.bias f4 [256]
00000000: b542 553c 7501 d03c 73cc 05bd 667a be3c
00000010: 7ced fabc 8646 2c3d a54f 833d 7087 fbbb
00000020: 1fa7 8dbb d35a aabc 767f 293d d050 e13c
00000030: f2a3 23bd 15f9 31bd ab10 4c3d 06cf 0ebd
00000040: 4496 e5bc 3ceb 3c3d 503e 38bd a209 3ebd
00000050: a930 423d 8af4 17bd 98a7 5abd c273 493d
00000060: eeb6 30bd eeab 963b ab9c 7e3d a99f 9b3c
00000070: 878f 97bc 73b5 593d 71c0 0f3c 0c7d cf3c
00000080: c17a 093d 746b c1bc 034f b73c 2e30 023c
00000090: 9ae9 6c3c 9432 73bd 9797 43bd 502e 6f3d
000000a0: b6d4 453d 4e1e 3cbd 638d 8eba 9690 3bbd
000000b0: 4404 8d3d 4014 3f3d 9864 2cbd c291 283d
000000c0: 0c09 45bd ca8c b2bb dc25 fabb 9656 30bd
000000d0: 4f72 383d f04b 563c 7e93 0b3d 7940 8e3d
000000e0: 3b85 5ebd 8d65 b63a 6c7f 993d eba6 9f3c
000000f0: cdf1 0f3c a520 193d 996d 183d 6831 0e3b
00000100: c0ac eebc b995 a7bc 74db b8bc 84c0 a63c
00000110: 33a2 863d f06d 663d ad00 f5bb b4e6 d4bc
00000120: 5ee6 3dbd 15fc 53bd 5659 323d 60e7 69bd
00000130: 2fa7 09bd 7111 0dbc 9db2 303d 6fcd ba3c
00000140: 124a 353d 514a 453c 1d9c ccbb fb07 1ebd
00000150: 34bd 273d d99f 623b 3071 8abc 644c 91bc
00000160: 697c 7a3d 3555 c33c 7f73 63bc 6424 1a3d
00000170: dc7c febc 74f0 3a3d a0e5 633b ef9d 4d3d
00000180: f5ee a8bc a268 7b3d c49f 31bd 5094 65bc
00000190: e616 7e3c ee4c 113d a8a2 503d 021b 67bd
000001a0: 4b42 833d 9469 03bd 64ee 6f3c 70f3 2c3d
000001b0: 14b9 aebc 4738 14bd f6de eb3c 9e67 293d
000001c0: 3c3e 49bb c7ba 9f3c 8f61 6cbc 2221 103d
000001d0: 646c 863d d28c d13c 1fce f9bc 7d73 6e3d
000001e0: 4c79 143d efa1 cd3c 0431 9b3b dd2e 473c
000001f0: ea5e 053d f226 2cbd 008e b739 910f d1bc
00000200: 0222 7bbc 74b5 09bd a6b9 4b3d 630d 0f3d
00000210: 2605 3bbd cc94 dabc 4daf 4b3d 15b3 bdba
00000220: 1815 39bc 0023 b63c 8aa3 413d 2c0a 56bc
00000230: 365a 03bd 3bac a53d be40 69bd 5a0c 45bd
00000240: acc2 5d3d 2509 5fbd b356 05bc 6d3e 373d
00000250: 2f53 2ebd c73b 8f3d 707e bbbb 5cd7 38bd
00000260: fae4 053d bb2d 35bd 8a71 39bc a0d2 b83b
00000270: b17f 2c3d 7f37 d238 f77e 5f3d 2935 893d
00000280: ab2b 33bd 98d6 913c 1c13 263c 044b 08bd
00000290: ad38 433d b4b0 be3c a270 803d 0210 0cbd
000002a0: 824d 38bd 5a2d 7c3c 310b 173d eeea 7abd
000002b0: 4cfc 093d e159 833c a26d 2b3d 94e3 64bd
000002c0: cb90 0d3d c952 503d cc7f 5dbd ea49 1e3d
000002d0: 212e 22bd f3d8 a33c d632 c2bc 80c2 b2bc
000002e0: 97ee 2bbd c0bb 02bd cae8 233d a421 a4bc
000002f0: 88a2 6abd ded2 78bc 3e36 66bd d31c 22bd
00000300: c099 6d3c 08a6 803c 7c62 69bd e129 9c3b
00000310: e1b9 673c 1422 02bd 5109 adbc fa6e 45bd
00000320: cd40 0a3b d4bd fe3b 6fbe fbbc 7abb 1bbd
00000330: b192 d2bc e143 2ebc 8816 873c c822 12bd
00000340: 4a24 0abd 3759 1ebc 61a6 5c3d e73f 37bd
00000350: dade 073d 31ad a13c d7e7 4f3a 0c3a e0bc
00000360: a7a4 d0bc a4f9 3dbd e9c7 6d3d 4ae5 c93b
00000370: ca64 883c a044 96bc ce93 5bbd 80e5 4ebd
00000380: 8569 47bd d8d5 94bc 48a4 5a3c e610 8b3d
00000390: eb6d 4dbd d096 643d 4aac 103d a4a5 43bc
000003a0: 2011 b33c 6a0b 44bc ce0d 033d dc14 56bd
000003b0: 1f39 5e3d d89c 5b3d 6629 643d 40ee 6abc
000003c0: bc40 3b3d 48b4 39bd 77eb cebb 5e4c 35bd
000003d0: 37f4 21bd 36cf 253c 21f9 63bc 3add 553d
000003e0: d723 2fbd 7e1f adbc df42 403c d214 46bc
000003f0: a2df db3c f1d0 703c ba4c 053d c478 fdbb
0.0130163925 0.02539132 -0.03266568 0.023251723 -0.03063082 0.042059444 0.06411675 -0.0076760575
-0.004322901 -0.020795261 0.04138132 0.027504355 -0.039951272 -0.043450434 0.049820583 -0.0348654
-0.028025754 0.046122774 -0.0449813 -0.046395905 0.047409687 -0.037098445 -0.053382486 0.04918266
-0.043143205 0.0045981323 0.06216113 0.01899703 -0.018501056 0.05315156 0.008773909 0.025328182
0.033564333 -0.023610808 0.022376543 0.007946057 0.014459992 -0.059374407 -0.04775199 0.058393776
0.04829856 -0.04592734 -0.0010875877 -0.045792185 0.06885579 0.04665017 -0.04208812 0.04115463
-0.04810433 -0.0054489123 -0.0076339077 -0.043051325 0.04503089 0.013079628 0.034076206 0.06945891
-0.054326277 0.0013915763 0.07495007 0.019488772 0.008785677 0.037384648 0.037213895 0.002169693
-0.029135108 -0.020457136 -0.02256558 0.02035547 0.06573906 0.05625719 -0.007476887 -0.025988914
-0.046362273 -0.051754076 0.04354223 -0.057105422 -0.033606704 -0.008610115 0.04313909 0.022803036
0.044260092 0.012041644 -0.006244196 -0.03858183 0.040951923 0.003458014 -0.016899675 -0.017736621
0.061153803 0.02384434 -0.013882517 0.03763236 -0.031065397 0.04563947 0.0034774318 0.050199445
-0.020621756 0.061379083 -0.043365255 -0.014012411 0.015508389 0.035473756 0.05093637 -0.05642224
0.06409129 -0.03208311 0.014644239 0.042224348 -0.021328487 -0.036186483 0.02879284 0.041358583
-0.003070726 0.019498242 -0.014427557 0.035187848 0.065636426 0.025579844 -0.030493794 0.058215607
0.03624849 0.02510163 0.0047360677 0.012157169 0.03256122 -0.04202933 0.00035010278 -0.025520118
-0.015327932 -0.033620313 0.049737595 0.034924876 -0.045659207 -0.02668228 0.049727727 -0.0014472926
-0.011296533 0.022233486 0.047275104 -0.013063949 -0.032068454 0.08089491 -0.05694651 -0.048107482
0.05414073 -0.05445208 -0.0081383465 0.04473727 -0.0425598 0.069938235 -0.0057218596 -0.045127258
0.032689072 -0.044233065 -0.011318574 0.005640343 0.042113964 0.00010023917 0.054564442 0.066995926
-0.043742817 0.017802522 0.010136392 -0.033274665 0.047661472 0.023277618 0.06271483 -0.034194954
-0.044995792 0.015391672 0.036875907 -0.061259203 0.033687875 0.016034069 0.0418526 -0.055881098
0.034561913 0.0508602 -0.054076955 0.03864471 -0.039594773 0.02000091 -0.023705881 -0.02182126
-0.041975584 -0.031917334 0.040016927 -0.020035572 -0.057283908 -0.015186993 -0.056204073 -0.03957827
0.014501989 0.01570417 -0.056978688 0.0047657345 0.014143438 -0.03177078 -0.021122606 -0.04820154
0.0021095753 0.007774094 -0.030730454 -0.03802059 -0.025704714 -0.010636301 0.016490236 -0.0356777
-0.033726014 -0.009664825 0.05386961 -0.044738676 0.033171512 0.019735904 0.000793097 -0.027371429
-0.025469137 -0.046380654 0.058051977 0.0061613666 0.016649622 -0.01834327 -0.053607754 -0.050511837
-0.048684616 -0.018168375 0.013344832 0.067903325 -0.050153654 0.05580789 0.035320558 -0.011941347
0.021858752 -0.011965612 0.031995587 -0.052265987 0.054253694 0.053616375 0.055703543 -0.01433903
0.045716032 -0.045337945 -0.0063146907 -0.044262283 -0.039539542 0.010120204 -0.013914377 0.05221293
-0.04275879 -0.02113318 0.011734693 -0.012089925 0.026840035 0.014698253 0.032543875 -0.0077353436

net2.4.weight f4 [256, 256]
00000000: 19cc 6c3d bb94 d1bc 8562 f2bc fff0 163d
00000010: 6340 36bd 101b 8fbb 8bb5 b33c d6d7 42bd
00000020: 6b14 433d 5d22 c5bd 054a 603d ea25 6e3d
00000030: 982d 80bc b3e8 6e3c 7f4c 52bd 71d0 4d3d
00000040: 148f 853d dd87 53bd 98c1 1cbc e0f4 473c
00000050: 0dca 163d a806 51bc f2d2 31bd 0f36 703d
00000060: bcae cb3d 5e0c 153d ef87 393d 8fa3 0b3d
00000070: 5dee 4c3d cc7b c13c 2bb6 87bd 90c1 f53c
00000080: fa3d 83bc c030 033b bfc7 51bd 6010 50bc
00000090: c418 ab3d 0080 35b8 4854 f9bc 49d8 a13d
000000a0: dea1 913d d4b8 d83c 8087 913d 4256 1c3d
000000b0: d641 2cbd de2a f53d c927 453c 3e43 103d
000000c0: 4269 493c 924d 40bc 9b22 4f3d 160f 233d
000000d0: 63ba 33bd 1c0a 58bd 0428 8f3c 6452 383d
000000e0: 9f5f b93c cf90 af3d 5332 4abd 3f65 1f3d
000000f0: 01f5 fa3d 6b82 643d 446d a6bc ee59 c23d
00000100: 3842 90bc 419c 423d 1b63 49bd 970f 903d
00000110: fc59 8b3d 78f5 e7bc 1e17 e93b 006e e639
00000120: c152 15bd ff8b 3c3d 667a 05bd a05f 42bd
00000130: 8572 9dbd 3c23 8abc 0675 c63a 1692 8fbc
00000140: 929c 063d c6b0 d23d 390d ab3d 8299 a23d
00000150: 848e 1b3d def3 533d e404 cebc 001a 263c
00000160: 1ea0 43bd 8f48 9dbd 3a2d a33a acc6 f4bc
00000170: 183e 423d 11ef 19bd 3422 70bd edcc 513d
00000180: 3d03 a13c 1a01 e13d de3f 9b3d 7c3c d43c
00000190: 8954 ccbd c814 6a3d d4f2 333c 33fe cf3d
000001a0: b158 b5bc 76ca 1d3b 0008 f1bc 8981 d93d
000001b0: c65d 323d 6cc4 82bc fbb1 0dbd 8322 e23d
000001c0: 575c d43d a965 3abc 7a01 743d 0c88 22bb
000001d0: 842b 953d 6e40 523d 7b6d 7abc 3640 6abc
000001e0: 1c8f 57bd 0825 0e3e e5e4 36bc cdab 283d
000001f0: e052 89bb e4e4 d53d 689c b3bc 1ebd 1cbc
00000200: 1487 56ba b08e 78bc 1f3a b23c 6f31 b83c
00000210: 7023 f13c 88b0 87bd 9a44 313c d849 c1bd
00000220: bcfc b8bc 1c27 3c3d 5cf3 463d 75a3 c43d
00000230: 30f9 f9bc 146a 003d 7434 c2bc 0405 92bc
00000240: d4bc 02bd f80e 4f3c 3db5 5f3d 8171 6a3d
00000250: 20c6 35bc 34e6 32bb d668 b0bd 4052 7ebd
00000260: 7d51 033d ff09 ab3d 776f d03c 7756 d03d
00000270: b0e3 d83b 975c 813d b6a3 783c 5a10 17bd
00000280: caa6 a93d 5c76 60bd e748 7e3d aa46 423d
00000290: 824f 08bd 2211 493d cabb d53c 6418 b33c
000002a0: b3d3 f83c 992e 1d3d 6e61 9a39 da47 8bbb
000002b0: d44d 543d dc2a 40bd 5495 683d f464 953c
000002c0: 543e b83c 638a 4bbd 6028 803c 61c7 363b
000002d0: f9c9 7dbd a020 893d 8325 773c c2af 2d3d
000002e0: 1658 d83d 79c0 1c3d 7c5a da3d 9acd 37bd
000002f0: 5a0d 203d 5d8f 9d3d 29d1 c73c 8a0a feba
00000300: aa93 22bd b031 07bd b6fe 31bd 4ddb 4bbd
00000310: ba8b 2d3d ab2b f03d cab3 483d ae9a 0f3d
00000320: 319a 203d 058e 013e 7bee d63b 731e 82bd
00000330: 88b4 363c 2c0c 3e3d 704f 6b3c dbe1 de3c
00000340: 7bad 913c cc6b 293d ceb2 0a3d 8e7a cebc
00000350: f63a 10bd 837a 933d 5255 463d 143c 8f3c
00000360: ef59 263d 8011 68bb 77fe 37bc c64c a83c
00000370: 6899 1cbd b0b7 6fbc 181a e9bc feef 74bd
00000380: 22aa 293d 0fac b4bc 5009 4abc e52f 403d
00000390: e762 6e3c 44ce 5a3d a9f0 0c3d 0a36 4d3d
000003a0: 7890 63bd 495e 3bbd 5e37 12bd 2841 a2bc
000003b0: 502f 1fbd d972 353d f40e 69bd 84be 483d
000003c0: d814 0bbd f49e b6bc b577 253d 38a5 76bd
000003d0: 42fe b53c bfd8 ea3c 4f96 1b3d 632b f83c
000003e0: 8bc2 7e3d 9b78 073d 870e 2ebd 772e 293d
000003f0: 9b36 d0bd 2c55 88bc 8a02 73bd d4dc ee3d
0.05781183 -0.025583616 -0.029587993 0.036850926 -0.044494998 -0.00436724 0.021937152 -0.04756912
0.047626894 -0.09625695 0.05475809 0.058141626 -0.01564674 0.014581847 -0.051342484 0.050247613
0.065214306 -0.05164324 -0.009567641 0.012204379 0.036813784 -0.012757935 -0.043414064 0.058645304
0.09945437 0.036388747 0.045295652 0.03409153 0.05003201 0.023618601 -0.06626543 0.029999524
-0.016020764 0.002001807 -0.051215883 -0.012699217 0.08354333 -4.3272972e-05 -0.030435696 0.07902581
0.07110952 0.02645532 0.07105923 0.0381682 -0.042054974 0.11971067 0.012033411 0.035220377
0.012293162 -0.011737244 0.05057011 0.03980931 -0.043878924 -0.052744016 0.017475136 0.04500045
0.022628604 0.08572542 -0.0493644 0.038914915 0.12253762 0.05578844 -0.020315774 0.09489809
-0.0176097 0.047512297 -0.04916678 0.070342235 0.068042725 -0.02831529 0.0071133515 0.00043950975
-0.036455873 0.04603195 -0.03258743 -0.047454476 -0.076878585 -0.016862504 0.0015141077 -0.017525714
0.03286416 0.10287623 0.083521314 0.079394355 0.03797771 0.05174624 -0.025148816 0.010138035
-0.04776012 -0.07679855 0.0012449392 -0.02987989 0.0474225 -0.037581507 -0.05862637 0.051220823
0.019654864 0.10986538 0.07580541 0.025907747 -0.09977061 0.057148725 0.010983188 0.101559065
-0.022137018 0.0024076975 -0.02942276 0.1062041 0.04354646 -0.015962802 -0.034593564 0.11041739
0.10369175 -0.011376777 0.05957172 -0.0024800329 0.072836906 0.051330976 -0.015284891 -0.014297536
-0.052626714 0.13881314 -0.011162971 0.041179467 -0.0041907877 0.10444048 -0.021925166 -0.009566573
-0.00081835804 -0.015170738 0.02175623 0.02248451 0.029435843 -0.066254675 0.010819579 -0.09437913
-0.02258145 0.045935735 0.04857193 0.096014895 -0.03051433 0.031351164 -0.023706652 -0.017824657
-0.03191836 0.012637846 0.0546162 0.057237152 -0.0110946 -0.0027297856 -0.08613746 -0.06209016
0.032060135 0.08351516 0.025443776 0.10172742 0.0066189393 0.06316488 0.0151757505 -0.03688083
0.082837656 -0.054800376 0.062081244 0.04743067 -0.03327895 0.049088605 0.026090521 0.021862216
0.030374384 0.038374517 0.0002944576 -0.0042505087 0.051832035 -0.046915874 0.056783035 0.018236615
0.022490658 -0.049692523 0.015644252 0.0027889835 -0.061960194 0.06695676 0.015084627 0.042403944
0.10563676 0.038269494 0.1066179 -0.04487381 0.039075233 0.0769336 0.024391728 -0.0019381803
-0.039691605 -0.03300637 -0.043455802 -0.04976969 0.04236958 0.11727079 0.048999585 0.035059623
0.03920955 0.12651832 0.006559191 -0.06353464 0.01115144 0.046398327 0.014362201 0.027207306
0.017782917 0.04136257 0.033861928 -0.025204923 -0.03521248 0.07201102 0.04842121 0.017484702
0.04061311 -0.0035410821 -0.011230103 0.02054442 -0.038232237 -0.014631197 -0.028454825 -0.059799187
0.041422017 -0.0220547 -0.012331322 0.046920676 0.014549947 0.053419366 0.0344092 0.050100364
-0.055557698 -0.045744214 -0.035697334 -0.01980646 -0.03886348 0.04429898 -0.056899026 0.049009815
-0.033955425 -0.022292592 0.040397365 -0.06021616 0.022215966 0.028667806 0.037985142 0.030294126
0.06219725 0.033074003 -0.042494323 0.041304078 -0.10166665 -0.016642176 -0.059328593 0.11663213

net2.4.bias f4 [256]
00000000: 195b 813c 3f8b afbc 3567 253d 84c5 843d
00000010: 982b 1abc 7d8f 90bc 5793 30bc 148a 8dbc
00000020: 9ebf 043c 8a44 82ba 75b7 8e3b 94a2 f13c
00000030: ffe7 213d c8d0 4e3d 3c5b f3bc 693d 853d
00000040: 1279 4f3d c564 813c 9874 113d 0b06 0d3d
00000050: 3a77 2cbd 68d0 953c cb81 113d 1815 a9bc
00000060: f5c7 babc 28fb 5dbd 1de4 55bc c598 1c3d
00000070: 670e 87bc 9282 803c 3e56 cfbc e146 6f3d
00000080: ce8f dabb 7fc9 4bbd e4db 67bd f8a2 48bc
00000090: efcb 153d 78ce 903c 83a4 d8bc 657d f73c
000000a0: 1c54 82bc 825b 933c e1ee 023d 4483 4f3d
000000b0: ce89 6cbd 6e9e 273d 7b29 513d c14e 1ebd
000000c0: 1e56 49bd 28e2 6c3d 3f8d 2fbd b44a 173d
000000d0: 11f9 5e3c 8e3d 593d 8a61 2cbd 6fb1 653d
000000e0: 1aa3 29bb e854 ea3c 547a 173c e243 023d
000000f0: b633 bbbc 409d a93b 4e2a 1c3d b133 333c
00000100: 0297 60bd 6a5a 63bd 9043 1dbd be94 64bb
00000110: 667c 7d3c 57a3 81bc a745 2a3d e08a 043c
00000120: 20ca 4abd 447e 593d d606 763d a05c 693c
00000130: 8f5a b5bc 91d3 4b3d 8c62 15bd d06e 0c3d
00000140: 3f7d 003d 337f 083d d3e1 7c3c fe98 c4bc
00000150: dfbf 913c 6c31 4ebd 3634 b63c fcaa 5ebd
00000160: 4ac1 09bd b79c b63c 7003 c6bc af9d 94bc
00000170: 807f 7b3d 5559 24bc 4baf e03c 8858 4b3d
00000180: 3957 09bd 886e fdbc 283c 7a3b 1c8d b13c
00000190: f36f e6bc 0e75 74bd 3c9d 3abd 174e 723d
000001a0: 9dfd cb3c 382b af3c a4e6 89bc f8df 16bd
000001b0: 3ba5 4c3d b4c1 653d fdbb febc e0bb 223d
000001c0: 5b12 673c ce5c 653d 7252 5ebd 2c5a 75bc
000001d0: 5fb6 2f3d 0098 6f3b a81d db3c 914b 5e3d
000001e0: 24df 803d cf25 5f3d a36a 47bd 44a1 94bb
000001f0: 4b9a 943d e1fe 763c 3cef 54bd c23d fcbc
00000200: 33ea 2e3d 0481 07bc f0f7 77bc 80f8 8ebc
00000210: f646 1cbd 59ea 95bc d2a2 593d c7e6 2abd
00000220: f131 0d3d 052a 8cbc 7ac5 9e3c d878 04bd
00000230: 7080 483d ab1c 19bd 7016 a8bb fcf2 da3c
00000240: 76b2 67bd 6078 debb d3f3 e83b c45b d93c
00000250: 0ba0 c0bc 5790 643d 6281 6d3c fc2a 373c
00000260: 052c 20bd 7986 263d 4bb4 7c3c e5b9 10bd
00000270: 8f63 6dbd 2a9d 643c 0c28 35bc 1ce1 e6bc
00000280: a5ed 4e3d 9339 41bc 2662 253b 74fe 213d
00000290: 2624 f03c d89e ccbb 6edd e93c e44f 803d
000002a0: 4f68 9b3c ccf8 f1bc 4218 953c dd47 643d
000002b0: 19fa 163d 4b1f 0d3d 9030 96bc 82f1 4d3c
000002c0: 2e9c 6dbd 6368 6f3b d6d2 223d 09ad fb3c
000002d0: 3071 803c 320a 093d 12a6 923d 3900 e2bc
000002e0: 34cf ddbc 7e41 463d c00b 303c ce43 85bd
000002f0: b3c0 143d e0a5 cfbc 4613 c73c f137 a73c
00000300: a055 dd3c 4c55 273d 76f6 ef3c c1a5 c73c
00000310: 984b a2bb 9a9d 62bd a2b2 35bd 90b6 1ebd
00000320: 55d0 283c 6a01 d1bc 5aea 51bc 3172 7a3c
00000330: b262 70bd 5441 94bc 1afb 9fbc e730 063d
00000340: 23e3 673d c287 0cbd 7733 bdbb 9f9c 283d
00000350: f21e 55bd 612b 5cbd 3903 323d fa8f 31bc
00000360: 1da7 10bd 48ed 6cbd a749 01bc 4f8f 5c3d
00000370: fed8 413c 076f 0d3d 46e2 383d d739 56bc
00000380: a82f 70bc 40c2 ce3b 0ccd 05bd 8c12 48bd
00000390: d48b f83c 92c3 dc3c e13c 0e3d 0a1b 72bd
000003a0: a4e6 88bc c021 17bd 068b 293d a3c4 d7bc
000003b0: a1dc d5bc 63a8 133c 7061 8a38 b1d7 5bbc
000003c0: 0091 fc3b 9030 a93b 06ef 003d dc91 013d
000003d0: d80e 4c3d 57e1 fa3c 1fab 963b c4ad 01bd
000003e0: 631d f03c 6629 74bd 83ba 50bd 9c5d 243d
000003f0: c913 3f3d b36d d23c 3f49 cdbc 13e1 08bd
0.015790509 -0.021428702 0.04038163 0.064829856 -0.009409808 -0.017646546 -0.010777316 -0.017277755
0.008102326 -0.0009938639 0.004355366 0.029496469 0.03952789 0.050492078 -0.02970659 0.06505854
0.05065257 0.015795121 0.035511583 0.03442959 -0.04210589 0.018287852 0.03552417 -0.020639941
-0.022800425 -0.0541946 -0.013054875 0.03823163 -0.01648636 0.01568726 -0.025309678 0.058417205
-0.006669975 -0.04975271 -0.05660619 -0.012245886 0.03657144 0.017676577 -0.026445633 0.03021116
-0.015909247 0.01798797 0.031966094 0.050662294 -0.05774861 0.040922575 0.05106495 -0.038649324
-0.049154393 0.057832867 -0.042859312 0.036936477 0.013609187 0.05303722 -0.042085208 0.056077417
-0.002588457 0.02860494 0.009245474 0.03180302 -0.022851806 0.0051762164 0.038126282 0.010937617
-0.054831512 -0.055506147 -0.03839451 -0.0034878696 0.015471553 -0.015824957 0.041570332 0.008089751
-0.049509168 0.053098932 0.060065113 0.014243275 -0.022137908 0.049762312 -0.036470935 0.034285367
0.031369444 0.03332443 0.0154347 -0.023998734 0.017791687 -0.0503401 0.022241693 -0.054362282
-0.0336316 0.022291524 -0.024171561 -0.018141596 0.06140089 -0.010031064 0.027427336 0.049644977
-0.033530448 -0.030936494 0.0038182829 0.021673732 -0.028129553 -0.059681945 -0.045560107 0.059156504
0.024901206 0.021382913 -0.01683361 -0.036834687 0.049962264 0.056092933 -0.0310955 0.039729953
0.014103497 0.05599671 -0.054277845 -0.014975112 0.042898532 0.0036559105 0.02674754 0.054271284
0.06292561 0.054479416 -0.04868568 -0.004535826 0.072559915 0.015075416 -0.051985964 -0.030791167
0.04270382 -0.008270506 -0.0151347965 -0.017452478 -0.03815361 -0.018300222 0.053133793 -0.041723993
0.034471456 -0.01710988 0.019381274 -0.032341808 0.048950613 -0.037380856 -0.005129628 0.026727192
-0.056566678 -0.006789252 0.0071091442 0.026533015 -0.023513814 0.055801716 0.014496179 0.011179682
-0.03910448 0.040655587 0.015423845 -0.035333533 -0.057956275 0.013953486 -0.011056911 -0.028183512
0.050519604 -0.011793512 0.0025235503 0.039549306 0.029314112 -0.0062445216 0.028547969 0.06265238
0.018970637 -0.02953758 0.018200044 0.055732597 0.036859605 0.03445367 -0.018333703 0.012569787
-0.058010273 0.0036530725 0.03975185 0.030722158 0.015678972 0.03345699 0.07160582 -0.027587997
-0.027076341 0.048402302 0.010744989 -0.06507073 0.036316585 -0.02534765 0.024301182 0.020412417
0.027018368 0.04085283 0.029292326 0.02437103 -0.004952859 -0.05532608 -0.04435981 -0.038748324
0.0103035765 -0.02551337 -0.012812221 0.015286014 -0.058687873 -0.018097557 -0.019528914 0.03276148
0.0566131 -0.034309156 -0.0057739574 0.04116499 -0.052031465 -0.053752307 0.043460105 -0.010837549
-0.03531562 -0.057843477 -0.007891095 0.053847607 0.01183152 0.034529712 0.045137666 -0.0130753135
-0.0146598 0.0063097775 -0.03266625 -0.048845813 0.030340113 0.026948724 0.034726027 -0.059107818
-0.01671154 -0.03689742 0.04139235 -0.02633888 -0.02610618 0.0090123145 6.598502e-05 -0.013418124
0.007707715 0.00516326 0.03147795 0.031633243 0.049818844 0.030625029 0.004598036 -0.031659856
0.029310888 -0.059609793 -0.05095912 0.040128335 0.046649728 0.025687074 -0.02505934 -0.033417773

net2.6.weight f4 [2, 256]
00000000: 4877 70bd ace0 933d b9db 1d3d 031e 9abd
00000010: 9429 e53c d695 b0bc e4d4 36bb 9ea7 16bd
00000020: ce6b 7abd 31b5 bb3d 6a20 fbbd f835 3fbd
00000030: cff1 b53d a82a ddbc ba03 783d 142c ef3d
00000040: 8a58 573d 95dc 44bc 6880 5d3d 3366 0cbd
00000050: e6c0 333b 7650 633c f1e7 f23c 177f 3a3d
00000060: 9a81 a4bd f423 bebd 0b77 e4bc 457c 99bd
00000070: 5422 05be 575b c5bd 536b 09bd ee69 a4bd
00000080: 370e e4bb 5a7f dc3d 45b0 cf3c cc0e 4a3d
00000090: e055 5c3d 4a50 43bd e878 e7bd 0082 d2bc
000000a0: 8a19 273d 3b4a af3d bae2 80bd 2191 b03d
000000b0: 08f5 fe3c 8ede 3d3d 82a8 a7bd 3ccb c83d
000000c0: e0d6 0c3d 1684 76bd 9c43 28bd 972e 80bd
000000d0: 7c24 d7bc 90ab 6bbd 0255 c23c cd25 093b
000000e0: 4be3 07bd f1c7 ae3c 8a03 68bd 1cf1 563c
000000f0: 5ae0 0c3d 24d9 733d bea8 4a3d 1ec4 7a3d
00000100: c72c 1ebd b854 913c 0c8f c8bc 0b14 f6bb
00000110: c1b0 73bd 4cb6 153e 349d e53d 6476 61bd
00000120: 90c9 c33b d73b 653d db9b c4bd 60a4 203d
00000130: 25c8 5fbd 5b0c 01bd 884b b9bd cc8c 22bd
00000140: c175 5d3d af8a 86bc 172f ebbd 61da fdbd
00000150: e698 9c3c 0bf1 723d 126a 683d c4f2 74bd
00000160: 71b6 163d 2450 a7bd 53e5 193d 2026 0a3d
00000170: 3d7f db3d 01d0 263d 1096 633d aa02 293d
00000180: 1c0f 2f3e 6014 a23c 05de 89bd 970e b33d
00000190: a664 24bd 88f0 5cbd 5cc0 3b3d eace 383d
000001a0: a33d 0abd 287d e9bc 246f 203d 15ac a23d
000001b0: 84bc d0bd d482 02be fd88 c6bd c089 e53d
000001c0: f280 79bd 4e54 0f3d 201f 72bd 2489 a53d
000001d0: 8676 efbd c28a 283d 5820 6ebc 5ed9 5c3d
000001e0: c13a 85bd 0db3 ca3c 0c61 033e c2b5 29bd
000001f0: abf9 113e 8cff babd 9228 113d d32c 133e
00000200: aee5 8ebd 565d 14bd 0cb7 1d3d f03b 073c
00000210: 601a 2ebc 3ee3 65bd ee0c 053e c69c cc3c
00000220: fad1 38b8 7fef 83bd 7ce2 02bc beee a83d
00000230: ccb7 8b3c c24c dabd 5a1b 0e3c fdbd ecbd
00000240: 6c59 1abd 1044 eb3c 8650 b7bd 58d7 223c
00000250: 6ac7 f73c d16d 123d a779 623c b8ee d33d
00000260: 61ff 66bd 8a44 29bd 0fa8 013e 26c3 c5bc
00000270: ff3e 1cbe 642f 80bd 1c7d 0c3e bc89 843c
00000280: baf5 bebd 5b67 c6bd 580d 5c3d d771 90bd
00000290: c0bd 9bbd 9dfa debc cb8e fabd 2fb8 04be
000002a0: 118c 47bd 3639 06bd 4299 3fbd e1ef 633d
000002b0: f9d5 c63c 276b 17bd 31f1 2bbd 555b 3e3d
000002c0: df5e adbb 6b81 d33c 3a2f 6b3d 452d ae3c
000002d0: b8ae bcbc dee5 983d bd19 95bd f53e 283c
000002e0: c8e0 7bbd bce3 0d3d cc14 aebc 23d8 cc3c
000002f0: 499b 9e3b 5463 133d b00d 013e 70a5 c93d
00000300: 4392 613d 53ba 42bd b1c4 6dbd bb65 79bd
00000310: 4aad 913d d264 023d 35e4 c63d c07c 70bc
00000320: 1d9c 603d 49ec f63d 5172 703c f948 1ebd
00000330: 12bd 513d 9439 76bd fed1 ae3d 0f5a 5ebd
00000340: c7a4 d53c 8af4 163d 34b7 7cbb c2ff bfbd
00000350: fe0e c1bd 3bcf eabd af74 143d 427b 443c
00000360: ff7e c53c f826 ad3c 4139 1cbd 083c 5f3c
00000370: b732 8dbd c7fc acbd e93b 1f3d 3ef5 563d
00000380: de8f 203d 46c0 5dbd 3866 3fbd 38be c9bc
00000390: 34eb 4bbd 833f 1b3e 1a22 ecbd 34e2 f1bc
000003a0: b06b 94bd 1dc0 603d 5335 173e 34fd 663d
000003b0: 4922 233c 5563 9cbc d1e1 ecbd 84cf f3bd
000003c0: e648 3c3d 529e 8cbd 9a2b bc3d 846f d0bd
000003d0: a0d1 3abd 0cfa 42bd ec70 c9bd 48a9 42bd
000003e0: 0552 483d fe99 0c3d 0466 43bd 65cf 603d
000003f0: dd77 7fbd 5589 adbd 93ff 86bd 9bd7 673d
-0.058707505 0.07220587 0.038539622 -0.075252555 0.027973928 -0.021555822 -0.0027897889 -0.036780946
-0.061137967 0.09165419 -0.12262042 -0.046682328 0.08884012 -0.02699788 0.06055043 0.11678329
0.05257467 -0.0120154815 0.054077536 -0.034277152 0.002742821 0.013874164 0.029651614 0.04553136
-0.08032532 -0.09284201 -0.027888795 -0.07494406 -0.13001376 -0.09636562 -0.033549618 -0.08028017
-0.0069597024 0.10766478 0.025352607 0.049330518 0.053792834 -0.04768399 -0.11302358 -0.025696754
0.04079584 0.0855908 -0.06293245 0.08621431 0.0311227 0.046354823 -0.08186437 0.09804389
0.03438461 -0.06018456 -0.041080102 -0.06258886 -0.026262514 -0.05753666 0.023722176 0.0020927072
-0.033175748 0.021335574 -0.056644 0.013119008 0.034393646 0.059533253 0.04947733 0.06122219
-0.03861692 0.017740592 -0.024482273 -0.0075097135 -0.059494738 0.14620322 0.11211625 -0.055044547
0.005974956 0.05596527 -0.096000396 0.03921926 -0.054634232 -0.031505924 -0.090476096 -0.039685056
0.054067377 -0.016423551 -0.11483591 -0.12395168 0.019115876 0.059311908 0.05674178 -0.05980183
0.036795083 -0.081695825 0.037572216 0.033727765 0.10717628 0.04072571 0.055563033 0.041262306
0.17095608 0.019785106 -0.067318 0.08743017 -0.04013505 -0.053940326 0.045837745 0.045119204
-0.033750188 -0.028502062 0.039168492 0.07942978 -0.101922065 -0.1274522 -0.09694097 0.11207914
-0.060913987 0.03499251 -0.059111714 0.08082798 -0.116925284 0.041147955 -0.014534079 0.053918235
-0.06505347 0.024743581 0.12829989 -0.041433103 0.14255397 -0.09130773 0.03543908 0.14372568
-0.06977402 -0.036221825 0.038504645 0.008254036 -0.0106264055 -0.05612492 0.12993214 0.0249771
-4.4064574e-05 -0.06442165 -0.007988568 0.082486615 0.017055415 -0.10659172 0.008673513 -0.11559675
-0.037682936 0.028718978 -0.089509055 0.009939037 0.030246455 0.03574926 0.0138229495 0.10348266
-0.056395892 -0.04132513 0.12661766 -0.024140906 -0.15258406 -0.06259039 0.137196 0.016178958
-0.09324212 -0.09687682 0.053723663 -0.07052963 -0.07604551 -0.027219111 -0.12234267 -0.12960885
-0.048717562 -0.032769404 -0.046777017 0.05564869 0.024271952 -0.036967423 -0.041978065 0.04647382
-0.0052908505 0.025818547 0.057418086 0.02126182 -0.023032531 0.07465719 -0.072803 0.010268916
-0.061493665 0.034641013 -0.021250151 0.025005406 0.004840289 0.0359834 0.12602878 0.09846008
0.055071127 -0.047540974 -0.058048908 -0.060888033 0.071131304 0.03183443 0.09711496 -0.01467818
0.05483638 0.120567866 0.014675693 -0.03864381 0.051205702 -0.060113505 0.085361466 -0.054285105
0.026079549 0.036854304 -0.0038561346 -0.09374954 -0.09426688 -0.11465307 0.03624409 0.011992278
0.024108408 0.021136746 -0.03814054 0.013625152 -0.06894439 -0.08446651 0.038875494 0.052479975
0.039199702 -0.054138444 -0.046728343 -0.024626836 -0.049784854 0.15160947 -0.11529942 -0.029526807
-0.07247102 0.054870714 0.14766435 0.056393817 0.009956905 -0.019090334 -0.115665086 -0.11904815
0.04596796 -0.06866135 0.09188004 -0.1017752 -0.04561007 -0.047601745 -0.09835991 -0.04752472
0.048906345 0.034326546 -0.04770471 0.054885287 -0.06237017 -0.0847346 -0.06591716 0.0566021

net2.6.bias f4 [2]
00000000: 5824 743d b129 603d
0.059604973 0.05472726
