training/save_ddpg_weights/DDPG_R1_actor_network_s3.pt (torch, 734843 bytes, 13 tensors)

net1.0.weight f4 [3, 1, 3, 3]
00000000: fd4a 09be 4e2e fc3d 6841 5e3e e3f5 283d
00000010: 76a4 333d bf89 8c3e 56ce 5e3e 2807 713e
00000020: aab1 903e 83a0 473e 8673 2d3e 0e76 a4be
00000030: 1ef2 41be a2d3 8e3e c2e9 a7be 8b1e 083d
00000040: 56de f7bc 5e30 203e 53fa 193e 482d 29be
00000050: 0ac9 a5be 1624 a93d 3398 4f3e 0bdc 06bd
00000060: e621 2f3e f4ad 86be 2efd 5cbe
-0.13407512 0.123135194 0.21704638 0.04125012 0.043858014 0.27448842 0.21758398 0.23537886
0.28260547 0.19494824 0.169386 -0.3212132 -0.18940017 0.27895838 -0.3279553 0.033232253
-0.030257385 0.1564345 0.15036897 -0.1652118 -0.32379943 0.08258836 0.20272903 -0.032924693
0.17102775 -0.2630459 -0.21580955

net1.0.bias f4 [3]
00000000: e6f1 403e 061a 6bbe b384 21be
0.18842277 -0.22959146 -0.15773277

net1.2.weight f4 [3, 3, 2, 2]
00000000: a6af bdbd be14 5bbd 6cf4 133e c871 8fbe
00000010: b5b6 503e 7a9c 2f3e a610 113e ee35 b63d
00000020: 5cf4 c63d 6e31 69be facb bf3d 5639 603e
00000030: 9505 79be 6428 f73d d69c 873e 5069 783e
00000040: 2934 193e 8242 d2bc 15bd 82be 1c04 87be
00000050: b28c 903e 839c 29be 1fe7 1b3e d00c b5bb
00000060: d958 bebd 6a56 35be ea0a 163e f2a0 8f3e
00000070: 5561 29be d796 6dbd 7a1a 90be a0a7 89be
00000080: 4b30 2a3e fc75 6c3e d926 513d 13e2 923e
-0.09262018 -0.05348658 0.14448708 -0.28016496 0.20382197 0.17149535 0.14166507 0.08897005
0.097145766 -0.22772762 0.09365077 0.21896872 -0.24318536 0.12068251 0.26486844 0.24258924
0.14961304 -0.025666479 -0.25534883 -0.26370323 0.28232342 -0.1656361 0.15224884 -0.005525209
-0.0929429 -0.17708746 0.14652601 0.2805248 -0.16541035 -0.05800518 -0.281452 -0.268857
0.16619985 0.23091882 0.05106244 0.28688106

net1.2.bias f4 [3]
00000000: 9b39 11bd 012d 84bd f01f 27be
-0.035455327 -0.06453896 -0.16320777

net1.4.weight f4 [1, 3, 2, 2]
00000000: a362 3d3e c9a2 263e 825e 1c3d d406 19be
00000010: 3099 8c3e d661 de3d fc16 e43d 3ae0 253c
00000020: 4a8b d03d d2e8 4d3e 195a 43be 8ad7 87bc
0.18494658 0.16273035 0.038176067 -0.14944011 0.27460623 0.108585045 0.111371964 0.010124261
0.10182817 0.20108345 -0.19077338 -0.01658227

net2.0.weight f4 [256, 196]
00000000: abdb 803d 257c 43bb 0590 73bd ca82 4c3d
00000010: c0ce a3bc cea3 913c 5c0b c63b 1351 0abd
00000020: 705b 0fbd 17f1 59bd c776 153d dccd 493b
00000030: 9a10 5fbd 4ea2 fb3c 78b9 773d 4f27 92bd
00000040: 3727 93bc 3774 85bd 81ef e33c 3783 2bbc
00000050: 3e17 65bd 88ee 6a3d 2cc1 393d 4aed 14bd
00000060: a5c0 5abd 1196 2c3d dc1d 47bc 5e16 8bbd
00000070: 7311 25bd ee1c 4ebd 8118 4f3d 9371 703c
00000080: e382 65bd e8e9 753d 1c54 233d a53f 983b
00000090: b700 0bbd b726 34bc d38c 96bc d8f2 ecbc
000000a0: c1a1 5ebd 6aed 8ebc acae 7bbd 16b4 8cbd
000000b0: 33bc 5c3d 4ab1 333b 6caa 74bd 0369 85bd
000000c0: bce1 1cbd 3763 ac3c d710 09bd 842b 82bd
000000d0: dce5 b93c 1763 94bc 1cd0 05bd 21d0 ad3c
000000e0: a519 b03c 1cd0 f9bc 9526 623d ea4b 753d
000000f0: 9341 0f3c d3d8 9c3c 7ca5 90bd a839 61bd
00000100: 474d 383d b83e 65bd 0a9f f0bc 8126 e83b
00000110: 71c7 34bd 6ec4 ca3c 85e8 57bd 80bb 21bd
00000120: 21ea c9bc da87 2fbd a78f 34bd e53f 5cbc
00000130: da13 57bd 6114 f33c f335 5ebd 859c c6bc
00000140: 17e5 8fbc bcee af3c 556e 833d 6c6e 603d
00000150: 6201 923d c5ea 323d 852b c0bc 136a ad3c
00000160: a55a 7dbc ba07 173d b79f a5bc cca6 7ebd
00000170: deb8 59bd 2583 2bbd 757b 853d bcc3 65bd
00000180: ca49 b1bb fc02 ffbc b5cb 0dbd 3c4d bb3c
00000190: f4a1 8ebd 1c0a ff3c dc4d ddbc 45df e83c
000001a0: f50e 3dbd 9aeb 6f3d 350d 05bd 4587 6ebd
000001b0: dacd 66bd 2ef3 213c d451 89bd 559d 7e3d
000001c0: 93e9 68bb 1acc 263d b851 6f3c 0098 073c
000001d0: 9eb7 2f3d 4aaa 133a aeea 133d 4e9c 86bd
000001e0: 4138 f03c f78a 9b3c 1c44 1c3c 8df5 83bd
000001f0: e596 aabc 6edb a7ba 2244 8b3d 93fc a8bc
00000200: 7c77 363d e8ab 8d3d d6c8 87bd 9aec 3e3d
00000210: 471a 27bd bd73 91bd 9a50 3c3d 43c8 36bd
00000220: 0149 e93b 93ea ef3a 25c6 d9bb 3e2a 4c3d
00000230: 4a8c 7fbc a804 89bd 0131 2c3b 37dc d03b
00000240: dc6b 26bc ca48 6abd 4ead 783d b785 c13a
00000250: 6e41 dbbb 0514 5b3d a1df 52bd c8cd 5cbd
00000260: 17b2 d3bc 075f 2ebd 25f2 60bb 2755 4bbd
00000270: 1c78 2e3c e523 583d ce1b f0bc 1790 2d3d
00000280: b333 863c 7767 27bc ee79 0dbd e7ae 4dbd
00000290: 1328 89bc 839a 14bd 5a3c 153d 97c2 123d
000002a0: ae67 5dbc 0eb5 8dbc 0a59 603d 93eb ca3b
000002b0: 8a5f 063d 5366 29bc a361 203d 3317 9ebc
000002c0: 2c4a 0b3d 9e12 4f3d 3caa febc 18ff ed3c
000002d0: c377 3c3d 5c2e cabc 1787 9c3c 2acd 8a3d
000002e0: d387 173d d75e b63c 4a20 ee3a 2ed7 79bd
000002f0: 2e7c 0a3d ae7c 433c 7c59 65bd 25d9 abb9
00000300: 5c44 8bbc 2eab 45bd 45de cdbc 9c71 76bc
00000310: 4ca3 09bd 45b9 3a3d b508 10bd 379c 9a3c
00000320: 4a67 593d c5b5 8abd e188 50bd 00db 833c
00000330: f358 81bc f2bb 86bd d318 b7bc 0ef1 fc3c
00000340: 3b6a 843d 0003 9bbb 8eba e33c 233b 433d
00000350: 8302 733d e79e 533d c322 713d eac4 163d
00000360: 1ad7 723d dce3 15bc b813 e6bc d821 62bd
00000370: 45bc 6fbd b767 093c ca5b 8e3d 53fe a1bc
00000380: 21c0 e13c 9338 7dbc 45d1 b0bc f587 553d
00000390: 6eb4 023c 9eb9 003d b7ff 8abb 9e30 3ebd
000003a0: eac9 ff3c dc5f 02bd 25c7 dcbc 2ab8 61bd
000003b0: 6ef7 443b aebb bd3c e3c0 283d 6546 3c3c
000003c0: aedc 753d 1285 83bd a5a0 d63b 9355 583c
000003d0: 25fd 093c d3df a43c 1566 66bd 20cb 953c
000003e0: b01a 263d cac8 923c dc63 51bc 0194 b0ba
000003f0: 8586 4ebd 4691 91bd ce40 b83c fcff 51bd
0.06291898 -0.0029828635 -0.05946352 0.049929418 -0.019996047 0.017778303 0.0060438346 -0.033768725
-0.03499931 -0.053208437 0.036490228 0.0030792868 -0.05445919 0.030717041 0.06047961 -0.07136404
-0.017963035 -0.06516307 0.027824165 -0.010468296 -0.05593037 0.057356387 0.04535024 -0.03635911
-0.053406376 0.042135302 -0.012153115 -0.067913756 -0.040299844 -0.05032056 0.050560478 0.014675516
-0.056033026 0.060037524 0.039875135 0.004646259 -0.03393623 -0.010995558 -0.018377697 -0.02892439
-0.05435348 -0.017447192 -0.061445877 -0.06870286 0.05389042 0.0027418905 -0.05973284 -0.0651417
-0.038301215 0.021043403 -0.033463325 -0.06355956 0.022692613 -0.018113656 -0.03266917 0.021217408
0.021496603 -0.030494742 0.055212576 0.05988685 0.008743661 0.019146359 -0.07062814 -0.054986626
0.044995572 -0.055968016 -0.02937271 0.007084668 -0.044135515 0.024751868 -0.052711982 -0.039485455
-0.024647774 -0.042854168 -0.04408231 -0.013442968 -0.052509166 0.029672803 -0.05425067 -0.024244556
-0.017565293 0.021476142 0.064175285 0.054792807 0.0712917 0.043680925 -0.023458252 0.021168744
-0.015463506 0.036872603 -0.02021776 -0.06217079 -0.05315482 -0.041873116 0.06517688 -0.05609487
-0.0054104077 -0.031129353 -0.0346181 0.022863977 -0.06964484 0.03113275 -0.027014665 0.028426776
-0.046156842 0.058574297 -0.0324833 -0.05823447 -0.05634866 0.009884639 -0.067050606 0.062161762
-0.0035539612 0.04072199 0.014606886 0.008275986 0.04289972 0.000563298 0.03611248 -0.065727815
0.029323699 0.018987162 0.009537723 -0.064433195 -0.020823905 -0.0012806484 0.06800105 -0.02062825
0.044547543 0.06917554 -0.06630103 0.04661236 -0.040796544 -0.071021535 0.045975305 -0.04462458
0.0071192984 0.0018304161 -0.006645935 0.049844973 -0.015597412 -0.06690341 0.0026274326 0.006373908
-0.010157552 -0.057198323 0.06071215 0.0014764582 -0.0066911494 0.05348589 -0.0514828 -0.053907186
-0.025841756 -0.042571094 -0.0034324017 -0.049641754 0.0106487535 0.052768607 -0.029310133 0.042373743
0.016382074 -0.010217539 -0.03454011 -0.050215628 -0.016742742 -0.036280166 0.03643451 0.035830107
-0.013513489 -0.017298248 0.054772414 0.0061926334 0.032805957 -0.010339337 0.039155614 -0.019298172
0.034006283 0.050554864 -0.031087033 0.029052302 0.04601265 -0.024680309 0.019107385 0.06777413
0.036994766 0.02226202 0.0018167582 -0.060996227 0.033809833 0.011931581 -0.055993542 -0.00032777447
-0.01700037 -0.048258953 -0.0251304 -0.015041735 -0.033602998 0.045586843 -0.035164554 0.018873317
0.05307702 -0.06772951 -0.050911788 0.016095638 -0.015789485 -0.065788165 -0.022350704 0.030876663
0.06465574 -0.0047305822 0.027798917 0.04766382 0.059328567 0.051665213 0.058871042 0.036808886
0.059287168 -0.009148564 -0.028085575 -0.055208057 -0.058529157 0.008386544 0.06951101 -0.019774592
0.027557435 -0.015455383 -0.021584162 0.05213161 0.007977588 0.03142702 -0.0042419094 -0.046433084
0.03122421 -0.0318297 -0.026950428 -0.055107273 0.0030054706 0.023160782 0.041199576 0.011491393
0.06002491 -0.064218655 0.006549912 0.013203996 0.008422171 0.020126259 -0.056249697 0.018285334
0.040552795 0.01791801 -0.012780156 -0.0013471843 -0.050421257 -0.07107787 0.022491839 -0.051269516

net2.0.bias f4 [256]
00000000: 6a4b 7dbd 0844 74bd 8905 533d bfb7 e5bc
00000010: f2ab 3dbd 53f1 d43a c1fd 693d 63b8 7abd
00000020: 24de 933c 8a83 6a3c 4e46 54bd 57b0 883d
00000030: a15e e43c 6e94 c1bb 057d 913c 60cb 2e3c
00000040: 2a95 6c3d 1d26 4b3d 6f02 8c3b f5d3 dfbc
00000050: 9165 31bd ea34 6c3d dc55 6d3d 4e7a 83bc
00000060: 0a39 50bc ab42 ebbc 73e7 873d 133f 25bd
00000070: 0e7d af3b 8371 913d b5dc 8dbc e724 b33d
00000080: df62 293d 164d 6abd 46dd debc faf3 f43c
00000090: 4a2d 413d 5753 48bd d59f 343d f07a 73bd
000000a0: c340 793c 3940 843d 15eb 543d 8e97 fdbc
000000b0: abbc 2bbc e397 59bd 6a80 c2bc a168 d9bc
000000c0: a830 603d 4a60 a6ba be91 313c e19b 04bd
000000d0: d036 083d 7758 f23c 5de3 423d 8b09 8e3d
000000e0: f1c5 35bd 0c2c 2abb 4f6a 9f39 1df5 853d
000000f0: 132c fd3b cea6 533d 13a0 17bb 1826 c8bc
00000100: 91a5 35bd a32c 66bd e6d8 6d3d c1e7 ec3c
00000110: 6277 53bc aa46 603d d27d 7b3d a734 20bd
00000120: b109 923d c11f 63bd 6537 993d e252 7e3d
00000130: 405b 1abc 5b3d d7bc 543f 9b3d c668 f7bc
00000140: 3a27 1cbd 0b3f 84bd 57b3 5a3d 01c9 793d
00000150: 4888 62bd c85c a03c e30b 92bd 0232 eabc
00000160: 983e 06bd d19f 733d 3fe1 f5bb e8a3 893d
00000170: d971 02bd 0123 f6bb 6b4e 023d 5d51 c2bb
00000180: deab 093c f855 84bd 5911 babc a6cc 713d
00000190: 7328 203d 0e44 f8bc c19b bc3c db9f da3c
000001a0: 5551 273d 4f5f 9dbc 8d75 e4bb 8e82 5ebd
000001b0: aa91 1b3d 8bfa 1a3d b5a9 08bd 5561 a83c
000001c0: 6e71 ebbc b54e 72bd 0847 54bd 0591 083d
000001d0: 5382 e83c 458e 78bc 0576 3dbd bb8e 953c
000001e0: ed20 23bd dcc9 843c 6c30 90bd 7e10 73bd
000001f0: 3c59 e33c bdc1 3f3d 0595 f5bc dc56 aeba
00000200: 1cb2 383d 4a51 803d fc5d babc a559 bb3b
00000210: b191 163d 0e1e b63c 41da 933c ddc3 91bd
00000220: 65d4 a4bc 0a6c 873c 8e6e 4fbd 5a44 553d
00000230: eeb7 c4bc b6b2 093c 38a1 64bd 3758 193d
00000240: cea1 f9bc b82f 2bbd 1d0f 4c3b ea94 79bd
00000250: c3d1 dd3c 154b 16bd a7ee cb3c 1089 a1b9
00000260: 6e29 95ba 75ff 7a3d 8ade da3c 2c7a e0bc
00000270: 0d5c 3b3d e3dc 773d 2bd5 06bd 0974 723c
00000280: 6eff 3c3c 2fbb be3c 513e 6e3d c5c5 7a3d
00000290: eecb 823b 8571 673d 7627 4e3d 9c97 663d
000002a0: 859d b9bc 4908 f6bc f52e 2e3d fe2a 37bc
000002b0: 00ee 8bbd 6e32 873c fb11 533c feac 6cbd
000002c0: 3b4d 4abd c95b 11bd 0d06 aabc d8a0 d13b
000002d0: d2e5 143d 7003 ac3d db4c a13c 5e7d b7bc
000002e0: b30e 2ebc d777 863d 85d1 d83c 54ba 42bd
000002f0: eee2 d33b a918 94b8 0c88 1e3d ee95 1abd
00000300: 0039 823d 489a 613d 4529 183d 8255 333c
00000310: e5b7 a9bc de70 6b3d 8afb cf3c 9573 5d3d
00000320: 11dc cc3c 6709 823d c5f4 21bd 7e03 b73c
00000330: 174a 2a3d a737 46bd 3892 82bd 146c e9bc
00000340: 498f 2d3d 8eb9 813c f317 ea3c dd10 0f3c
00000350: 1c29 163c ac9d 6e3d 0c9e 003c f92d 5c3d
00000360: 9a17 643d 0af4 7abd 7c26 85bd 44a6 893d
00000370: b3f4 b23c 5bb7 89bd fedf 36bd 2327 3abd
00000380: 1d76 83bd df69 8a3d b297 84bd 1cfd 4b3d
00000390: 6a05 5c3d ea80 5bbd ee92 1fbd 68a8 3f3c
000003a0: e300 67bd e0da 9dbc aeac 2abd 2ce0 05bb
000003b0: 7a91 7fbd 50a1 1cbd 18c1 943c a518 7d3d
000003c0: 7b6a fabb fb92 bf3c 9c4e 69bd ea22 123d
000003d0: 5c8f 1cbc 7e56 cc3c 2eee 70bc f48e 313d
000003e0: 2bdf 163d 7111 953d 81ae 4f3c 8e5b babc
000003f0: 9027 1d3d 3751 59bd b326 503d 7d5a 1f3d
-0.0618395 -0.059635192 0.05151895 -0.028041719 -0.046306558 0.0016246237 0.057126764 -0.061211
0.01805026 0.014313588 -0.05182486 0.06674259 0.027877154 -0.005907587 0.01775981 0.010668606
0.05775944 0.049596895 0.004272751 -0.027322749 -0.043309752 0.05766765 0.05794321 -0.01604953
-0.012708912 -0.028718313 0.06635942 -0.040343355 0.005355484 0.07101729 -0.017317155 0.08747273
0.041354056 -0.05720242 -0.02720512 0.029901493 0.04716233 -0.048907604 0.04409774 -0.059443414
0.015213194 0.06457562 0.051982004 -0.030956056 -0.010481994 -0.053123366 -0.023742873 -0.026539149
0.054733902 -0.0012693491 0.01083797 -0.03237522 0.0332554 0.029583199 0.04758011 0.06935414
-0.044378225 -0.0025966195 0.0003040605 0.06540892 0.0077262013 0.05167275 -0.0023136183 -0.024432227
-0.04434735 -0.056194913 0.05806818 0.028919103 -0.012906881 0.05475489 0.06139929 -0.039112713
0.07130755 -0.055450205 0.07481269 0.062090762 -0.00942117 -0.026274374 0.07580438 -0.030201327
-0.038123347 -0.06457337 0.053393688 0.060982708 -0.05530575 0.019575492 -0.071311735 -0.028588299
-0.032774538 0.059478585 -0.007503658 0.06720716 -0.031846855 -0.007511497 0.031813066 -0.0059301094
0.008402793 -0.0646171 -0.02271335 0.05903306 0.039101075 -0.030305889 0.023023488 0.026687553
0.04084905 -0.019210486 -0.006972021 -0.054323725 0.037980713 0.037836593 -0.03336497 0.020554224
-0.02874061 -0.059157092 -0.051825553 0.033341426 0.028382456 -0.015170638 -0.04625513 0.018256536
-0.039826322 0.016209535 -0.07040486 -0.0593419 0.027752511 0.046815623 -0.029978285 -0.0013301033
0.045091733 0.06265505 -0.022749893 0.0057174736 0.036760036 0.022231128 0.018048408 -0.07117436
-0.020120809 0.01653101 -0.050642543 0.05206714 -0.024013486 0.008404424 -0.055817813 0.037437644
-0.030472662 -0.041793555 0.0031136938 -0.06093303 0.027077561 -0.036692698 0.024894072 -0.00030810433
-0.0011380145 0.06127878 0.026717443 -0.027402006 0.045742083 0.06051339 -0.032918137 0.014798173
0.011535509 0.023282615 0.0581649 0.061223764 0.0039915955 0.056504745 0.0503306 0.05629693
-0.022658119 -0.030033248 0.04252525 -0.011179684 -0.06832504 0.016503539 0.012882705 -0.057782166
-0.04939006 -0.035487924 -0.020754838 0.006397348 0.036351986 0.08399093 0.019689968 -0.022398647
-0.010623622 0.065658264 0.026467094 -0.047540978 0.006466261 -7.061783e-05 0.038703963 -0.03774064
0.06358528 0.055078775 0.037148733 0.01094568 -0.02071757 0.057480685 0.025388498 0.054065306
0.02500728 0.063494496 -0.03954007 0.022340532 0.041574564 -0.048392918 -0.06375545 -0.028493918
0.042372975 0.01583555 0.028575873 0.008732048 0.009165075 0.058255836 0.007850181 0.05375478
0.05568657 -0.06126789 -0.06501481 0.06721166 0.021845197 -0.067244254 -0.04464721 -0.04544748
-0.06419013 0.067584746 -0.06474246 0.04980193 0.0537161 -0.05358974 -0.038958482 0.011697866
-0.05639733 -0.019269407 -0.041668586 -0.0020427806 -0.062394597 -0.038239777 0.01815848 0.06179108
-0.007642088 0.023385515 -0.056959733 0.035677828 -0.009555664 0.024943586 -0.014705224 0.04334922
0.036833923 0.07278717 0.012675882 -0.022748735 0.038367808 -0.053055968 0.050818156 0.038904656

net2.2.weight f4 [256, 256]
00000000: 7a95 2ebd 12e4 083d 3a08 403d 3e0e bb3c
00000010: c485 30bd ba42 a73c 8821 a93c 144c 69bd
00000020: 0551 4a3d 92a9 1a3d 8af4 053d 4a21 2d3d
00000030: 0c72 833c 30ca dbbc 724c 1dbd a3e2 c23c
00000040: 017a 28bd f9cf 983c bf75 8cbc d7ee ad3b
00000050: 603b efbc 2806 083d 0877 633d 3843 3c3d
00000060: 7668 28bd 9681 d73d 60ad 953b 6480 49bd
00000070: 4cf8 423d 76d9 243d 3df8 8dbc 5aa0 aebd
00000080: 8c67 413d cbab 7ebc 7cc8 18bd 2ab0 25bd
00000090: 38e0 7dbc 2c6f d3bc 682d 0a3d 2bd7 81bc
000000a0: 9341 bc3b b3c2 eabc da74 323d 5004 393d
000000b0: 6097 133d a0f2 28bd 60fa 573d f859 d53c
000000c0: 8e0e 6abd bcd3 acbc 40e5 41bd f011 b73d
000000d0: 6535 49bd 4c2c 4bbb 165d d33d 281b 98bc
000000e0: 80c0 423d 612d 633d cbb7 683c 3a88 21bd
000000f0: 4c11 1a3d 0462 8cbc 4f83 193c 6f02 d1bc
00000100: c69f 173e 56ac 553d 5dbb 193c 0007 f0b9
00000110: 5a69 f23d 4c71 833c 4ade c63c a47c 3a3d
00000120: 2d89 21bd ac2c 78bd cddf 25bd 8c63 733d
00000130: 185e 7b3c 50ae da3c e6d7 8c3c d72b 843d
00000140: 4db3 da3c 8057 663d 407b ca3b 8d57 8abd
00000150: 5967 82bc 3aef de3b 8ed8 30bd 5470 7dbd
00000160: 3aed 113d a441 8dbc 1c53 573d d0d1 273d
00000170: 8f81 913c f0b6 8f3c 70e4 e8bc 0578 77bd
00000180: 3945 be3c 1028 c03b 65ff 82bc f78a 94bc
00000190: c8c3 663c 7089 ae3b 941f 38bd ca33 da3c
000001a0: 3cb3 2f3d 58c4 543d 5965 063c 0a26 57bd
000001b0: c461 b9bc 7fe9 2f3d e2f5 1abd 0d38 e7bc
000001c0: 4001 b23b 9a94 7f3d c516 47bd 58b8 35bd
000001d0: b0ee a03b 98c0 5b3d b090 9d3d af9a fe3d
000001e0: 54e6 903c b02d f03c 2506 433d 701c fe3b
000001f0: c499 3cbd d94c 173b 5000 fbbb a8b4 763c
00000200: d8ca 903c 9919 de3c d85f 243c 54f5 a0bc
00000210: 47e8 1c3d 2016 21bc dc1c cdbc 88cf d8bc
00000220: c4eb 51bd 54eb 883d e6e3 663d 4c2d 2a3d
00000230: 0f87 4cba de89 15bd a28c 613d 08cc 5abc
00000240: 8050 0a3a 5949 27bd b44e bd3d 0640 693d
00000250: 61cd 5b3d 84cd efbc b3df 743d 4c9e 23ba
00000260: fcbf 05bd ecf3 83bc f44b d13c 0b33 d63b
00000270: 9bd5 0e3c 6b8e 00bd f627 8ebb 8a7d aa3d
00000280: 5050 a7bb 0a88 853d 0042 883b b9a4 9fbd
00000290: 102f ea3b 288b 453c 223e 923d 1485 7b3d
000002a0: 1c2c 91bc 74f4 55bd 0aa9 623b 5bef 433d
000002b0: 04c7 9fbc b011 cb3b 154f 51bd f088 af3c
000002c0: a507 193c 87bc 573d 1480 473d 3035 84bd
000002d0: a845 bcbc 1747 a23c 04d5 a63d b814 96bb
000002e0: 4752 dabc b4a3 8dbc 1010 1a3c 21c0 78ba
000002f0: 7a7a 1f3d 6c28 f83d f0e8 d4bb b88d 073d
00000300: 385e 553d 9876 603c e0f3 2f3d d5a9 883c
00000310: 2661 23bd b917 b23c 9b77 82bc 21db fb3d
00000320: 8a6d 163d 349e 2c3d de75 173d bb5d 933d
00000330: 4cb7 d43c 5adb 993d 85cc 9d3d 36f5 0b3b
00000340: 79d1 873c ae39 1cbd a266 1c3d 847d 113d
00000350: 5616 cd3d 0045 39bc 8f93 52bd 2107 563d
00000360: 06b4 7f3d 2036 363d 6ecb 8c3d ed2f 1c3d
00000370: 10ba 21bd 1c0e f03c 5c50 b03c 0051 bcb9
00000380: 18ff d73c 174f 223d 567f 263d 12f2 5f3d
00000390: b8cf 833d 0247 06bd f254 79bd 228f 103d
000003a0: 3e20 2e3d 8942 c43c 58a6 033e 454a 00bd
000003b0: 7e33 30bd 905d 643d 3f17 793c 72ac 003d
000003c0: 6407 1abc fddf 3b3d c014 9b3a 2072 f23c
000003d0: 0c83 42bd d73c 3f3d f870 45bc fe7e 77bd
000003e0: 8778 e93c c761 423d 2e0f 4a3d 30d7 863b
000003f0: 6cef 5cbd 5ae0 383d 14f1 553c 07dc 17bc
-0.04262302 0.03342063 0.046882845 0.02283394 -0.04309632 0.02041756 0.020645872 -0.05695732
0.049393672 0.03775937 0.032703914 0.042268075 0.016045593 -0.026829809 -0.038402982 0.02378971
-0.041131977 0.018653857 -0.01714599 0.005308013 -0.029203117 0.033208996 0.05553344 0.045962542
-0.041115247 0.105227634 0.004567787 -0.04919471 0.047600076 0.04024645 -0.017330283 -0.085266784
0.04721789 -0.015543888 -0.03730057 -0.040451206 -0.015495352 -0.025809847 0.03373471 -0.01584967
0.0057451217 -0.028657293 0.04356847 0.04517013 0.036033034 -0.04124701 0.05272901 0.026043877
-0.057142787 -0.021097057 -0.04733777 0.08938968 -0.049123187 -0.0031001745 0.10320489 -0.018567637
0.047546864 0.0554632 0.014203976 -0.039436556 0.03761415 -0.017136581 0.009369685 -0.025513856
0.14807042 0.052166305 0.00938305 -0.00045781583 0.118365005 0.016045235 0.024275918 0.045529023
-0.03943746 -0.060589477 -0.040496636 0.059421107 0.015342258 0.026694447 0.017192792 0.06453674
0.026696825 0.05623579 0.0061792433 -0.0675498 -0.01591842 0.0068034204 -0.043175273 -0.061874703
0.035626628 -0.017243214 0.052569494 0.040971577 0.017761974 0.017543286 -0.02842924 -0.060417194
0.023226367 0.005864151 -0.015990922 -0.01813267 0.014084764 0.0053264424 -0.04495199 0.026636023
0.04289554 0.05194506 0.008202874 -0.05252651 -0.022629626 0.04294729 -0.03783215 -0.02822497
0.005432278 0.062397577 -0.0486057 -0.044365257 0.0049112663 0.05365047 0.076936126 0.12431847
0.017687954 0.02931866 0.04761328 0.007754855 -0.04604508 0.0023086576 -0.0076599494 0.01505772
0.017674848 0.027111815 0.010032617 -0.019648232 0.038307454 -0.009831935 -0.025038175 -0.026466146
-0.051250234 0.0668551 0.056369685 0.041547105 -0.0007802108 -0.036508434 0.05506576 -0.013354309
0.00052762777 -0.040841434 0.09243527 0.056945823 0.05366266 -0.029272802 0.05978365 -0.00062415446
-0.032653794 -0.016107522 0.025548913 0.0065368465 0.00871792 -0.03138582 -0.00433826 0.08324726
-0.0051060095 0.06520088 0.0041582584 -0.0779509 0.0071467236 0.012057103 0.07140757 0.06140621
-0.017721228 -0.05223508 0.0034585618 0.04783569 -0.019504078 0.006197177 -0.05110081 0.021427602
0.0093402015 0.052670028 0.04870613 -0.06455457 -0.022982433 0.019809289 0.08146098 -0.0045801066
-0.026650561 -0.017289974 0.009403244 -0.00094890787 0.038935162 0.12117085 -0.006497495 0.033094138
0.052091807 0.01370015 0.042957187 0.016682545 -0.03988757 0.021739827 -0.015926173 0.12297655
0.03672556 0.04214306 0.03697764 0.07195612 0.025966309 0.07512541 0.07705025 0.0021355874
0.016579377 -0.038140945 0.038183816 0.03552009 0.10014026 -0.011307955 -0.051410254 0.052252892
0.062427543 0.04448521 0.06874739 0.038131643 -0.039484084 0.029303603 0.021522693 -0.00035918504
0.026366755 0.039626207 0.04064878 0.054674216 0.064361036 -0.032782562 -0.060872026 0.035292752
0.042511217 0.023957508 0.12856424 -0.03132083 -0.043017857 0.05575329 0.015203296 0.031414457
-0.009401176 0.04586791 0.0011831746 0.029595435 -0.047488257 0.04668888 -0.01205086 -0.060423844
0.028499855 0.04745653 0.049330883 0.004115008 -0.053939268 0.045135833 0.013057966 -0.009268767

net2.2.bias f4 [256]
00000000: f99d 543c 2cf4 cf3c 73cc 05bd 667a be3c
00000010: c74f efbc 8646 2c3d 1458 833d 7087 fbbb
00000020: 4c66 59bb 1286 a8bc c947 293d f0b1 e13c
00000030: f2a3 23bd 15f9 31bd ab10 4c3d f6c4 0fbd
00000040: 9b60 e6bc 816b 4c3d 503e 38bd a209 3ebd
00000050: 69f6 413d 8af4 17bd 98a7 5abd c273 493d
00000060: 6d19 32bd eeab 963b 7174 8a3d a99f 9b3c
00000070: 878f 97bc 0359 593d d85d 173c 0c7d cf3c
00000080: c17a 093d 746b c1bc 20eb b93c 5fd2 043c
00000090: 9e9d 6c3c 9432 73bd 1a95 43bd 1e0b 6f3d
000000a0: 7a21 463d 4e1e 3cbd a9ff 3fba 9690 3bbd
000000b0: 2ecb 8d3d 8430 3f3d 9864 2cbd c291 283d
000000c0: 0c09 45bd 899d a1bb 13c8 fbbb 9656 30bd
000000d0: d9a7 393d 4543 563c 1ebb 0b3d 3f5e 903d
000000e0: 3b85 5ebd e3e9 d03a 357f 9a3d eba6 9f3c
000000f0: 93f1 0f3c a520 193d 4458 193d 2d4b 083b
00000100: c0ac eebc b995 a7bc 74db b8bc 92c4 b03c
00000110: 79af 863d f06d 663d ad00 f5bb b4e6 d4bc
00000120: 72e9 3cbd 6beb 53bd af61 353d 60e7 69bd
00000130: fe64 09bd 7111 0dbc 9db2 303d a436 bd3c
00000140: 124a 353d 94c5 453c 2420 c6bb 0ab5 1dbd
00000150: 34bd 273d d99f 623b 3071 8abc 644c 91bc
00000160: e920 7c3d daf5 c33c 2fdb 66bc 6424 1a3d
00000170: dc7c febc 47bc 3b3d a0e5 633b ef9d 4d3d
00000180: f5ee a8bc 5346 7c3d b5e3 30bd 5094 65bc
00000190: 45cc 813c ee4c 113d ef3a 523d 2f44 67bd
000001a0: a7b0 863d aee8 03bd 1717 733c babd 2c3d
000001b0: 14b9 aebc 4738 14bd 7429 ec3c 8d99 293d
000001c0: d343 42bb c7ba 9f3c 07bd 6ebc 0592 0f3d
000001d0: 5f61 863d d28c d13c a5d3 eebc 7d73 6e3d
000001e0: 4c79 143d fe22 ce3c 256d a33b b9ad 453c
000001f0: ea5e 053d de78 2cbd 008e b739 3a6e cfbc
00000200: 6b1b 79bc 74b5 09bd a6b9 4b3d 630d 0f3d
00000210: 2605 3bbd 2219 dabc 4daf 4b3d f641 b2ba
00000220: 1815 39bc 92f0 b73c 8aa3 413d c1c2 54bc
00000230: 365a 03bd 41be a63d be40 69bd 5a0c 45bd
00000240: acc2 5d3d 2509 5fbd e4dc f8bb 13b1 363d
00000250: 2f53 2ebd e132 903d a349 b6bb 5cd7 38bd
00000260: 3cad 053d c0b9 31bd 839a 38bc c011 b83b
00000270: 059f 2d3d 47ca ca38 8ecf 5e3d 1892 893d
00000280: 8d66 33bd 98d6 913c 2554 213c a7da 06bd
00000290: ad38 433d 600b bf3c 3b82 803d 0210 0cbd
000002a0: b987 38bd 88f2 7b3c cf11 173d eeea 7abd
000002b0: 4cfc 093d e159 833c a26d 2b3d 94e3 64bd
000002c0: 93ef 0d3d c952 503d cc7f 5dbd 580c 1e3d
000002d0: 212e 22bd 6b58 a53c 1b13 babc 80c2 b2bc
000002e0: a771 2cbd c0bb 02bd 6325 243d a421 a4bc
000002f0: 88a2 6abd a31e 7abc f183 66bd d31c 22bd
00000300: c099 6d3c 08a6 803c 7c62 69bd e129 9c3b
00000310: 2ef4 663c 0849 02bd 5109 adbc 9c9a 45bd
00000320: 5e3a 283b 1a8d fd3b 24d6 f7bc ab21 1bbd
00000330: 7637 d3bc f886 22bc 8816 873c 75ec 02bd
00000340: b428 0abd 3759 1ebc 2a20 5d3d 24a1 34bd
00000350: dade 073d 13ee c03c 59f0 413a 0c3a e0bc
00000360: d6f6 cfbc a4f9 3dbd af1f 713d e043 e23b
00000370: ca64 883c a044 96bc ce93 5bbd 80e5 4ebd
00000380: 4569 47bd 38f5 93bc 48a4 5a3c c7d3 8d3d
00000390: ccb9 4cbd 2b3c 6b3d 3dc6 1f3d a4a5 43bc
000003a0: 2011 b33c f37e 39bc ce0d 033d dc14 56bd
000003b0: a927 603d ad0e 5c3d 6629 643d 5788 3cbc
000003c0: bc40 3b3d 48b4 39bd 77eb cebb 5e4c 35bd
000003d0: 61fa 21bd 481b 743c 21f9 63bc 2b0b 563d
000003e0: 37a2 2fbd a5a0 aebc 5687 443c 9fc0 3dbc
000003f0: 9bda dc3c f1d0 703c ba4c 053d 37fe ffbb
0.012977117 0.025384985 -0.03266568 0.023251723 -0.029212845 0.042059444 0.06413284 -0.0076760575
-0.0033172546 -0.020571742 0.041328225 0.027550668 -0.039951272 -0.043450434 0.049820583 -0.035099946
-0.028122237 0.04990721 -0.0449813 -0.046395905 0.047354136 -0.037098445 -0.053382486 0.04918266
-0.04348128 0.0045981323 0.06760491 0.01899703 -0.018501056 0.053063404 0.009238683 0.025328182
0.033564333 -0.023610808 0.022695124 0.008106797 0.014441876 -0.059374407 -0.047749616 0.05836021
0.04837177 -0.04592734 -0.0007324168 -0.045792185 0.06923519 0.046677127 -0.04208812 0.04115463
-0.04810433 -0.0049321097 -0.007683763 -0.043051325 0.045326088 0.013077562 0.034113996 0.07049226
-0.054326277 0.0015938844 0.07543794 0.019488772 0.008785623 0.037384648 0.037437692 0.0020796761
-0.029135108 -0.020457136 -0.02256558 0.021578107 0.065764375 0.05625719 -0.007476887 -0.025988914
-0.04612107 -0.051738184 0.04428261 -0.057105422 -0.03354358 -0.008610115 0.04313909 0.023097344
0.044260092 0.012071032 -0.006046312 -0.03850273 0.040951923 0.003458014 -0.016899675 -0.017736621
0.061554823 0.023920942 -0.014090343 0.03763236 -0.031065397 0.045833852 0.0034774318 0.050199445
-0.020621756 0.061590504 -0.04318591 -0.014012411 0.015844474 0.035473756 0.051325735 -0.05646151
0.065766625 -0.032204323 0.014837048 0.042173125 -0.021328487 -0.036186483 0.02882836 0.041406203
-0.0029642477 0.019498242 -0.014571435 0.035051364 0.06561541 0.025579844 -0.029153654 0.058215607
0.03624849 0.02516317 0.0049873763 0.0120653445 0.03256122 -0.042107455 0.00035010278 -0.025321115
-0.015204291 -0.033620313 0.049737595 0.034924876 -0.045659207 -0.026623312 0.049727727 -0.001359998
-0.011296533 0.02245358 0.047275104 -0.012985886 -0.032068454 0.08141757 -0.05694651 -0.048107482
0.05414073 -0.05445208 -0.0075946916 0.044602465 -0.0425598 0.070409544 -0.0055629774 -0.045127258
0.032635912 -0.043390036 -0.011267307 0.0056173503 0.04238798 9.669788e-05 0.05439716 0.06717318
-0.043798972 0.017802522 0.009846722 -0.032923367 0.047661472 0.023320854 0.062748395 -0.034194954
-0.04505131 0.015377648 0.036882218 -0.061259203 0.033687875 0.016034069 0.0418526 -0.055881098
0.034652304 0.0508602 -0.054076955 0.03858599 -0.039594773 0.020183763 -0.022714188 -0.02182126
-0.042100575 -0.031917334 0.040074717 -0.020035572 -0.057283908 -0.015266093 -0.056278173 -0.03957827
0.014501989 0.01570417 -0.056978688 0.0047657345 0.014096303 -0.03180793 -0.021122606 -0.04824315
0.0025669555 0.007737768 -0.030253477 -0.037873905 -0.025783282 -0.009919874 0.016490236 -0.031963784
-0.033730224 -0.009664825 0.053985752 -0.04409899 0.033171512 0.023551023 0.00073981803 -0.027371429
-0.025386255 -0.046380654 0.058868106 0.006905064 0.016649622 -0.01834327 -0.053607754 -0.050511837
-0.048684377 -0.018061265 0.013344832 0.06925159 -0.049981877 0.057430428 0.039007414 -0.011941347
0.021858752 -0.011321771 0.031995587 -0.052265987 0.054725323 0.053724933 0.055703543 -0.011507115
0.045716032 -0.045337945 -0.0063146907 -0.044262283 -0.03954542 0.0148990825 -0.013914377 0.052256744
-0.04287931 -0.021316836 0.011995157 -0.011581569 0.026959708 0.014698253 0.032543875 -0.007812287

net2.4.weight f4 [256, 256]
00000000: fb6d 733d bb94 d1bc 8562 f2bc fff0 163d
00000010: 1619 36bd 101b 8fbb ecaa c03c d6d7 42bd
00000020: 9be6 453d d5cd c7bd 6d94 713d 4878 753d
00000030: 982d 80bc b3e8 6e3c 7f4c 52bd 161f 563d
00000040: 63d5 883d 87dd 52bd 98c1 1cbc e0f4 473c
00000050: faac 273d a806 51bc f2d2 31bd 0f36 703d
00000060: eb98 d13d 5e0c 153d 3e0d 3b3d 8fa3 0b3d
00000070: 5dee 4c3d 678e d93c 3191 8bbd 90c1 f53c
00000080: fa3d 83bc c030 033b a324 57bd c8e4 56bc
00000090: 6cef af3d 0080 35b8 4854 f9bc 6d8b a63d
000000a0: 2ccc 963d d4b8 d83c 06fc 933d 4256 1c3d
000000b0: b675 29bd d695 fd3d c927 453c 3e43 103d
000000c0: 4269 493c 5039 43bc e248 583d 160f 233d
000000d0: f3ed 42bd 1c0a 58bd 29f7 9f3c e741 3b3d
000000e0: 9f5f b93c 62e8 b33d e1c1 4cbd 3f65 1f3d
000000f0: 9d91 013e 6b82 643d 16df a8bc 2c56 c53d
00000100: 3842 90bc 419c 423d 1b63 49bd 02e7 903d
00000110: 2ef0 933d 78f5 e7bc 1e17 e93b 006e e639
00000120: 2131 1bbd 77f3 423d 3e24 06bd a05f 42bd
00000130: 2fda 9dbd 3c23 8abc 0675 c63a f0c1 86bc
00000140: 929c 063d 7143 d73d b88b af3d eea8 a73d
00000150: 848e 1b3d def3 533d e404 cebc 001a 263c
00000160: 83d8 56bd 8ad7 9ebd 4751 7e3b acc6 f4bc
00000170: 183e 423d 0db7 1dbd 3422 70bd edcc 513d
00000180: 3d03 a13c 120c e63d 7e87 9f3d 7c3c d43c
00000190: 0b58 cebd c814 6a3d 47ba 413c 6000 d93d
000001a0: 8d32 afbc 3d10 953b 8944 e9bc 8bcd e13d
000001b0: c65d 323d 6cc4 82bc 344f 13bd 8601 eb3d
000001c0: 228a dc3d a965 3abc 5156 7f3d 53a2 89b9
000001d0: ecae 9d3d 6e40 523d 407c 7cbc 3640 6abc
000001e0: 1c8f 57bd 8396 123e cb28 1bbc 9f57 2f3d
000001f0: e052 89bb 72c9 db3d 689c b3bc 443d 44bc
00000200: 55f4 633a b08e 78bc 1f3a b23c 6f31 b83c
00000210: 7023 f13c 1395 89bd 9a44 313c fac8 efbd
00000220: bcfc b8bc 2a5c 423d 5cf3 463d 08f5 c83d
00000230: 30f9 f9bc 5915 ff3c 7434 c2bc 0405 92bc
00000240: d4bc 02bd f80e 4f3c 098b 5f3d 60ad 723d
00000250: 20c6 35bc 7e13 45bb e67d b1bd 4052 7ebd
00000260: 590a 123d 5a15 ad3d ccc7 f33c 7f94 d73d
00000270: 07d7 f63b 69e5 843d 06b8 953c 1a1d 1abd
00000280: 4f06 b23d 5c76 60bd 3869 853d 05d8 483d
00000290: 824f 08bd 1fab 503d 38b5 e73c 6418 b33c
000002a0: 0da3 0c3d d896 2a3d 849b ea3a da47 8bbb
000002b0: d44d 543d dc2a 40bd 5495 683d f464 953c
000002c0: f139 b43c 638a 4bbd 6028 803c c67f c13b
000002d0: f9c9 7dbd 92cf 903d 633f 743c c2af 2d3d
000002e0: 075c e23d 79c0 1c3d c35e de3d 9acd 37bd
000002f0: 5a0d 203d bfee a53d 8eeb e33c 8a0a feba
00000300: aa93 22bd b031 07bd b6fe 31bd 4ddb 4bbd
00000310: dcb5 3f3d fe7b f73d cab3 483d d3c9 213d
00000320: 8bbf 243d da9a 053e ee2f 023c 0c99 84bd
00000330: bf57 5b3c 6980 3c3d 704f 6b3c d209 e13c
00000340: 7bad 913c cc6b 293d 7369 1d3d cb24 c6bc
00000350: f63a 10bd 785c 943d ff20 573d 143c 8f3c
00000360: abe1 2f3d 8011 68bb a919 3abc 2795 a73c
00000370: 6899 1cbd b0b7 6fbc 181a e9bc feef 74bd
00000380: 22aa 293d 69a1 a9bc 5009 4abc 74b5 3f3d
00000390: 093b 803c 84b7 5a3d 7271 0e3d 0a36 4d3d
000003a0: 7890 63bd 1190 3cbd 5e37 12bd 2841 a2bc
000003b0: f26a 1bbd 3233 463d f40e 69bd ed8b 4b3d
000003c0: d814 0bbd f49e b6bc b577 253d 38a5 76bd
000003d0: 9089 c73c a8e2 ed3c 4f96 1b3d edae 0a3d
000003e0: d392 863d 4f9f 103d 37a7 32bd 4c07 283d
000003f0: e303 d0bd 2c55 88bc 8a02 73bd d24b f73d
0.059431057 -0.025583616 -0.029587993 0.036850926 -0.044457518 -0.00436724 0.023519002 -0.04756912
0.048315626 -0.09756056 0.05897944 0.059929162 -0.01564674 0.014581847 -0.051342484 0.05227574
0.06681325 -0.051480796 -0.009567641 0.012204379 0.040936448 -0.012757935 -0.043414064 0.058645304
0.10234245 0.036388747 0.045666926 0.03409153 0.05003201 0.02655716 -0.068148024 0.029999524
-0.016020764 0.002001807 -0.052525174 -0.013116069 0.08590588 -4.3272972e-05 -0.030435696 0.08132062
0.073631614 0.02645532 0.07225804 0.0381682 -0.041372024 0.123820946 0.012033411 0.035220377
0.012293162 -0.01191552 0.05280388 0.03980931 -0.047590207 -0.052744016 0.019527035 0.045717146
0.022628604 0.08784558 -0.049989585 0.038914915 0.12653203 0.05578844 -0.020614188 0.096355766
-0.0176097 0.047512297 -0.04916678 0.07075311 0.07223545 -0.02831529 0.0071133515 0.00043950975
-0.03788865 0.047595467 -0.032749407 -0.047454476 -0.07707631 -0.016862504 0.0015141077 -0.016449898
0.03286416 0.1051091 0.08571571 0.08186518 0.03797771 0.05174624 -0.025148816 0.010138035
-0.052452575 -0.077559546 0.003880577 -0.02987989 0.0474225 -0.03850465 -0.05862637 0.051220823
0.019654864 0.11232771 0.07789515 0.025907747 -0.100753866 0.057148725 0.011824197 0.10595775
-0.02138641 0.004549055 -0.028475063 0.11025532 0.04354646 -0.015962802 -0.035964206 0.114749
0.10768534 -0.011376777 0.062338177 -0.00026251617 0.07699379 0.051330976 -0.015410483 -0.014297536
-0.052626714 0.14315228 -0.009470175 0.04280817 -0.0041907877 0.10731782 -0.021925166 -0.0119774975
0.0008695771 -0.015170738 0.02175623 0.02248451 0.029435843 -0.06717887 0.010819579 -0.11708255
-0.02258145 0.047451176 0.04857193 0.09812361 -0.03051433 0.031138109 -0.023706652 -0.017824657
-0.03191836 0.012637846 0.054575954 0.059247375 -0.0110946 -0.0030071433 -0.08666591 -0.06209016
0.0356544 0.08451338 0.029758357 0.1052637 0.0075329575 0.06489069 0.018276226 -0.03762541
0.086926095 -0.054800376 0.065142095 0.049034137 -0.03327895 0.050944444 0.028284654 0.021862216
0.034335185 0.041647762 0.001789913 -0.0042505087 0.051832035 -0.046915874 0.056783035 0.018236615
0.022000285 -0.049692523 0.015644252 0.0059051244 -0.061960194 0.07070841 0.014907691 0.042403944
0.11052709 0.038269494 0.10857918 -0.04487381 0.039075233 0.08102178 0.027822282 -0.0019381803
-0.039691605 -0.03300637 -0.043455802 -0.04976969 0.046804294 0.120841965 0.048999585 0.039499115
0.040221732 0.13047352 0.007945998 -0.06474504 0.0133876195 0.0460209 0.014362201 0.027470503
0.017782917 0.04136257 0.038430642 -0.024187466 -0.03521248 0.072441995 0.052521702 0.017484702
0.042939823 -0.0035410821 -0.011358657 0.020456864 -0.038232237 -0.014631197 -0.028454825 -0.059799187
0.041422017 -0.02070685 -0.012331322 0.046803907 0.01565315 0.05339767 0.03477616 0.050100364
-0.055557698 -0.04603583 -0.035697334 -0.01980646 -0.037943788 0.048388667 -0.056899026 0.04969399
-0.033955425 -0.022292592 0.040397365 -0.06021616 0.024357587 0.029038742 0.037985142 0.03385823
0.06570973 0.03530818 -0.0436165 0.041022584 -0.10156991 -0.016642176 -0.059328593 0.120750085

net2.4.bias f4 [256]
00000000: 0e2b 833c e313 a3bc 3567 253d 9a0c 853d
00000010: 982b 1abc 7d8f 90bc 448e 5dbc 148a 8dbc
00000020: 9ebf 043c 73f2 44b9 d250 4b3b 94a2 f13c
00000030: aeb9 223d c8d0 4e3d 3c5b f3bc 1280 863d
00000040: 1279 4f3d c564 813c 9874 113d cc69 143d
00000050: 3a77 2cbd 68d0 953c cb81 113d 81cd 9cbc
00000060: df8c c0bc 0721 5ebd 1ef9 37bc 73c3 1e3d
00000070: a431 8bbc dc80 7d3c 07ab bebc 1d1a 6c3d
00000080: 0b89 dabb 633f 48bd e4db 67bd f8a2 48bc
00000090: efcb 153d 78ce 903c 0060 debc 657d f73c
000000a0: 1c54 82bc e4b1 9f3c 15d6 023d 97c8 4c3d
000000b0: ce89 6cbd 6e9e 273d 826d 4e3d 5a05 1bbd
000000c0: 1e56 49bd 28e2 6c3d 3f8d 2fbd 0d85 1a3d
000000d0: 11f9 5e3c d4d5 5b3d 8a61 2cbd a300 683d
000000e0: 328d 2abb e854 ea3c 862c 183c e243 023d
000000f0: b633 bbbc 409d a93b da5e 143d 3d4e 383c
00000100: b298 5abd 6a5a 63bd 8243 1dbd be94 64bb
00000110: 7579 7f3c 829b 6cbc 3b1f 2f3d e08a 043c
00000120: 20ca 4abd 447e 593d f4fe 733d a05c 693c
00000130: 88ef acbc 94de 513d 225b 16bd 6858 123d
00000140: 3f7d 003d 337f 083d 1c53 753c 3aa9 d0bc
00000150: 7c86 913c 6c31 4ebd de5d a23c fcaa 5ebd
00000160: 4ac1 09bd 48f6 b83c 2a05 c6bc af9d 94bc
00000170: 0510 7e3d 5559 24bc 4baf e03c 8858 4b3d
00000180: 0632 15bd 886e fdbc 20ac 553b 3756 cc3c
00000190: 8a9c d9bc 0e75 74bd 3c9d 3abd 174e 723d
000001a0: 9dfd cb3c 382b af3c a4e6 89bc 2fc5 13bd
000001b0: e145 4b3d b058 623d a032 03bd dcfa 2d3d
000001c0: b403 623c ce5c 653d 7252 5ebd 4521 72bc
000001d0: 8389 2e3d 0098 6f3b a81d db3c 914b 5e3d
000001e0: b609 823d ea13 5b3d 2597 44bd 9bd5 90bb
000001f0: 24ca 9a3d 340d 753c 3cef 54bd 49e2 f2bc
00000200: c907 2f3d 0481 07bc f0f7 77bc 80f8 8ebc
00000210: f646 1cbd df4d 8cbc fa18 5e3d c7e6 2abd
00000220: f131 0d3d 7a80 8bbc f1ab 9e3c a5f6 02bd
00000230: 7080 483d 7fe3 1bbd 7016 a8bb 0b26 d53c
00000240: 76b2 67bd 6078 debb 23f9 ee3b c45b d93c
00000250: c488 bcbc 5790 643d f9b7 6c3c cb3a 3d3c
00000260: 5bf0 1cbd 7986 263d 818e 8c3c e5b9 10bd
00000270: 6466 6fbd 2a9d 643c 4b68 1fbc 1ce1 e6bc
00000280: c259 4e3d 54cd 47bc 2662 253b d6be 243d
00000290: 1c9b f43c 92a1 ccbb d4ae e33c c98e 7c3d
000002a0: d885 9e3c ccf8 f1bc 4218 953c dd47 643d
000002b0: 19fa 163d 48cd 133d 9030 96bc 82f1 4d3c
000002c0: 0997 6dbd 6368 6f3b d6d2 223d 09ad fb3c
000002d0: 3071 803c dd81 043d 99b7 933d 3900 e2bc
000002e0: 34cf ddbc 7e41 463d c00b 303c d445 85bd
000002f0: b3c0 143d e0a5 cfbc d74a d23c 2f33 ad3c
00000300: a055 dd3c 3d3a 273d 61f9 f53c 9011 c53c
00000310: 7fc6 e6bb 9a9d 62bd fa23 36bd 90b6 1ebd
00000320: 55d0 283c e3db c1bc ef0d 52bc f930 893c
00000330: b262 70bd 5441 94bc 5690 93bc 935f 093d
00000340: 23e3 673d c287 0cbd 7733 bdbb d693 243d
00000350: 8829 56bd 60f9 5dbd 3903 323d fa8f 31bc
00000360: 1da7 10bd 48ed 6cbd f2cd 01bc 4f8f 5c3d
00000370: 28c3 413c 2ab5 0b3d c371 383d d739 56bc
00000380: a82f 70bc 40c2 ce3b 0ccd 05bd 8c12 48bd
00000390: d48b f83c 0688 e43c 5b47 0d3d 0a1b 72bd
000003a0: 9e8e 8bbc c021 17bd 73c7 2d3d a3c4 d7bc
000003b0: a1dc d5bc 63a8 133c f281 d9b9 e7ad 68bc
000003c0: 0091 fc3b 7797 b23b e1b5 123d 9b08 fe3c
000003d0: 6d81 513d 2044 fa3c eb52 943b c4ad 01bd
000003e0: 2714 e73c 6629 74bd a3b9 40bd 9c5d 243d
000003f0: ef2e 403d 960b cf3c 3f49 cdbc 13e1 08bd
0.016011741 -0.019906944 0.04038163 0.06496544 -0.009409808 -0.017646546 -0.013522688 -0.017277755
0.008102326 -0.00018782336 0.0031023514 0.029496469 0.03972786 0.050492078 -0.02970659 0.06567396
0.05065257 0.015795121 0.035511583 0.03623371 -0.04210589 0.018287852 0.03552417 -0.01914096
-0.023504673 -0.054230716 -0.011228828 0.038760614 -0.016991444 0.015472617 -0.023274912 0.05764209
-0.006669169 -0.048888575 -0.05660619 -0.012245886 0.03657144 0.017676577 -0.027145386 0.03021116
-0.015909247 0.019494005 0.031942446 0.049995985 -0.05774861 0.040922575 0.050397404 -0.0378469
-0.049154393 0.057832867 -0.042859312 0.037724543 0.013609187 0.05367072 -0.042085208 0.056641232
-0.00260241 0.02860494 0.009287959 0.03180302 -0.022851806 0.0051762164 0.03622327 0.011249122
-0.053368278 -0.055506147 -0.03839446 -0.0034878696 0.015592922 -0.014441373 0.042754393 0.008089751
-0.049509168 0.053098932 0.059569314 0.014243275 -0.021110311 0.051237658 -0.036708005 0.035728842
0.031369444 0.03332443 0.014973428 -0.025471319 0.017764322 -0.0503401 0.01982015 -0.054362282
-0.0336316 0.022578374 -0.024172384 -0.018141596 0.062026996 -0.010031064 0.027427336 0.049644977
-0.03642466 -0.030936494 0.0032603815 0.024943454 -0.026563901 -0.059681945 -0.045560107 0.059156504
0.024901206 0.021382913 -0.01683361 -0.03607672 0.04962719 0.05526036 -0.0320307 0.042475566
0.013794828 0.05599671 -0.054277845 -0.01477844 0.04261161 0.0036559105 0.02674754 0.054271284
0.063495085 0.05348579 -0.047995705 -0.004419995 0.075580865 0.014956761 -0.051985964 -0.029648917
0.042732034 -0.008270506 -0.0151347965 -0.017452478 -0.03815361 -0.017126976 0.05422304 -0.041723993
0.034471456 -0.017029036 0.019369097 -0.0319735 0.048950613 -0.038058754 -0.005129628 0.026019117
-0.056566678 -0.006789252 0.007292883 0.026533015 -0.023014434 0.055801716 0.014448159 0.011549662
-0.03831516 0.040655587 0.017157795 -0.035333533 -0.058447257 0.013953486 -0.009729455 -0.028183512
0.05037857 -0.01219495 0.0025235503 0.040221058 0.029859118 -0.0062448466 0.027793325 0.061659608
0.019350931 -0.02953758 0.018200044 0.055732597 0.036859605 0.036084443 -0.018333703 0.012569787
-0.058005366 0.0036530725 0.03975185 0.030722158 0.015678972 0.03235041 0.07212753 -0.027587997
-0.027076341 0.048402302 0.010744989 -0.06507459 0.036316585 -0.02534765 0.025670452 0.02114257
0.027018368 0.040827025 0.03002614 0.024056226 -0.0070427055 -0.05532608 -0.044467904 -0.038748324
0.0103035765 -0.02366442 -0.012820705 0.016746985 -0.058687873 -0.018097557 -0.01801316 0.033538412
0.0566131 -0.034309156 -0.0057739574 0.04018005 -0.0522857 -0.0541929 0.043460105 -0.010837549
-0.03531562 -0.057843477 -0.007922636 0.053847607 0.011826314 0.03410832 0.045030367 -0.0130753135
-0.0146598 0.0063097775 -0.03266625 -0.048845813 0.030340113 0.027896892 0.034491878 -0.059107818
-0.017035779 -0.03689742 0.042426538 -0.02633888 -0.02610618 0.0090123145 -0.00041486282 -0.014201618
0.007707715 0.005450185 0.035817984 0.031009963 0.05114882 0.030550063 0.004526486 -0.031659856
0.028207852 -0.059609793 -0.047052037 0.040128335 0.04691976 0.02527408 -0.02505934 -0.033417773

net2.6.weight f4 [2, 256]
00000000: 2629 53bd 3d0c 9b3d b9db 1d3d bc77 8cbd
00000010: 9429 e53c d695 b0bc 15a8 83ba 9ea7 16bd
00000020: ce6b 7abd 8ff6 ac3d 5759 efbd f835 3fbd
00000030: f49c af3d a82a ddbc ba03 783d 0b6a ea3d
00000040: 8a58 573d 95dc 44bc 6880 5d3d d82a d4bc
00000050: e6c0 333b 7650 633c f1e7 f23c 5040 483d
00000060: f3fc 95bd 8037 b1bd 2432 aebc 338b 8bbd
00000070: 2ee6 fcbd b9a0 b7bd ed34 d4bc 24da 98bd
00000080: ac10 e4bb dc5d cc3d 45b0 cf3c cc0e 4a3d
00000090: e055 5c3d 4a50 43bd d84d d8bd 0082 d2bc
000000a0: 8a19 273d 563d b63d 7207 6abd bc5e c53d
000000b0: 08f5 fe3c 8ede 3d3d fdb0 98bd 613f bb3d
000000c0: e0d6 0c3d 1684 76bd 9c43 28bd cd1e 63bd
000000d0: 7c24 d7bc cd9e 51bd 0255 c23c bc13 113c
000000e0: 61e3 07bd f1c7 ae3c 5e34 53bd 1cf1 563c
000000f0: 5ae0 0c3d 24d9 733d 60b1 503d 98b7 813d
00000100: e764 fdbc b854 913c 0c8f c8bc 0b14 f6bb
00000110: 0225 5dbd e647 153e 8a3b e43d 6476 61bd
00000120: 90c9 c33b d73b 653d 1c80 b8bd 60a4 203d
00000130: b558 3ebd 568c cdbc 7370 aabd 2ccd 06bd
00000140: c175 5d3d af8a 86bc aca2 ddbd b36e efbd
00000150: d62c 9e3c 0bf1 723d 320d 6d3d c4f2 74bd
00000160: 71b6 163d df94 9abd 53e5 193d 2026 0a3d
00000170: bf79 ca3d 01d0 263d 1096 633d aa02 293d
00000180: 5728 2a3e 6014 a23c 0cc9 79bd 3a91 b93d
00000190: ab39 04bd 88f0 5cbd 5cc0 3b3d eace 383d
000001a0: a33d 0abd 287d e9bc 246f 203d 7cce 9e3d
000001b0: 0d04 c6bd 8565 f7bd 2367 b9bd 7d3e e53d
000001c0: f09e 75bd 4e54 0f3d 201f 72bd fa62 9e3d
000001d0: 3886 e2bd c28a 283d 5820 6ebc 5ed9 5c3d
000001e0: b417 6fbd 5060 cd3c 7ec6 ff3d 7d79 10bd
000001f0: ba51 143e 1e22 adbd 9228 113d 7a07 143e
00000200: 212c 82bd 565d 14bd 0cb7 1d3d f03b 073c
00000210: 601a 2ebc 19d9 44bd 1cf6 fd3d c69c cc3c
00000220: fad1 38b8 7e8f 6ebd d2be 02bc 47d4 a13d
00000230: ccb7 8b3c b680 cebd 5a1b 0e3c e53d e2bd
00000240: 6c59 1abd 1044 eb3c 6242 aabd 58d7 223c
00000250: d564 223d d16d 123d cd79 623c 92b5 da3d
00000260: 476b 49bd 8a44 29bd 558f f33d 26c3 c5bc
00000270: 0343 15be 642f 80bd 11a3 0c3e bc89 843c
00000280: 6ce7 b2bd 82ac b9bd 580d 5c3d 6651 82bd
00000290: fb6c 8ebd 9dfa debc bb6d edbd f6a9 fbbd
000002a0: 7793 2dbd 3639 06bd 4299 3fbd e1ef 633d
000002b0: f9d5 c63c b8c2 f1bc 31f1 2bbd 555b 3e3d
000002c0: a7b9 a7bb 6b81 d33c 3a2f 6b3d 452d ae3c
000002d0: b8ae bcbc a4ed 8d3d 56ab 87bd f53e 283c
000002e0: c8e0 7bbd bce3 0d3d cc14 aebc 23d8 cc3c
000002f0: 499b 9e3b 5463 133d 0899 ff3d a952 c53d
00000300: 4392 613d 7d13 2bbd 8750 4fbd 5a8e 5cbd
00000310: b752 933d d264 023d 165b bc3d c07c 70bc
00000320: 1d9c 603d 7c5b fe3d 8a45 703c ea98 01bd
00000330: 12bd 513d 9439 76bd 2ecf 823d fbb4 43bd
00000340: c7a4 d53c 8af4 163d 34b7 7cbb dbf4 b3bd
00000350: de43 b5bd 8e8f dbbd af74 143d 427b 443c
00000360: ff7e c53c f826 ad3c 7b05 1cbd 083c 5f3c
00000370: 4f41 7ebd f99f 9fbd 28e2 2a3d 3ef5 563d
00000380: de8f 203d 46c0 5dbd 3866 3fbd 38be c9bc
00000390: 34eb 4bbd a502 1f3e 693f debd 34e2 f1bc
000003a0: 1128 89bd 1dc0 603d 1074 143e 34fd 663d
000003b0: 4922 233c 5563 9cbc 4365 d9bd 4696 e3bd
000003c0: e648 3c3d 65e8 7abd 3a56 c43d a2e6 c4bd
000003d0: 4858 1cbd 88f1 42bd 9bda bcbd 48a9 42bd
000003e0: ffd2 503d fe99 0c3d fa39 36bd 65cf 603d
000003f0: 3abc 65bd 9492 9ebd 93ff 86bd 9bd7 673d
-0.051552914 0.07570694 0.038539622 -0.06858775 0.027973928 -0.021555822 -0.0010044599 -0.036780946
-0.061137967 0.08445465 -0.11686962 -0.046682328 0.08574858 -0.02699788 0.06055043 0.11446007
0.05257467 -0.0120154815 0.054077536 -0.025899336 0.002742821 0.013874164 0.029651614 0.04888946
-0.07323637 -0.08653164 -0.021264143 -0.068136595 -0.12348591 -0.08966202 -0.025904143 -0.07463482
-0.0069599953 0.0997884 0.025352607 0.049330518 0.053792834 -0.04768399 -0.105617225 -0.025696754
0.04079584 0.08898418 -0.057136007 0.0963721 0.0311227 0.046354823 -0.07455633 0.09142948
0.03438461 -0.06018456 -0.041080102 -0.055449296 -0.026262514 -0.051176835 0.023722176 0.008854803
-0.03317583 0.021335574 -0.051563613 0.013119008 0.034393646 0.059533253 0.050950408 0.06333846
-0.030931903 0.017740592 -0.024482273 -0.0075097135 -0.05399037 0.14578208 0.11144169 -0.055044547
0.005974956 0.05596527 -0.0900881 0.03921926 -0.046471316 -0.025091331 -0.08322229 -0.03291051
0.054067377 -0.016423551 -0.10822043 -0.11691036 0.019308489 0.059311908 0.057873912 -0.05980183
0.036795083 -0.07547926 0.037572216 0.033727765 0.098865025 0.04072571 0.055563033 0.041262306
0.16616951 0.019785106 -0.06098275 0.09060903 -0.03228156 -0.053940326 0.045837745 0.045119204
-0.033750188 -0.028502062 0.039168492 0.077542275 -0.096687414 -0.1207991 -0.09052875 0.11193559
-0.059966028 0.03499251 -0.059111714 0.07733722 -0.110607564 0.041147955 -0.014534079 0.053918235
-0.058372214 0.02507034 0.12489031 -0.03527211 0.14484301 -0.08453773 0.03543908 0.14455977
-0.06356073 -0.036221825 0.038504645 0.008254036 -0.0106264055 -0.048058603 0.12400457 0.0249771
-4.4064574e-05 -0.058242314 -0.007980065 0.07901817 0.017055415 -0.100831434 0.008673513 -0.11046962
-0.037682936 0.028718978 -0.08313443 0.009939037 0.039646942 0.03574926 0.013822985 0.10679163
-0.049174573 -0.04132513 0.11892573 -0.024140906 -0.14576344 -0.06259039 0.1373408 0.016178958
-0.087355465 -0.090661064 0.053723663 -0.06363182 -0.0695438 -0.027219111 -0.11593195 -0.12288277
-0.04237696 -0.032769404 -0.046777017 0.05564869 0.024271952 -0.029511794 -0.041978065 0.04647382
-0.005118567 0.025818547 0.057418086 0.02126182 -0.023032531 0.06930092 -0.066244766 0.010268916
-0.061493665 0.034641013 -0.021250151 0.025005406 0.004840289 0.0359834 0.1248036 0.09634907
0.055071127 -0.041766632 -0.050613906 -0.053846695 0.07193511 0.03183443 0.09197061 -0.01467818
0.05483638 0.12419793 0.014665017 -0.03163997 0.051205702 -0.060113505 0.06387173 -0.04778002
0.026079549 0.036854304 -0.0038561346 -0.08786937 -0.08850835 -0.1072074 0.03624409 0.011992278
0.024108408 0.021136746 -0.038091164 0.013625152 -0.062074002 -0.07794184 0.041719586 0.052479975
0.039199702 -0.054138444 -0.046728343 -0.024626836 -0.049784854 0.15528353 -0.10851938 -0.029526807
-0.06697095 0.054870714 0.144974 0.056393817 0.009956905 -0.019090334 -0.10615017 -0.11112647
0.04596796 -0.061256785 0.09586759 -0.09614302 -0.03817013 -0.047593623 -0.09221383 -0.04752472
0.05098247 0.034326546 -0.044488885 0.054885287 -0.05608771 -0.07742801 -0.06591716 0.0566021

net2.6.bias f4 [2]
00000000: c014 803d 12d5 683d
0.06253958 0.056843825
